app/src/main/ml/RNN - WISDM_ar.tflite (tflite, 371580 bytes, 15 tensors)

lstm_58/lstm_cell_58/bias f4 [240]
-0.19755654 -0.040689453 -0.09021735 0.053937238 -0.06850687 0.044414643 -0.19779596 0.07038524
0.06630724 -0.05775091 0.06211144 -0.0049131513 -0.05381058 -0.10490646 -0.15388002 -0.21069098
-0.1450442 -0.11126822 -0.06578953 -0.14632408 0.026625354 -0.030057782 -0.03844491 0.03929468
-0.016311748 -0.09546794 -0.10980537 -0.08640429 -0.124091476 -0.051350087 -0.028270673 0.085839935
-0.026163232 -0.10348159 0.0038969787 -0.18795286 0.040578317 0.0068703657 -0.10056707 -0.03288365
0.04627446 0.028857145 0.01977537 -0.0863189 -0.06849341 0.043190423 -0.007941003 -0.09156997
0.048852038 -0.13559164 -0.046258442 -0.04425171 -0.097100995 -0.006362498 0.015512292 -0.03451543
0.00079079444 -0.1584338 -0.11402923 0.072486944 0.93583024 1.2170433 1.178974 1.2912643
1.0512661 1.1687186 1.1159796 1.1180421 1.1509413 1.0220332 1.1606631 1.2686626
1.0534247 0.9615667 1.3048135 1.2376629 1.1017302 1.2800136 1.1302782 1.0589544
1.0985482 1.1808077 1.2728233 1.2113395 1.1432766 1.0989106 1.2298341 1.0332028
1.2428083 1.1812223 1.0263665 1.3476336 1.1466634 1.1768073 1.2093812 1.1739132
1.1208723 1.0237118 1.1107876 1.2182101 1.2132405 1.2892658 1.3091807 1.02635
1.1071583 1.3221334 1.1188844 1.0598158 1.1264547 1.2178022 1.2102034 1.1693497
0.95202655 1.2496486 1.2127453 1.1769814 1.094114 0.990703 0.94664556 1.2419673
0.0487711 0.038415063 0.077890165 0.1252863 0.038882647 0.033461276 -0.05970351 0.15537931
0.1594531 0.07165249 0.11306226 0.12157122 0.064694144 -0.07540709 0.09899683 0.03007383
0.07579667 0.034008134 -0.09212443 -0.07401862 0.084704265 -0.062382545 0.096484676 0.06883994
-0.02504332 -0.05936151 -0.02949739 0.02462019 -0.018717453 -0.0879153 0.06511999 -0.15407395
0.04310738 -0.03458524 0.16716713 -0.050895143 -0.074074544 -0.10852213 -0.00852576 -0.13555564
0.08013764 0.07656041 -0.072172515 -0.024298573 -0.065537855 0.09991138 0.022096366 -0.016360207
-0.16277109 0.026277978 -0.09248947 0.063087 0.0147031685 -0.083696514 0.017710412 -0.03911802
-0.058912076 -0.029936334 0.06967417 -0.1477789 -0.12512451 0.018764423 0.006967376 0.110352546
-0.034289915 0.00013317353 -0.065494694 0.10465096 0.012502429 -0.0046614357 0.042550266 0.061526544
-0.043825246 -0.08912898 0.058648862 0.014474874 -0.00071424706 0.034642827 0.093916595 -0.065947704
0.066670254 -0.021548027 0.0046785697 -0.020398993 0.000788784 -0.1042807 0.029610017 -0.07841294
-0.0049180174 -0.006298377 -0.006254264 0.13846453 0.008210303 0.08442004 0.025417374 0.025711535
0.057625063 -0.059799545 -0.029098626 0.002994951 0.063385874 0.10502512 0.102488354 0.018888267
0.012842179 0.05729027 -0.0012575014 0.028923504 0.052767616 0.071827546 -0.016689466 0.031736854
-0.057907842 0.047802687 0.060647864 0.04560196 0.02354649 -0.009859016 -0.017086284 0.05060449
00000000: 434c 4abe fca9 26bd e0c3 b8bd 4bed 5c3d
00000010: 544d 8cbd 21ec 353d 068b 4abe 2326 903d
00000020: 17cc 873d 388c 6cbd 9168 7e3d 80fe a0bb
00000030: 7c68 5cbd 33d9 d6bd b992 1dbe 60bf 57be
00000040: 7786 14be 98e0 e3bd a9bc 86bd fbd5 15be
00000050: 6a1d da3c bd3b f6bc 6978 1dbd 75f3 203d
00000060: 37a0 85bc b284 c3bd a3e1 e0bd bbf4 b0bd
00000070: ac23 febd 7854 52bd e697 e7bc d9cc af3d
00000080: 4654 d6bc 28ee d3bd 7464 7f3b b776 40be
00000090: 7335 263d ce20 e13b 1cf6 cdbd 02b1 06bd
000000a0: 4a8a 3d3d d265 ec3c f5ff a13c f7c7 b0bd
000000b0: 4646 8cbd 71e8 303d fb1a 02bc 0989 bbbd
000000c0: 1319 483d 89d8 0abe 7e79 3dbd 4841 35bd
000000d0: e3dc c6bd 807c d0bb 4527 7e3c 0d60 0dbd
000000e0: 514d 4f3a 783c 22be 2888 e9bd 0974 943d
000000f0: 9292 6f3f 13c8 9b3f 9fe8 963f 2648 a53f
00000100: e38f 863f 9298 953f 6bd8 8e3f 011c 8f3f
00000110: 0b52 933f fcd1 823f 9c90 943f 8963 a23f
00000120: 9fd6 863f 3c29 763f 2104 a73f bd6b 9e3f
00000130: 7f05 8d3f 7cd7 a33f f5ac 903f d18b 873f
00000140: 3a9d 8c3f b524 973f e0eb a23f 2c0d 9b3f
00000150: e356 923f 1aa9 8c3f 346b 9d3f fd3f 843f
00000160: 5814 9f3f 4b32 973f fa5f 833f 427f ac3f
00000170: dec5 923f 9fa1 963f 01cd 9a3f ca42 963f
00000180: be78 8f3f fd08 833f 4a2e 8e3f 4fee 9b3f
00000190: 774b 9b3f a906 a53f 3c93 a73f 705f 833f
000001a0: 5db7 8d3f ab3b a93f 9b37 8f3f 0ba8 873f
000001b0: ab2f 903f f1e0 9b3f f2e7 9a3f 40ad 953f
000001c0: 03b8 733f 7cf4 9f3f 3d3b 9b3f 54a7 963f
000001d0: ed0b 8c3f b69e 7d3f 5d57 723f c9f8 9e3f
000001e0: 34c4 473d 1d59 1d3d e184 9f3d 0d4b 003e
000001f0: 6943 1f3d b10e 093d ab8b 74bd c11b 1f3e
00000200: ac47 233e 8abe 923d 308d e73d 55fa f83d
00000210: 5d7e 843d 086f 9abd dabe ca3d 655d f63c
00000220: 493b 9b3d 1d4c 0b3d bcab bcbd 1397 97bd
00000230: 6e79 ad3d d784 7fbd c299 c53d f4fb 8c3d
00000240: a627 cdbc 0e25 73bd 83a4 f1bc 48b0 c93c
00000250: 5855 99bc f00c b4bd a15d 853d 90c5 1dbe
00000260: 5d91 303d 41a9 0dbd dc2d 2b3e 6d77 50bd
00000270: 65b4 97bd da40 debd a1af 0bbc 19cf 0abe
00000280: 341f a43d b4cb 9c3d 2fcf 93bd cd0d c7bc
00000290: b638 86bd 569e cc3d 7003 b53c d705 86bc
000002a0: 77ad 26be ea44 d73c 1f6b bdbd c233 813d
000002b0: 8fe5 703c 1469 abbd 6d15 913c 383a 20bd
000002c0: ca4d 71bd 0b3d f5bc 55b1 8e3d 5a53 17be
000002d0: a420 00be d9b7 993c 964e e43b 8400 e23d
000002e0: 9573 0cbd 7fa4 0b39 1522 86bd 3e53 d63d
000002f0: fdd6 4c3c f5be 98bb 3049 2e3d 4203 7c3d
00000300: 1a82 33bd 4189 b6bd ca39 703d 0628 6d3c
00000310: 4f3c 3bba a3e5 0d3d 5857 c03d 970f 87bd
00000320: 6a8a 883d 7d85 b0bc b04e 993b ca1b a7bc
00000330: 66c6 4e3a 1f91 d5bd b590 f23c f796 a0bd
00000340: 5227 a1bb 9e62 cebb 92f0 ccbb a5c9 0d3e
00000350: 8284 063c 6ae4 ac3d 1938 d03c ffa0 d23c
00000360: 4208 6c3d 5ef0 74bd 3e60 eebc f146 443b
00000370: 74d0 813d 6917 d73d 6ae5 d13d 91bb 9a3c
00000380: 0168 523c 34a9 6a3d bfd2 a4ba fcf0 ec3c
00000390: db22 583d 521a 933d 59b8 88bc 81fe 013d
000003a0: c630 6dbd c0cc 433d e569 783d 1fc9 3a3d
000003b0: 92e4 c03c b687 21bc 89f8 8bbc a746 4f3d

lstm_57/lstm_cell_57/bias f4 [240]
0.012558718 -0.04502395 -0.0066274796 0.00878555 -0.10750751 -0.16065788 -0.13669427 -0.055002283
-0.04237806 -0.061892614 -0.073669456 -0.092755266 -0.14514413 -0.079728216 0.026710978 0.053957988
-0.116910145 -0.07962988 0.046837967 -0.051150095 0.04099673 -0.045503803 0.10737946 -0.061409153
0.037341394 -0.046234738 -0.08675625 -0.005792016 -0.10509329 -0.05341033 -0.07653011 -0.06463842
-0.0363572 -0.07574632 -0.06677785 -0.010633788 -0.029618487 0.012339748 -0.051766627 -0.008193479
0.122748286 -0.121986 -0.124579325 0.0021948372 -0.18356936 -0.07322068 -0.14772701 -0.008668836
-0.14490384 0.02605519 -0.003687312 -0.040295076 0.03220815 -0.0442208 -0.17070735 -0.043784443
-0.07469757 -0.11011182 -0.21001919 -0.13591403 1.060216 1.0011544 1.0203646 1.0702938
0.9800373 0.948573 0.9862232 0.9627619 1.0007491 0.9864277 0.9930691 1.1102071
0.9117778 0.9769818 1.0253464 1.0996178 1.0522865 0.97771513 1.1098981 0.9212565
1.1338457 1.0061246 1.111888 1.0141555 1.086779 0.9975409 0.98369735 1.007072
0.9653888 1.041368 0.9502167 0.994293 1.0491545 0.98319805 0.992238 0.96642625
1.0499661 1.0706079 0.98841554 1.0053545 1.1679255 0.86353475 0.8842412 1.027186
0.8731378 0.96207106 0.96482414 1.0017542 0.8584401 1.0968297 1.0712403 1.0038493
0.9513527 1.0218456 1.0169678 0.96308255 0.9742023 0.9521951 0.8669316 0.90223396
-0.026838705 -0.030075148 0.054377016 0.020244488 0.07135315 0.08835685 -0.003145022 -0.01931174
-0.021165978 0.014776693 -0.04438562 -0.0036804446 -0.009800664 0.017982217 0.08918359 -0.016657347
0.004868023 -0.05387476 -0.03475688 -0.03661221 0.04928718 0.05209041 -0.045662723 0.019115308
0.0037799508 0.043469448 0.041766092 0.038222943 0.028034408 -0.028110988 0.02518135 -0.03262834
0.008736989 0.023324374 -0.01791789 0.04996546 0.042425163 -0.03404604 -0.03146318 -0.036796723
-0.049929503 -0.07254645 -0.03097354 -0.023031317 0.06543732 0.059489276 -0.034582056 0.018290445
-0.03220258 0.040874224 0.05140057 0.044495657 0.08813383 0.033971302 0.029853659 -0.03377997
0.038329285 -0.015431746 0.040945165 0.010110511 0.013835931 -0.026638951 0.023993349 0.044546988
-0.08019793 -0.10743076 -0.113036074 -0.063111775 -0.05764454 -0.026703833 -0.057124622 -0.006710271
-0.10530353 -0.06530253 -0.00056448486 0.06771782 0.04910349 -0.058609687 0.02407587 -0.037019584
-0.032831933 0.021220267 0.08795879 0.013201077 0.012132144 -0.041282393 -0.07076065 -0.01083398
-0.08095043 -0.020444646 -0.06417941 -0.029554036 -0.012030405 -0.044614322 -0.050835896 -0.017134683
-0.02098204 0.13160507 -0.055979848 -0.0108673405 0.05746713 -0.11453259 -0.12638283 0.06761321
-0.15594086 -0.067284204 -0.054479714 -0.008577592 -0.14079417 0.10745707 0.024388086 -0.033750482
0.025821315 -0.109325215 -0.06458456 -0.05688038 -0.051868174 -0.117859654 -0.19566095 -0.15249223
00000000: 15c3 4d3c 096b 38bd 542b d9bb 44f1 0f3c
00000010: e62c dcbd 8083 24be 95f9 0bbe 134a 61bd
00000020: 9e94 2dbd 1c83 7dbd 03e0 96bd 79f6 bdbd
00000030: aaa0 14be 8c48 a3bd fbd0 da3c 0d03 5d3d
00000040: 966e efbd fe14 a3bd 2bd9 3f3d c382 51bd
00000050: 30ec 273d 3262 3abd c3e9 db3d 2a88 7bbd
00000060: 4af3 183d a360 3dbd 43ad b1bd f4ca bdbb
00000070: 273b d7bd cac4 5abd d1bb 9cbd 2661 84bd
00000080: 4aeb 14bd e320 9bbd d3c2 88bd 5739 2ebc
00000090: 78a2 f2bc a82c 4a3c 3e09 54bd f13d 06bc
000000a0: 7463 fb3d ccd3 f9bd 7223 ffbd 42d7 0f3b
000000b0: 9bf9 3bbe b9f4 95bd c045 17be bc07 0ebc
000000c0: ac61 14be b271 d53c d4a6 71bb 730c 25bd
000000d0: b1ec 033d df20 35bd e8cd 2ebe 5157 33bd
000000e0: 0afb 98bd 4e82 e1bd 450f 57be 0c2d 0bbe
000000f0: 28b5 873f d425 803f 4f9b 823f 63ff 883f
00000100: b9e3 7a3f aed5 723f 2079 7c3f 9077 763f
00000110: 8c18 803f 8786 7c3f c739 7e3f 441b 8e3f
00000120: 456a 693f 7b1b 7a3f 8d3e 833f 47c0 8c3f
00000130: 53b1 863f 8a4b 7a3f 2411 8e3f 77d7 6b3f
00000140: db21 913f b1c8 803f 5952 8e3f d9cf 813f
00000150: 931b 8b3f d75e 7f3f 97d3 7b3f bce7 803f
00000160: b823 773f 8c4b 853f 6741 733f fc89 7e3f
00000170: b24a 863f deb2 7b3f 4f03 7e3f b667 773f
00000180: 4a65 863f ae09 893f cd08 7d3f 75af 803f
00000190: 957e 953f 9d10 5d3f a25d 623f d57a 833f
000001a0: f585 5f3f 4a4a 763f b7fe 763f 7b39 803f
000001b0: bbc2 5b3f ea64 8c3f 671e 893f 227e 803f
000001c0: da8b 733f d6cb 823f 002c 823f 948c 763f
000001d0: 5265 793f 0fc3 733f 3bef 5d3f cef8 663f
000001e0: d8dc dbbc 2860 f6bc 6fba 5e3d c5d7 a53c
000001f0: 9a21 923d 70f4 b43d b71c 4ebb a733 9ebc
00000200: 4664 adbc f119 723c b2cd 35bd 9d33 71bb
00000210: f792 20bc 714f 933c e3a5 b63d fd74 88bc
00000220: f083 9f3b c8ab 5cbd 3b5d 0ebd aff6 15bd
00000230: 5be1 493d c15c 553d d608 3bbd b597 9c3c
00000240: 0db9 773b 050d 323d ec12 2b3d a98f 1c3d
00000250: 6aa8 e53c 0449 e6bc 1e49 ce3c 4ba5 05bd
00000260: 9725 0f3c c212 bf3c 8ac8 92bc 95a8 4c3d
00000270: 02c6 2d3d dc73 0bbd 89df 00bd 29b8 16bd
00000280: e182 4cbd 3c93 94bd 39bc fdbc 2cac bcbc
00000290: 0004 863d 07ab 733d eaa5 0dbd d8d5 953c
000002a0: dae6 03bd bb6b 273d 6789 523d 1441 363d
000002b0: 827f b43d 7e25 0b3d a98f f43c de5c 0abd
000002c0: 2bff 1c3d 6fd5 7cbc 1eb6 273d 8fa6 253c
000002d0: 1ab0 623c ee39 dabc b38d c43c e776 363d
000002e0: d03e a4bd a904 dcbd 757f e7bd bf40 81bd
000002f0: ae1c 6cbd ffc1 dabc 82fb 69bd d5e1 dbbb
00000300: 61a9 d7bd 55bd 85bd f0f9 13ba a4af 8a3d
00000310: be20 493d b610 70bd c23a c53c d9a1 17bd
00000320: c77a 06bd 20d6 ad3c bd23 b43d 5449 583c
00000330: e6c5 463c ba17 29bd f6ea 90bd 0181 31bc
00000340: 57c9 a5bd 887b a7bc 7f70 83bd 4e1b f2bc
00000350: 2d1b 45bc 82bd 36bd 4d39 50bd 095e 8cbc
00000360: 87e2 abbc 7bc3 063e 204b 65bd ee0c 32bc
00000370: a762 6b3d 1090 eabd 806a 01be cb78 8a3d
00000380: f6ae 1fbe 4dcc 89bd 1f26 5fbd 0789 0cbc
00000390: 592c 10be 7412 dc3d 86c9 c73c f23d 0abd
000003a0: 3987 d33c e6e5 dfbd e944 84bd 67fb 68bd
000003b0: b973 54bd 6760 f1bd 585b 48be ec26 1cbe

lstm_56/lstm_cell_56/bias f4 [240]
0.122322835 0.016756283 0.042000443 -0.095932625 -0.014155781 -0.10127623 0.07020354 -0.045679104
-0.006426784 -0.0508032 -0.01089909 -0.08663809 -0.08219446 -0.002694434 -0.1890236 -0.04992754
-0.14660141 -0.046476126 -0.06933459 0.006903703 0.07325187 0.013587778 -0.016989343 -0.039772317
0.010452899 0.22478159 0.053794123 -0.06034195 0.10465851 0.0066237953 0.011178937 -0.038533613
-0.14339875 0.06942459 0.018912353 -0.019278012 0.109628275 -0.05274191 -0.04772218 0.15860853
0.015116471 -0.029697211 0.07278386 0.0030281984 0.05268371 0.06642696 -0.03184416 -0.03995141
0.040982433 0.109075025 -0.10142338 -0.08836639 -0.07075973 -0.12994012 -0.012687494 -0.10853733
-0.08579516 0.034975734 0.052721262 -0.1231009 0.9166356 1.1193851 1.0542165 0.91039056
0.8802215 0.94996303 1.0794194 0.92150205 0.9562932 0.9293951 0.9915133 0.95175517
0.9151108 0.92249274 0.9061663 0.87376 0.8923968 0.9877959 1.0095477 0.9169903
0.941086 0.94150716 0.87389076 0.99360925 1.0117807 0.93853974 1.0090828 1.0413111
0.97272444 0.87142175 0.9221667 0.94088805 0.8981482 1.0258877 0.98321617 0.8718941
0.87278223 0.966181 1.0061301 0.9107031 0.97586733 0.99150497 1.0049458 1.0084937
0.97225815 1.02289 0.9969766 0.99044997 0.9685235 0.9934168 0.93175775 0.9585915
0.9257221 0.95704633 0.96820694 1.1813025 0.94931275 0.98585576 0.9681377 0.8643865
0.061104763 -0.005825425 -0.0036992314 -0.018908817 -0.015164175 0.02032578 0.0035556667 0.04326425
-0.04327092 0.04957733 -0.035239317 -0.009568926 0.028675511 0.05930929 0.047669526 0.05045144
-0.036597375 -0.0069804043 0.011825921 -0.023511488 -0.019216582 0.04254196 0.025093157 0.0056095296
0.024853183 -0.05759507 -0.034274664 -0.019378744 0.0075219823 -0.05123736 -0.00429871 0.038291536
0.034712195 -0.03047939 0.021203997 -0.0136059895 0.04306891 0.052339163 0.0101089 -0.0013005005
-0.03581909 0.021349747 0.0030369724 -0.0022548412 -0.001843627 -0.055963404 -0.01745638 0.021493409
0.025094295 0.0028473728 0.039268725 -0.006406253 0.011676488 0.045679696 0.0019705552 0.019948721
-0.035047073 -0.003028129 0.0364963 -0.03003353 0.11702459 0.15821423 0.06678816 -0.08319867
-0.010873143 -0.05908979 0.10542225 -0.03891215 0.0074447584 -0.030150436 0.046018872 -0.065142855
0.010923595 0.008834623 -0.19217509 -0.057071183 -0.12992173 -0.023683622 0.036543943 0.036340427
0.10774791 0.01893299 -0.026600737 -0.021878682 0.061578356 0.22772099 0.045552272 0.1366597
0.09330803 0.018077372 0.015301485 -0.03640222 -0.13682 0.10109344 0.07332416 -0.0017314366
0.14615957 -0.04686176 0.060114857 0.1501225 0.04486119 -0.031368777 0.07836656 0.021279735
0.040953133 0.064935334 0.0134005565 -0.018065855 0.076810874 0.1723389 -0.0714481 -0.088391356
-0.03153452 -0.114787705 0.006454903 0.22023572 -0.08027752 0.022584662 0.046763275 -0.12793672
00000000: 6584 fa3d 7944 893c a808 2c3d 5378 c4bd
00000010: a6ed 67bc e969 cfbd e0c6 8f3d 031a 3bbd
00000020: c697 d2bb 0417 50bd 1992 32bc 506f b1bd
00000030: 9255 a8bd 1a95 30bb 678f 41be d280 4cbd
00000040: ae1e 16be c05d 3ebd 4bff 8dbd 7538 e23b
00000050: 1405 963d 469f 5e3c 3c2d 8bbc 4ce8 22bd
00000060: a342 2b3c 252d 663e 3a57 5c3d 1f29 77bd
00000070: 3357 d63d 6c0c d93b dc27 373c 6cd5 1dbd
00000080: 1fd7 12be 7b2e 8e3d 14ee 9a3c ecec 9dbc
00000090: ca84 e03d e707 58bd 5578 43bd 466a 223e
000000a0: 13ab 773c 9147 f3bc b40f 953d bd74 463b
000000b0: e0ca 573d dc0a 883d 066f 02bd 17a4 23bd
000000c0: 32dd 273d ba62 df3d 10b7 cfbd 70f9 b4bd
000000d0: 7aea 90bd 060f 05be 35df 4fbc d248 debd
000000e0: 5fb5 afbd b742 0f3d 40f2 573d 531c fcbd
000000f0: a1a8 6a3f 0348 8f3f 91f0 863f 5b0f 693f
00000100: 3256 613f c730 733f 6a2a 8a3f 8fe7 6b3f
00000110: a2cf 743f d6ec 6d3f d1d3 7d3f 3aa6 733f
00000120: b444 6a3f 7c28 6c3f 84fa 673f bcae 5f3f
00000130: 1e74 643f 31e0 7c3f dc38 813f e0bf 6a3f
00000140: 03eb 703f 9d06 713f 4eb7 5f3f 2d5d 7e3f
00000150: 0882 813f 2444 703f a029 813f af49 853f
00000160: 7804 793f 7f15 5f3f 1e13 6c3f 0ade 703f
00000170: 0aed 653f 4a50 833f 0eb4 7b3f 7434 5f3f
00000180: a86e 5f3f a357 773f dfc8 803f d723 693f
00000190: 71d2 793f 45d3 7d3f 10a2 803f 5216 813f
000001a0: e9e5 783f 0fee 823f dc39 7f3f 218e 7d3f
000001b0: 28f1 773f 9050 7e3f ad87 6e3f 4166 753f
000001c0: 20fc 6c3f fd00 753f 69dc 773f ec34 973f
000001d0: 2906 733f 0b61 7c3f dfd7 773f 6f48 5d3f
000001e0: fd48 7a3d 35e3 bebb ce6e 72bb aae6 9abc
000001f0: 2973 78bc 4082 a63c 3006 693b db35 313d
00000200: d93c 31bd 9911 4b3d 1a57 10bd fcc6 1cbc
00000210: e8e8 ea3c 4cee 723d 1f41 433d 2ba6 4e3d
00000220: 21e7 15bd e0bb e4bb 82c1 413c 2a9b c0bc
00000230: 186c 9dbc 7a40 2e3d 2a90 cd3c 25d0 b73b
00000240: e798 cb3c cfe8 6bbd 9763 0cbd 2cc0 9ebc
00000250: f67a f63b 44de 51bd 31dc 8cbb 96d7 1c3d
00000260: 602e 0e3d eaaf f9bc 01b4 ad3c a8eb 5ebc
00000270: 0669 303d 9761 563d cd9f 253c 8e75 aaba
00000280: 0ab7 12bd aae5 ae3c f107 473b f5c5 13bb
00000290: dba5 f1ba e239 65bd af00 8fbc f212 b03c
000002a0: 8d92 cd3c fd9a 3a3b 3ed8 203d 8ceb d1bb
000002b0: be4e 3f3c a21a 3b3d 6e24 013b 806b a33c
000002c0: 858d 0fbd 9373 46bb 257d 153d e108 f6bc
000002d0: 97aa ef3d e902 223e 3bc8 883d 1064 aabd
000002e0: 4425 32bc 2308 72bd 9fe7 d73d 5962 1fbd
000002f0: 29f3 f33b 0cfe f6bc 497e 3c3d 9e69 85bd
00000300: e1f8 323c 18bf 103c 8cc9 44be 79c3 69bd
00000310: 340a 05be 2804 c2bc 1aaf 153d b3d9 143d
00000320: f0aa dc3d 5c19 9b3c cae9 d9bc ec3a b3bc
00000330: 9639 7c3d b12f 693e 0595 3a3d 85f0 0b3e
00000340: 4818 bf3d ff16 943c 14b3 7a3c 7f1a 15bd
00000350: 8b1a 0cbe 140a cf3d fa2a 963d 5ff1 e2ba
00000360: dbaa 153e 1ef2 3fbd ff3a 763d b6b9 193e
00000370: 5ec0 373d 8c7c 00bd a67e a03d d752 ae3c
00000380: 79be 273d d1fc 843d 028e 5b3c d8fe 93bc
00000390: 054f 9d3d 9c79 303e 6253 92bd 8706 b5bd
000003a0: 572a 01bd d115 ebbd a783 d33b 7985 613e
000003b0: 8a68 a4bd 7803 b93c d98a 3f3d d801 03be

dense_28/bias f4 [6]
-0.06598224 -0.039981212 -0.24399932 -0.16444252 0.07594284 0.22368164
00000000: b221 87bd 57c3 23bd f5da 79be 9f63 28be
00000010: eb87 9b3d cd0c 653e

TensorArrayV2_11 f4 [200, 1, 60]
0.0 0.0 0.0 0.0 0.0 0.0 0.0 0.0
0.0 0.0 0.0 0.0 0.0 0.0 0.0 0.0
0.0 0.0 0.0 0.0 0.0 0.0 0.0 0.0
0.0 0.0 0.0 0.0 0.0 0.0 0.0 0.0
0.0 0.0 0.0 0.0 0.0 0.0 0.0 0.0
0.0 0.0 0.0 0.0 0.0 0.0 0.0 0.0
0.0 0.0 0.0 0.0 0.0 0.0 0.0 0.0
0.0 0.0 0.0 0.0 0.0 0.0 0.0 0.0
0.0 0.0 0.0 0.0 0.0 0.0 0.0 0.0
0.0 0.0 0.0 0.0 0.0 0.0 0.0 0.0
0.0 0.0 0.0 0.0 0.0 0.0 0.0 0.0
0.0 0.0 0.0 0.0 0.0 0.0 0.0 0.0
0.0 0.0 0.0 0.0 0.0 0.0 0.0 0.0
0.0 0.0 0.0 0.0 0.0 0.0 0.0 0.0
0.0 0.0 0.0 0.0 0.0 0.0 0.0 0.0
0.0 0.0 0.0 0.0 0.0 0.0 0.0 0.0
0.0 0.0 0.0 0.0 0.0 0.0 0.0 0.0
0.0 0.0 0.0 0.0 0.0 0.0 0.0 0.0
0.0 0.0 0.0 0.0 0.0 0.0 0.0 0.0
0.0 0.0 0.0 0.0 0.0 0.0 0.0 0.0
0.0 0.0 0.0 0.0 0.0 0.0 0.0 0.0
0.0 0.0 0.0 0.0 0.0 0.0 0.0 0.0
0.0 0.0 0.0 0.0 0.0 0.0 0.0 0.0
0.0 0.0 0.0 0.0 0.0 0.0 0.0 0.0
0.0 0.0 0.0 0.0 0.0 0.0 0.0 0.0
0.0 0.0 0.0 0.0 0.0 0.0 0.0 0.0
0.0 0.0 0.0 0.0 0.0 0.0 0.0 0.0
0.0 0.0 0.0 0.0 0.0 0.0 0.0 0.0
0.0 0.0 0.0 0.0 0.0 0.0 0.0 0.0
0.0 0.0 0.0 0.0 0.0 0.0 0.0 0.0
0.0 0.0 0.0 0.0 0.0 0.0 0.0 0.0
0.0 0.0 0.0 0.0 0.0 0.0 0.0 0.0
00000000: 0000 0000 0000 0000 0000 0000 0000 0000
00000010: 0000 0000 0000 0000 0000 0000 0000 0000
00000020: 0000 0000 0000 0000 0000 0000 0000 0000
00000030: 0000 0000 0000 0000 0000 0000 0000 0000
00000040: 0000 0000 0000 0000 0000 0000 0000 0000
00000050: 0000 0000 0000 0000 0000 0000 0000 0000
00000060: 0000 0000 0000 0000 0000 0000 0000 0000
00000070: 0000 0000 0000 0000 0000 0000 0000 0000
00000080: 0000 0000 0000 0000 0000 0000 0000 0000
00000090: 0000 0000 0000 0000 0000 0000 0000 0000
000000a0: 0000 0000 0000 0000 0000 0000 0000 0000
000000b0: 0000 0000 0000 0000 0000 0000 0000 0000
000000c0: 0000 0000 0000 0000 0000 0000 0000 0000
000000d0: 0000 0000 0000 0000 0000 0000 0000 0000
000000e0: 0000 0000 0000 0000 0000 0000 0000 0000
000000f0: 0000 0000 0000 0000 0000 0000 0000 0000
00000100: 0000 0000 0000 0000 0000 0000 0000 0000
00000110: 0000 0000 0000 0000 0000 0000 0000 0000
00000120: 0000 0000 0000 0000 0000 0000 0000 0000
00000130: 0000 0000 0000 0000 0000 0000 0000 0000
00000140: 0000 0000 0000 0000 0000 0000 0000 0000
00000150: 0000 0000 0000 0000 0000 0000 0000 0000
00000160: 0000 0000 0000 0000 0000 0000 0000 0000
00000170: 0000 0000 0000 0000 0000 0000 0000 0000
00000180: 0000 0000 0000 0000 0000 0000 0000 0000
00000190: 0000 0000 0000 0000 0000 0000 0000 0000
000001a0: 0000 0000 0000 0000 0000 0000 0000 0000
000001b0: 0000 0000 0000 0000 0000 0000 0000 0000
000001c0: 0000 0000 0000 0000 0000 0000 0000 0000
000001d0: 0000 0000 0000 0000 0000 0000 0000 0000
000001e0: 0000 0000 0000 0000 0000 0000 0000 0000
000001f0: 0000 0000 0000 0000 0000 0000 0000 0000
00000200: 0000 0000 0000 0000 0000 0000 0000 0000
00000210: 0000 0000 0000 0000 0000 0000 0000 0000
00000220: 0000 0000 0000 0000 0000 0000 0000 0000
00000230: 0000 0000 0000 0000 0000 0000 0000 0000
00000240: 0000 0000 0000 0000 0000 0000 0000 0000
00000250: 0000 0000 0000 0000 0000 0000 0000 0000
00000260: 0000 0000 0000 0000 0000 0000 0000 0000
00000270: 0000 0000 0000 0000 0000 0000 0000 0000
00000280: 0000 0000 0000 0000 0000 0000 0000 0000
00000290: 0000 0000 0000 0000 0000 0000 0000 0000
000002a0: 0000 0000 0000 0000 0000 0000 0000 0000
000002b0: 0000 0000 0000 0000 0000 0000 0000 0000
000002c0: 0000 0000 0000 0000 0000 0000 0000 0000
000002d0: 0000 0000 0000 0000 0000 0000 0000 0000
000002e0: 0000 0000 0000 0000 0000 0000 0000 0000
000002f0: 0000 0000 0000 0000 0000 0000 0000 0000
00000300: 0000 0000 0000 0000 0000 0000 0000 0000
00000310: 0000 0000 0000 0000 0000 0000 0000 0000
00000320: 0000 0000 0000 0000 0000 0000 0000 0000
00000330: 0000 0000 0000 0000 0000 0000 0000 0000
00000340: 0000 0000 0000 0000 0000 0000 0000 0000
00000350: 0000 0000 0000 0000 0000 0000 0000 0000
00000360: 0000 0000 0000 0000 0000 0000 0000 0000
00000370: 0000 0000 0000 0000 0000 0000 0000 0000
00000380: 0000 0000 0000 0000 0000 0000 0000 0000
00000390: 0000 0000 0000 0000 0000 0000 0000 0000
000003a0: 0000 0000 0000 0000 0000 0000 0000 0000
000003b0: 0000 0000 0000 0000 0000 0000 0000 0000
000003c0: 0000 0000 0000 0000 0000 0000 0000 0000
000003d0: 0000 0000 0000 0000 0000 0000 0000 0000
000003e0: 0000 0000 0000 0000 0000 0000 0000 0000
000003f0: 0000 0000 0000 0000 0000 0000 0000 0000

sequential_24/dense_28/MatMul f4 [6, 60]
-0.19983414 0.17835014 0.19412321 -0.011359728 -0.1465364 0.0059110313 0.20371127 0.1482113
-0.05658928 0.02977901 0.19718796 0.110108905 -0.31282198 0.022706073 0.04169113 -0.021370647
-0.09129763 0.062798575 -0.020769723 0.14500636 0.04759306 -0.18125463 0.17612408 -0.03453113
-0.3169159 -0.16717991 -0.114849985 0.052820288 0.19046357 0.002890783 0.12395954 -0.15917142
-0.12976296 -0.32396877 0.0016604194 -0.16904345 -0.061145984 0.099155895 -0.07221596 -0.16467421
0.05286666 0.29172882 -0.26254195 0.021535637 -0.07681441 0.10985 -0.16420887 0.15022069
-0.024863867 0.25569367 -0.024760349 0.032896865 -0.13416018 -0.18695116 -0.07006813 0.039188545
-0.18667549 -0.20859711 -0.035737555 -0.051659208 0.3780821 0.18958956 0.24291106 -0.14208049
-0.31463856 -0.026343063 -0.08095588 0.18922293 -0.116592534 0.30620432 0.21514499 -0.17202127
-0.21723628 0.024800066 -0.30037734 -0.42849675 0.24259873 -0.270039 0.51834744 -0.45885944
0.22198659 -0.28636575 0.3287534 -0.37985876 -0.42268908 -0.10410682 0.26802954 -0.10403657
0.40089154 -0.21948722 0.09994304 0.005188947 0.1012711 -0.12141433 -0.3743484 -0.011756746
-0.06798616 0.019426392 0.061383914 0.20607258 -0.4027798 0.09031255 -0.0846175 -0.5260527
0.19384977 0.06139947 0.12728469 0.30127096 -0.058577396 0.25059146 0.37355176 0.098525465
0.30517244 -0.14389257 -0.077919595 0.25697553 -0.24163131 -0.41159236 0.35504904 0.09027243
-0.11815719 0.08339776 -0.25705397 -0.6622635 -0.4217426 0.35079736 -0.14597549 0.0857853
-0.4695878 -0.48300666 0.24812467 -0.6023662 -0.4962639 0.25665647 -0.64743865 0.38985667
-0.22615671 0.33806673 -0.33591077 0.2605413 0.075754 -0.038478795 -0.13697235 0.29960153
0.42761612 -0.07400545 0.076296024 -0.044746332 -0.23674926 -0.1550013 -0.2100147 0.2998958
0.27542236 0.435368 -0.36825025 0.089959994 -0.00066110695 0.6041409 -0.035370503 0.40024355
0.2838097 -0.305653 0.19778727 0.48424086 0.8207378 -0.0069243587 -0.7486402 -0.4555553
0.50077486 0.40949535 0.9102747 0.25053388 -0.08896601 0.7833329 -0.33004048 -0.1730071
-0.2725201 -0.32579693 -0.5024743 0.5891958 0.08719724 -0.23558708 0.19998448 -0.28864914
0.5768182 0.57782704 -0.35785103 0.07879805 -0.050454453 -0.18330976 0.15376596 0.079698324
-0.48218387 -0.4469372 -0.028218247 0.32542607 0.29417023 0.05216495 0.001061998 -0.13940175
0.03760741 -0.03173377 -0.09553639 -0.030286804 0.3511118 -0.071429744 -0.46905303 0.5443411
-0.6915108 -0.4027565 -0.1987073 -0.0060520633 0.14943296 0.5576699 0.13160226 -0.0774438
0.038666748 0.32272193 -0.426288 -0.57789356 0.1469833 -0.13275743 0.11773295 0.4399989
-0.06332 0.07982068 -0.31565487 -0.4959254 0.56868094 -0.4336242 0.019215465 0.0034975586
-0.54340166 0.61763793 0.05852046 -0.060832314 -0.47868976 -0.15890782 -0.54743165 0.20692928
-0.2791189 0.10839265 -0.17788382 -0.028493578 -0.17903924 0.08046076 0.23532249 0.10869516
0.045979355 0.10111535 0.1750405 0.06948803 0.013493227 0.18375644 0.01356875 0.095398314
00000000: 52a1 4cbe 6ba1 363e 3cc8 463e 271e 3abc
00000010: a30d 16be 53b1 c13b b099 503e b4c4 173e
00000020: 29ca 67bd 1cf3 f33c a4eb 493e c780 e13d
00000030: 342a a0be 1602 ba3c 51c4 2a3d 7f11 afbc
00000040: 40fa babd 8a9c 803d 4425 aabc 8c7c 143e
00000050: f1f0 423d d09a 39be df59 343e 8470 0dbd
00000060: cd42 a2be 3631 2bbe 7836 ebbd 165a 583d
00000070: e208 433e 4a73 3d3b 80de fd3d d5fd 22be
00000080: 95e0 04be 3cdf a5be 6ea2 d93a ba19 2dbe
00000090: 3674 7abd 3f12 cb3d f6e5 93bd 5ba0 28be
000000a0: b68a 583d 7b5d 953e e66b 86be 816b b03c
000000b0: e050 9dbd 09f9 e03d 5f26 28be 74d3 193e
000000c0: 4faf cbbc 48ea 823e 37d6 cabc ddbe 063d
000000d0: 4961 09be 2070 3fbe e17f 8fbd 2b84 203d
000000e0: dc27 3fbe 7b9a 55be 8b61 12bd 9b98 53bd
000000f0: fa93 c13e c423 423e adbd 783e 8c7d 11be
00000100: 4e18 a1be 68cd d7bc 32cc a5bd a8c3 413e
00000110: 11c8 eebd d0c6 9c3e f84e 5c3e 5826 30be
00000120: 3073 5ebe 8229 cb3c 0fcb 99be ed63 dbbe
00000130: cd6b 783e 8d42 8abe 6bb2 043f a0ef eabe
00000140: 7450 633e 889e 92be 5e52 a83e d97c c2be
00000150: b46a d8be f535 d5bd 2b3b 893e 2011 d5bd
00000160: a841 cd3e 42c1 60be f0ae cc3d 0b08 aa3b
00000170: 3967 cf3d 14a8 f8bd 98aa bfbe 5e9f 40bc
00000180: 543c 8bbd 1924 9f3c b36d 7b3d b104 533e
00000190: 2739 cebe c9f5 b83d f14b adbd 64ab 06bf
000001a0: 8e80 463e 037e 7b3d eb56 023e 3040 9a3e
000001b0: daee 6fbd 864d 803e 2d42 bf3e b8c7 c93d
000001c0: 903f 9c3e 9358 13be 4f94 9fbd 4c92 833e
000001d0: 336e 77be 3cbc d2be fdc8 b53e c0e0 b83d
000001e0: 66fc f1bd 72cc aa3d 949c 83be 1a8a 29bf
000001f0: a5ee d7be b69b b33e 997a 15be 34b0 af3d
00000200: d06d f0be a64c f7be 6514 7e3e ac34 1abf
00000210: 4d16 febe 7a68 833e 8abe 25bf 4b9b c73e
00000220: a095 67be 1517 ad3e 7ffc abbe ab65 853e
00000230: ea24 9b3d f19b 1dbd 7b42 0cbe 5f65 993e
00000240: 80f0 da3e 2b90 97bd 1741 9c3d ee47 37bd
00000250: 666e 72be a9b8 1ebe 180e 57be f18b 993e
00000260: 2904 8d3e 8ee8 de3e 4c8b bcbe f23c b83d
00000270: 234e 2dba faa8 1a3f a9e0 10bd b9ec cc3e
00000280: 814f 913e 8d7e 9cbe bf88 4a3e 6bee f73e
00000290: df1b 523f bbe5 e2bb e2a6 3fbf 8b3e e9be
000002a0: c832 003f 60a9 d13e c307 693f fa45 803e
000002b0: d033 b6bd 8188 483f 11fb a8be c628 31be
000002c0: c187 8bbe dbce a6be 28a2 00bf 89d5 163f
000002d0: 7794 b23d bd3d 71be bbc8 4c3e d2c9 93be
000002e0: 5caa 133f 79ec 133f 4038 b7be df60 a13d
000002f0: 54a9 4ebd 8eb5 3bbe d374 1d3e e038 a33d
00000300: cee0 f6be f4d4 e4be f429 e7bc 3f9e a63e
00000310: 7b9d 963e eaaa 553d bd32 8b3a 55bf 0ebe
00000320: 3a0a 1a3d 45fb 01bd 95a8 c3bd 081c f8bc
00000330: edc4 b33e c249 92bd b827 f0be f059 0b3f
00000340: da06 31bf 1a36 cebe ed79 4bbe 6350 c6bb
00000350: f404 193e 74c3 0e3f bec2 063e db9a 9ebd
00000360: 0661 1e3d cf3b a53e 6c42 dabe d5f0 13bf
00000370: ca82 163e 90f1 07be f91d f13d 8947 e13e
00000380: ebad 81bd 0679 a33d 849d a1be efe9 fdbe
00000390: 1395 113f fe03 debe c069 9d3c 4c37 653b
000003a0: 5f1c 0bbf 851d 1e3f 26b3 6f3d 4e2b 79bd
000003b0: d316 f5be bbb8 22be 7b24 0cbf 45e5 533e
000003c0: ace8 8ebe f7fc dd3d 2d27 36be 5d6b e9bc
000003d0: 1056 37be 9cc8 a43d 61f8 703e 919b de3d
000003e0: d954 3c3d 9115 cf3d d13d 333e be4f 8e3d
000003f0: b212 5d3c a62a 3c3e 764f 5e3c 3160 c33d

lstm_56/lstm_cell_56/bias1 f4 [240]
0.122322835 0.016756283 0.042000443 -0.095932625 -0.014155781 -0.10127623 0.07020354 -0.045679104
-0.006426784 -0.0508032 -0.01089909 -0.08663809 -0.08219446 -0.002694434 -0.1890236 -0.04992754
-0.14660141 -0.046476126 -0.06933459 0.006903703 0.07325187 0.013587778 -0.016989343 -0.039772317
0.010452899 0.22478159 0.053794123 -0.06034195 0.10465851 0.0066237953 0.011178937 -0.038533613
-0.14339875 0.06942459 0.018912353 -0.019278012 0.109628275 -0.05274191 -0.04772218 0.15860853
0.015116471 -0.029697211 0.07278386 0.0030281984 0.05268371 0.06642696 -0.03184416 -0.03995141
0.040982433 0.109075025 -0.10142338 -0.08836639 -0.07075973 -0.12994012 -0.012687494 -0.10853733
-0.08579516 0.034975734 0.052721262 -0.1231009 0.9166356 1.1193851 1.0542165 0.91039056
0.8802215 0.94996303 1.0794194 0.92150205 0.9562932 0.9293951 0.9915133 0.95175517
0.9151108 0.92249274 0.9061663 0.87376 0.8923968 0.9877959 1.0095477 0.9169903
0.941086 0.94150716 0.87389076 0.99360925 1.0117807 0.93853974 1.0090828 1.0413111
0.97272444 0.87142175 0.9221667 0.94088805 0.8981482 1.0258877 0.98321617 0.8718941
0.87278223 0.966181 1.0061301 0.9107031 0.97586733 0.99150497 1.0049458 1.0084937
0.97225815 1.02289 0.9969766 0.99044997 0.9685235 0.9934168 0.93175775 0.9585915
0.9257221 0.95704633 0.96820694 1.1813025 0.94931275 0.98585576 0.9681377 0.8643865
0.061104763 -0.005825425 -0.0036992314 -0.018908817 -0.015164175 0.02032578 0.0035556667 0.04326425
-0.04327092 0.04957733 -0.035239317 -0.009568926 0.028675511 0.05930929 0.047669526 0.05045144
-0.036597375 -0.0069804043 0.011825921 -0.023511488 -0.019216582 0.04254196 0.025093157 0.0056095296
0.024853183 -0.05759507 -0.034274664 -0.019378744 0.0075219823 -0.05123736 -0.00429871 0.038291536
0.034712195 -0.03047939 0.021203997 -0.0136059895 0.04306891 0.052339163 0.0101089 -0.0013005005
-0.03581909 0.021349747 0.0030369724 -0.0022548412 -0.001843627 -0.055963404 -0.01745638 0.021493409
0.025094295 0.0028473728 0.039268725 -0.006406253 0.011676488 0.045679696 0.0019705552 0.019948721
-0.035047073 -0.003028129 0.0364963 -0.03003353 0.11702459 0.15821423 0.06678816 -0.08319867
-0.010873143 -0.05908979 0.10542225 -0.03891215 0.0074447584 -0.030150436 0.046018872 -0.065142855
0.010923595 0.008834623 -0.19217509 -0.057071183 -0.12992173 -0.023683622 0.036543943 0.036340427
0.10774791 0.01893299 -0.026600737 -0.021878682 0.061578356 0.22772099 0.045552272 0.1366597
0.09330803 0.018077372 0.015301485 -0.03640222 -0.13682 0.10109344 0.07332416 -0.0017314366
0.14615957 -0.04686176 0.060114857 0.1501225 0.04486119 -0.031368777 0.07836656 0.021279735
0.040953133 0.064935334 0.0134005565 -0.018065855 0.076810874 0.1723389 -0.0714481 -0.088391356
-0.03153452 -0.114787705 0.006454903 0.22023572 -0.08027752 0.022584662 0.046763275 -0.12793672
00000000: 6584 fa3d 7944 893c a808 2c3d 5378 c4bd
00000010: a6ed 67bc e969 cfbd e0c6 8f3d 031a 3bbd
00000020: c697 d2bb 0417 50bd 1992 32bc 506f b1bd
00000030: 9255 a8bd 1a95 30bb 678f 41be d280 4cbd
00000040: ae1e 16be c05d 3ebd 4bff 8dbd 7538 e23b
00000050: 1405 963d 469f 5e3c 3c2d 8bbc 4ce8 22bd
00000060: a342 2b3c 252d 663e 3a57 5c3d 1f29 77bd
00000070: 3357 d63d 6c0c d93b dc27 373c 6cd5 1dbd
00000080: 1fd7 12be 7b2e 8e3d 14ee 9a3c ecec 9dbc
00000090: ca84 e03d e707 58bd 5578 43bd 466a 223e
000000a0: 13ab 773c 9147 f3bc b40f 953d bd74 463b
000000b0: e0ca 573d dc0a 883d 066f 02bd 17a4 23bd
000000c0: 32dd 273d ba62 df3d 10b7 cfbd 70f9 b4bd
000000d0: 7aea 90bd 060f 05be 35df 4fbc d248 debd
000000e0: 5fb5 afbd b742 0f3d 40f2 573d 531c fcbd
000000f0: a1a8 6a3f 0348 8f3f 91f0 863f 5b0f 693f
00000100: 3256 613f c730 733f 6a2a 8a3f 8fe7 6b3f
00000110: a2cf 743f d6ec 6d3f d1d3 7d3f 3aa6 733f
00000120: b444 6a3f 7c28 6c3f 84fa 673f bcae 5f3f
00000130: 1e74 643f 31e0 7c3f dc38 813f e0bf 6a3f
00000140: 03eb 703f 9d06 713f 4eb7 5f3f 2d5d 7e3f
00000150: 0882 813f 2444 703f a029 813f af49 853f
00000160: 7804 793f 7f15 5f3f 1e13 6c3f 0ade 703f
00000170: 0aed 653f 4a50 833f 0eb4 7b3f 7434 5f3f
00000180: a86e 5f3f a357 773f dfc8 803f d723 693f
00000190: 71d2 793f 45d3 7d3f 10a2 803f 5216 813f
000001a0: e9e5 783f 0fee 823f dc39 7f3f 218e 7d3f
000001b0: 28f1 773f 9050 7e3f ad87 6e3f 4166 753f
000001c0: 20fc 6c3f fd00 753f 69dc 773f ec34 973f
000001d0: 2906 733f 0b61 7c3f dfd7 773f 6f48 5d3f
000001e0: fd48 7a3d 35e3 bebb ce6e 72bb aae6 9abc
000001f0: 2973 78bc 4082 a63c 3006 693b db35 313d
00000200: d93c 31bd 9911 4b3d 1a57 10bd fcc6 1cbc
00000210: e8e8 ea3c 4cee 723d 1f41 433d 2ba6 4e3d
00000220: 21e7 15bd e0bb e4bb 82c1 413c 2a9b c0bc
00000230: 186c 9dbc 7a40 2e3d 2a90 cd3c 25d0 b73b
00000240: e798 cb3c cfe8 6bbd 9763 0cbd 2cc0 9ebc
00000250: f67a f63b 44de 51bd 31dc 8cbb 96d7 1c3d
00000260: 602e 0e3d eaaf f9bc 01b4 ad3c a8eb 5ebc
00000270: 0669 303d 9761 563d cd9f 253c 8e75 aaba
00000280: 0ab7 12bd aae5 ae3c f107 473b f5c5 13bb
00000290: dba5 f1ba e239 65bd af00 8fbc f212 b03c
000002a0: 8d92 cd3c fd9a 3a3b 3ed8 203d 8ceb d1bb
000002b0: be4e 3f3c a21a 3b3d 6e24 013b 806b a33c
000002c0: 858d 0fbd 9373 46bb 257d 153d e108 f6bc
000002d0: 97aa ef3d e902 223e 3bc8 883d 1064 aabd
000002e0: 4425 32bc 2308 72bd 9fe7 d73d 5962 1fbd
000002f0: 29f3 f33b 0cfe f6bc 497e 3c3d 9e69 85bd
00000300: e1f8 323c 18bf 103c 8cc9 44be 79c3 69bd
00000310: 340a 05be 2804 c2bc 1aaf 153d b3d9 143d
00000320: f0aa dc3d 5c19 9b3c cae9 d9bc ec3a b3bc
00000330: 9639 7c3d b12f 693e 0595 3a3d 85f0 0b3e
00000340: 4818 bf3d ff16 943c 14b3 7a3c 7f1a 15bd
00000350: 8b1a 0cbe 140a cf3d fa2a 963d 5ff1 e2ba
00000360: dbaa 153e 1ef2 3fbd ff3a 763d b6b9 193e
00000370: 5ec0 373d 8c7c 00bd a67e a03d d752 ae3c
00000380: 79be 273d d1fc 843d 028e 5b3c d8fe 93bc
00000390: 054f 9d3d 9c79 303e 6253 92bd 8706 b5bd
000003a0: 572a 01bd d115 ebbd a783 d33b 7985 613e
000003b0: 8a68 a4bd 7803 b93c d98a 3f3d d801 03be

while/MatMul_1 f4 [240, 60]
-0.12769131 0.008725526 0.0698375 -0.16203137 0.07677679 -0.2575397 -0.25077996 0.17781681
0.02282137 -0.34952435 0.029893255 -0.07454437 0.022474768 -0.057339925 -0.17268664 -0.13442765
0.030112384 0.3366486 0.002068758 0.06259804 -0.021439452 -0.15334663 0.100823335 -0.0833383
-0.19429386 0.025867488 0.1812172 0.0740013 0.0014290041 -0.18537323 0.19711193 0.14991812
-0.09702765 -0.20525561 -0.14566429 0.00833106 -0.05551979 -0.11264685 -0.035398506 0.20425545
0.054209486 -0.04904447 0.035359677 -0.25097564 0.14358087 -0.0494707 0.06570986 -0.13593425
-0.18006152 0.14131977 -0.019741891 0.03788338 0.04612603 -0.14246634 0.14863487 -0.18193379
0.27988276 0.02201111 0.023436083 -0.28541702 0.45669955 0.12315803 0.4638054 -0.18587832
-0.21630134 -0.08533927 0.007486407 0.42218128 -0.21435434 0.1248746 -0.3184024 -0.09721399
0.44844913 0.3248004 -0.18409622 0.19623223 -0.257251 -0.2847623 0.17566028 -0.29069918
-0.3560333 0.52632964 -0.28552184 -0.20966971 0.17102788 -0.5530282 -0.24816877 -0.3105892
-0.025791328 -0.43459398 0.22784263 0.2619358 0.2963325 0.026699107 0.21701805 -0.15093598
0.3530043 0.24542297 0.37970307 0.37429348 -0.6460727 0.27810764 0.25947827 0.29053804
0.2563582 -0.17383052 -0.23399295 0.2228444 -0.294782 0.091664776 0.2536478 0.15599422
0.37759197 0.018899772 0.07690245 0.23344137 -0.37853682 0.5461547 0.3611478 -0.05050805
-0.20701008 0.068699226 0.22989213 -0.17813762 0.037914883 -0.020595632 -0.1412731 0.045616686
-0.107724816 -0.043567125 0.13267282 -0.1283039 -0.03333953 0.12220582 -0.087081574 -0.07101983
0.017124325 0.012967105 0.065705135 -0.008532468 -0.19420171 0.09688725 0.072281584 -0.03401211
-0.041465543 -0.2057959 0.013665937 0.13799521 0.118813865 -0.210531 0.24375182 0.073447116
0.057777178 -0.15772301 -0.24815552 -0.2142752 0.14006388 0.2194314 0.11862723 0.09922694
-0.028108442 0.14955598 0.09337634 -0.12637188 0.22959448 -0.020185739 -0.010465839 -0.022314994
-0.11276661 0.06921262 0.15128271 0.040417373 0.1468415 -0.03570713 0.101161644 -0.054040495
-0.07387791 0.13075949 0.065171264 -0.10337565 0.09664611 0.09940486 0.11119645 0.044209253
-0.12252634 -0.13823296 0.023893101 0.040958572 0.017524244 -0.11909033 -0.065483466 -0.1698638
-0.17609333 -0.050444946 -0.14154132 0.18635283 0.0667393 0.19087416 -0.022326546 0.036853023
0.18174769 0.09519041 -0.018099515 -0.19656232 -0.119317435 -0.072422795 0.032970957 0.09275221
-0.03407721 0.007698576 -0.29528105 0.06923375 0.030924652 0.10740426 -0.0024465562 0.13123053
0.11066512 -0.035820816 -0.04267151 0.052866478 -0.09537382 -0.16156688 -0.03806343 0.10326095
-0.08597004 0.029038507 0.23296909 -0.060839385 0.01766879 0.18973349 -0.0615377 0.009563596
-0.027325448 -0.1780308 0.059581064 0.14117222 0.06538038 -0.19475256 -0.024321944 0.06432519
-0.021310763 0.20528543 0.18146355 0.07514295 -0.116098255 -0.18094969 0.05109726 0.058304343
-0.009801763 -0.2531934 -0.13948719 -0.29097804 -0.09855043 0.102933116 -0.13573717 -0.019469839
00000000: 83c1 02be 82f5 0e3c f706 8f3d 8deb 25be
00000010: 263d 9d3d 3edc 83be 3b66 80be 9c15 363e
00000020: e2f3 ba3c dbf4 b2be b3e2 f43c b8aa 98bd
00000030: 011d b83c 45dd 6abd c4d4 30be 67a7 09be
00000040: 3fae f63c 355d ac3e 0094 073b 6733 803d
00000050: caa1 afbc e606 1dbe 777c ce3d 45ad aabd
00000060: f8f4 46be 0ee8 d33c 0091 393e fe8d 973d
00000070: 6c4d bb3a 7bd2 3dbe b6d7 493e 2384 193e
00000080: 6fb6 c6bd 872e 52be 0529 15be 007f 083c
00000090: b868 63bd 64b3 e6bd 06fe 10bd 5728 513e
000000a0: c40a 5e3d dbe2 48bd 4fd5 103d e17f 80be
000000b0: dd06 133e caa1 4abd e492 863d 5932 0bbe
000000c0: 0c62 38be 21b6 103e bfb9 a1bc 9a2b 1b3d
000000d0: a6ee 3c3d b2e2 11be bd33 183e da4c 3abe
000000e0: cb4c 8f3e a550 b43c 07fd bf3c 2e22 92be
000000f0: 86d4 e93e 473a fc3d e777 ed3e e356 3ebe
00000100: 197e 5dbe 5bc6 aebd 8950 f53b 2528 d83e
00000110: b47f 5bbe 41be ff3d a405 a3be 2118 c7bd
00000120: 209b e53e 3d4c a63e b883 3cbe 1af1 483e
00000130: 67b6 83be 5dcc 91be 4ae0 333e 86d6 94be
00000140: ff49 b6be 8abd 063f eb2f 92be a8b3 56be
00000150: ef21 2f3e 4293 0dbf f41f 7ebe 8c05 9fbe
00000160: 5648 d3bc 1a83 debe 944f 693e 731c 863e
00000170: e5b8 973e 16b8 da3c fb39 5e3e f68e 1abe
00000180: fbbc b43e 2950 7b3e 7168 c23e 65a3 bf3e
00000190: 0565 25bf 2064 8e3e 56da 843e 67c1 943e
000001a0: 6241 833e a100 32be d99b 6fbe 5331 643e
000001b0: abed 96be beba bb3d 20de 813e f3bc 1f3e
000001c0: bc53 c13e b2d3 9a3c 087f 9d3d 410b 6f3e
000001d0: 94cf c1be cbd0 0b3f 5de8 b83e 87e1 4ebd
000001e0: 73fa 53be 2eb2 8c3d d868 6b3e b569 36be
000001f0: a34c 1b3d 2cb8 a8bc e5a9 10be 90d8 3a3d
00000200: d49e dcbd 7173 32bd 62db 073e 1962 03be
00000210: 088f 08bd 0c47 fa3d d357 b2bd d872 91bd
00000220: 5048 8c3c fb73 543c 6a90 863d c4cb 0bbc
00000230: d0dc 46be d36c c63d 5e08 943d 4850 0bbd
00000240: c6d7 29bd 29bc 52be 18e7 5f3c 9e4e 0d3e
00000250: af54 f33d 7095 57be 149a 793e 716b 963d
00000260: c3a7 6c3d 2482 21be 7b1c 7ebe f56a 5bbe
00000270: e86c 0f3e a0b2 603e d5f2 f23d 7e37 cb3d
00000280: ad43 e6bc 3425 193e 183c bf3d a167 01be
00000290: d11a 6b3e 905c a5bc e978 2bbc efcd b6bc
000002a0: 2ef2 e6bd 59bf 8d3d dbe9 1a3e b08c 253d
000002b0: 9e5d 163e a441 12bd d62d cf3d 9159 5dbd
000002c0: 4d4d 97bd d1e5 053e 8378 853d 9db6 d3bd
000002d0: 65ee c53d c694 cb3d f7ba e33d c314 353d
000002e0: 17ef fabd f18c 0dbe 77bb c33c 2dc4 273d
000002f0: 018f 8f3c a2e5 f3bd 321c 86bd c7f0 2dbe
00000300: cf51 34be 5c9f 4ebd 35f0 10be 47d3 3e3e
00000310: 9dae 883d 8474 433e 29e6 b6bc 32f3 163d
00000320: 111c 3a3e 31f3 c23d 6f45 94bc a247 49be
00000330: b35c f4bd 6752 94bd 8e0c 073d dff4 bd3d
00000340: 8b94 0bbd 5644 fc3b 142f 97be 6dca 8d3d
00000350: b255 fd3c c4f6 db3d 6756 20bb 4c61 063e
00000360: 65a4 e23d d9b8 12bd 52c8 2ebd 858a 583d
00000370: 5953 c3bd ca71 25be 66e8 1bbd 7a7a d33d
00000380: 0f11 b0bd 2ae2 ed3c 738f 6e3e b832 79bd
00000390: 23be 903c 7f49 423e f50e 7cbd a1b0 1c3c
000003a0: 9ed9 dfbc b54d 36be 460b 743d 738f 103e
000003b0: 26e6 853d 376d 47be d03e c7bc edbc 833d
000003c0: e993 aebc 5836 523e 95d1 393e 8ce4 993d
000003d0: ecc4 edbd e04a 39be 5c4b 513d 89d0 6e3d
000003e0: 9397 20bc 91a2 81be bbd5 0ebe 13fb 94be
000003f0: cfd4 c9bd 99ce d23d affe 0abe 367f 9fbc

while/MatMul f4 [240, 3]
0.17280477 0.27804476 0.36852026 0.5595142 0.7954311 0.7953942 0.27345866 0.47139373
0.4626814 0.38324484 -0.59071445 -0.5973597 -0.0017822528 0.32788068 0.36864713 0.48935476
-0.51401794 -0.49386266 -0.4164179 0.3393377 0.3507222 0.018043995 -0.06094581 -0.010224291
-0.0970707 -0.04784139 -0.024821257 0.03405088 0.38061526 0.3533296 -0.35384986 0.35703427
0.40145263 0.27136245 0.48549038 0.5195266 -0.8726919 -0.8813986 -0.9714127 -0.029618423
-0.19906399 -0.18037443 0.05200397 0.062418748 0.01932016 -0.18837193 0.15707718 0.12497201
0.039737865 -0.3393746 -0.3228509 0.17242183 0.38145235 0.35251418 -0.9182233 -0.55588883
-0.5397131 0.013930036 -0.3697947 -0.3004014 -0.45068398 -0.368002 -0.37758547 -0.08156645
0.056155443 0.024437409 -0.20647945 0.025066713 0.1697311 0.046470165 0.24112406 0.27986673
0.4500727 -0.8937132 -0.7952473 -0.4527442 -0.45937896 -0.52366316 -0.063724056 -0.032443136
-0.09159105 -1.0961733 -1.1307094 -1.0960671 -0.15594478 -0.36993325 -0.3545055 0.10588662
-0.13157076 -0.08706411 -0.47581524 -0.1703228 -0.1610088 -0.087345995 -0.313953 -0.5156293
-0.03563498 -0.051241532 -0.07511423 -0.32876655 0.38342312 0.3965709 0.046955932 -0.88211936
-0.8871774 -0.21191522 -0.0833715 -0.1455868 -0.591107 -0.5656921 -0.6403369 -0.1200127
-0.4506365 -0.31499487 -0.7542625 -0.4193302 -0.3822995 -0.0107488185 -0.38016096 -0.41271353
-0.09250643 -0.1513186 -0.0996081 -0.08691771 0.0078558745 0.048171602 -0.039314713 -0.49763322
-0.44447896 -0.30633146 0.49057615 0.5411988 -0.3795744 0.37039155 0.41958064 0.19023488
-0.14473753 -0.004532707 -0.57506895 -0.80104554 -0.8249723 -0.1624674 -0.3636902 -0.25824988
-0.41638315 -0.1843312 -0.17249839 0.25939035 0.500467 0.48688054 0.09629575 0.23462807
0.13157752 -0.20804003 0.02737001 0.061118476 -0.6662331 -0.03243209 0.023990689 -0.102748975
-0.07925837 -0.16451791 0.050079167 -0.23023012 -0.23382887 1.4879947 -1.1666695 -1.1383861
-0.32141688 -0.06975588 -0.07943478 -0.19128655 -0.061694507 -0.034614187 0.15797837 -0.0479178
0.004490372 0.042646445 0.31680942 0.35305187 -0.06492349 0.14579435 0.11470908 0.025567003
0.120094 0.06066557 -0.19584958 -0.36178145 -0.35996103 -0.05906586 0.061899897 0.12887186
-0.024349805 0.012145375 -0.02151992 -0.012358723 0.20492378 0.24509074 0.19889036 -0.1354837
-0.11069286 -0.019159334 0.027238285 0.11663786 0.031793103 0.2041805 0.13501222 0.09632997
0.31684393 0.29474387 0.28741747 -0.12022242 -0.09111349 -0.020424655 -0.09043232 -0.08215293
-0.13631617 0.35198882 0.3390254 0.08542143 0.06851365 0.16063976 -0.08299684 -0.07016333
0.008771707 -0.06508319 -0.075775884 -0.038372003 0.029380793 0.02534922 0.11278297 0.29696915
-0.017201224 -0.029885836 0.03330346 0.25052056 0.19521253 0.19560756 0.093259 0.10477788
0.09995735 0.11961037 0.05452964 -0.14759535 0.24469887 0.2676225 0.04613928 -0.07784952
-0.019417 0.01682749 -0.047024824 -0.123532176 -0.18989484 0.43759653 0.32400337 -0.11167485
00000000: bcf3 303e e25b 8e3e b0ae bc3e 533c 0f3f
00000010: 5fa1 4b3f f49e 4b3f c602 8c3e 855a f13e
00000020: 94e4 ec3e ab38 c43e 1039 17bf 91ec 18bf
00000030: 7b9a e9ba fadf a73e 51bf bc3e b58c fa3e
00000040: ae96 03bf 91db fcbe ba34 d5be acbd ad3e
00000050: dc91 b33e 00d1 933c 50a2 79bd c983 27bc
00000060: 01cd c6bd 55f5 43bd f355 cbbc f078 0b3d
00000070: 01e0 c23e 9ee7 b43e cf2b b5be 32cd b63e
00000080: 338b cd3e 05f0 8a3e 3292 f83e b2ff 043f
00000090: bd68 5fbf 57a3 61bf 81ae 78bf 56a2 f2bc
000000a0: 6ed7 4bbe 13b4 38be 1d02 553d cdaa 7f3d
000000b0: 5045 9e3c 92e4 40be d7d8 203e 53f1 ff3d
000000c0: 2cc4 223d 82c2 adbe b74c a5be 598f 303e
000000d0: b94d c33e bd7c b43e af10 6bbf bb4e 0ebf
000000e0: a32a 0abf ce3a 643c bb55 bdbe 36ce 99be
000000f0: 0dc0 e6be c26a bcbe e252 c1be 500c a7bd
00000100: 4003 663d f630 c83c 596f 53be b558 cd3c
00000110: fdcd 2d3e 8057 3e3d 3ae9 763e b14a 8f3e
00000120: ee6f e63e 63ca 64bf 5495 4bbf 16ce e7be
00000130: b833 ebbe ca0e 06bf c281 82bd 18e3 04bd
00000140: 1794 bbbd 684f 8cbf 16bb 90bf ed4b 8cbf
00000150: fdaf 1fbe e467 bdbe bf81 b5be 16db d83d
00000160: 7cba 06be ab4e b2bd 0e9e f3be 1a69 2ebe
00000170: 7edf 24be 75e2 b2bd 73be a0be 4800 04bf
00000180: fcf5 11bd a4e2 51bd 7dd5 99bd 1754 a8be
00000190: 0950 c43e 570b cb3e dd54 403d 93d2 61bf
000001a0: 0f1e 63bf 4e00 59be adbe aabd b514 15be
000001b0: ca52 17bf 33d1 10bf 1eed 23bf 38c9 f5bd
000001c0: d4b9 e6be 0247 a1be 5917 41bf 73b2 d6be
000001d0: c3bc c3be d01b 30bc 75a4 c2be 304f d3be
000001e0: 0374 bdbd 43f3 1abe 55ff cbbd ea01 b2bd
000001f0: edb5 003c 964f 453d 7708 21bd c8c9 febe
00000200: bf92 e3be 7ad7 9cbe cc2c fb3e 018c 0a3f
00000210: 9357 c2be f6a3 bd3e 46d3 d63e efcc 423e
00000220: 1336 14be 1a87 94bb b837 13bf 5211 4dbf
00000230: 6231 53bf db5d 26be 9a35 babe 5439 84be
00000240: 2c30 d5be 51c1 3cbe 6ba3 30be d0ce 843e
00000250: 9b1e 003f 6848 f93e b536 c53d 5742 703e
00000260: 42bc 063e 7208 55be 1237 e03c 5e57 7a3d
00000270: 418e 2abf 83d7 04bd 1f88 c43c 0e6e d2bd
00000280: 3652 a2bd 6277 28be d01f 4d3d 72c1 6bbe
00000290: d670 6fbe 9c76 be3f 6d55 95bf a3b6 91bf
000002a0: c190 a4be 2cdc 8ebd b4ae a2bd 9fe0 43be
000002b0: 61b3 7cbd 9bc7 0dbd 15c5 213e 7445 44bd
000002c0: f823 933b 0aae 2e3d d834 a23e 37c3 b43e
000002d0: 9bf6 84bd 1d4b 153e 98ec ea3d e471 d13c
000002e0: d8f3 f53d 767c 783d cb8c 48be 6b3b b9be
000002f0: d04c b8be 0bef 71bd bf8a 7d3d fcf6 033e
00000300: 3e79 c7bc 65fd 463c 8b4a b0bc 3e7c 4abc
00000310: 8ad7 513e 11f9 7a3e eaa9 4b3e 3dbc 0abe
00000320: f0b2 e2bd 09f4 9cbc d322 df3c d5df ee3d
00000330: 7c39 023d b114 513e a540 0a3e a648 c53d
00000340: 5e39 a23e abe8 963e 6228 933e 2c37 f6bd
00000350: b699 babd 9b51 a7bc 9534 b9bd cc3f a8bd
00000360: 7796 0bbe e137 b43e bd94 ad3e 6ef1 ae3d
00000370: e250 8c3d c07e 243e 3ffa a9bd cbb1 8fbd
00000380: 35b7 0f3c 564a 85bd 6330 9bbd f62b 1dbd
00000390: fdaf f03c 2ba9 cf3c c2fa e63d 570c 983e
000003a0: 95e9 8cbc 24d3 f4bc 3569 083d 3b44 803e
000003b0: cbe5 473e 594d 483e 93fe be3d c995 d63d
000003c0: 70b6 cc3d 48f6 f43d 795a 5f3d 3c23 17be
000003d0: 5792 7a3e d105 893e 8bfc 3c3d 926f 9fbd
000003e0: 6610 9fbc ced9 893c 1a9d 40bd 70fe fcbd
000003f0: cb73 42be a70c e03e c5e3 a53e c9b5 e4bd
