app/src/main/ml/RNN - UCI_HAR.tflite (tflite, 360032 bytes, 15 tensors)

lstm_8/lstm_cell_8/bias f4 [240]
0.06950277 -0.0061467527 0.03434091 -0.028649949 0.057162553 -0.010174739 -0.021461105 -0.03340023
0.037904035 0.052102186 0.021381319 0.08336934 -0.029683271 0.06367534 0.054523945 0.0096676415
0.07400455 0.0012663341 0.059751824 0.039385542 -0.007055378 -0.075725295 0.010847347 0.042701118
0.012085346 0.054890085 0.016547969 0.043666996 0.052603006 0.079259455 0.06931858 0.013606867
0.09700548 0.059213474 -0.010091977 -0.0069268337 0.010274421 -0.01482258 0.034599546 0.06869305
0.013832403 -0.04111913 0.050857585 0.04937846 0.048715997 0.091297366 0.023322208 0.04988907
-0.037411463 0.0656218 -0.008820915 -0.041864205 0.017004985 0.03602327 0.022062337 0.022493491
-0.07183168 0.0478813 -0.05145224 -0.011689463 1.0758679 1.0367004 1.1216472 1.0435344
1.0764704 1.0251803 1.0214305 1.0006981 1.0864142 1.1021104 1.061393 1.1116209
0.9834987 1.0820193 1.06499 1.0266593 1.1491002 1.0668242 1.0926037 1.1027354
1.0436654 1.0454797 1.0614933 1.0720989 1.01539 1.0700866 1.0325727 1.103695
1.0670009 1.1031922 1.1109264 1.0227711 1.100444 1.1203738 1.0177844 1.0801035
1.0348424 0.99438745 1.0728095 1.0689843 1.018299 1.0131238 1.0605913 1.0949652
1.1067473 1.138391 1.0540918 1.0813133 0.97110957 1.1154727 1.0827688 0.9689805
1.0271 1.0485466 1.0473472 1.0345308 0.94128215 1.1009412 1.0424602 1.0220102
0.021982972 -0.03415901 0.0057775583 -0.0038237334 0.010007888 0.0030159561 -0.00043578414 0.01744467
-0.03136851 0.003499751 -7.46647e-05 0.014196523 0.0051500555 -0.017244652 0.018206442 -0.015057625
0.0004454696 -0.024585042 0.020134136 -0.0076905433 5.8238762e-05 -0.03271234 -0.0023209248 0.018319817
0.01675202 -0.0028310923 -0.011544592 -0.035593122 0.0041174046 0.06148533 0.016137255 0.015326954
0.057304762 -0.010900446 -0.0047757593 -0.013645526 0.011831348 0.007803736 -0.03298945 0.02555784
-0.026062265 -0.01025881 0.031046733 -0.030890897 -0.020386739 0.06254371 -0.024889013 0.021194713
0.007844449 -0.017302733 0.023012517 -0.021261634 0.029634986 -0.019012332 0.0360754 0.013691008
-0.00637348 0.007858242 -0.006524317 -0.034187894 0.108071364 0.06652929 0.09915493 0.07141846
0.1072391 -0.007576442 0.019777749 0.02889308 0.080510296 0.15680163 0.087046646 0.1598249
0.0063625267 0.125467 0.097077265 0.028289622 0.16314434 0.063151404 0.10453589 0.12438482
0.02388458 0.059789713 0.10673727 0.07518695 0.088548295 0.109789096 0.05857187 0.11189391
0.06727734 0.095598266 0.10156265 0.0598293 0.059212096 0.12112513 0.07922384 0.073528476
0.09158189 0.025348263 0.12174029 0.09740502 0.0795087 0.020230897 0.09414583 0.12285581
0.06132878 0.18590578 0.11406188 0.11150965 0.04343793 0.094546914 0.11321568 0.05273665
0.05560852 0.058600336 0.11794684 0.045017034 -0.027034676 0.0928692 0.01508299 0.0062445328
00000000: 7857 8e3d b36a c9bb 0ea9 0c3d 4cb3 eabc
00000010: 4823 6a3d f3b3 26bc 33cf afbc aece 08bd
00000020: 4341 1b3d 1a69 553d e027 af3c 8bbd aa3d
00000030: 552a f3bc 3768 823d 8054 5f3d 0765 1e3c
00000040: b38f 973d 1ffb a53a 54be 743d bc52 213d
00000050: cd30 e7bb dd15 9bbd 12b9 313c 5ee7 2e3d
00000060: 9d01 463c 6dd4 603d 9b8f 873c 2adc 323d
00000070: 4076 573d c852 a23d e6f6 8d3d 56ef 5e3c
00000080: cfaa c63d d489 723d d258 25bc 7efa e2bb
00000090: 0c56 283c 68da 72bc 41b8 0d3d f1ae 8c3d
000000a0: 4ea1 623c 886c 28bd 0b50 503d 1141 4a3d
000000b0: 6d8a 473d 1dfa ba3d 370e bf3c 7b58 4c3d
000000c0: c33c 19bd b964 863d 9985 10bc cd79 2bbd
000000d0: 0a4e 8b3c 238d 133d 13bc b43c 4544 b83c
000000e0: 7d1c 93bd 2f1f 443d 96bf 52bd 2985 3fbc
000000f0: 0ab6 893f 99b2 843f 2392 8f3f 8992 853f
00000100: c8c9 893f 1c39 833f 3cbe 823f e016 803f
00000110: 9f0f 8b3f f411 8d3f badb 873f 9849 8e3f
00000120: 92c6 7b3f 9c7f 8a3f 9851 883f 9269 833f
00000130: b715 933f b28d 883f 70da 8b3f 6f26 8d3f
00000140: d496 853f 47d2 853f 03df 873f 893a 893f
00000150: 4df8 813f 99f8 883f 582b 843f e145 8d3f
00000160: 7c93 883f 6735 8d3f d632 8e3f 2aea 823f
00000170: 59db 8c3f 6968 8f3f c246 823f d540 8a3f
00000180: b775 843f 2d90 7e3f d251 893f 7ad4 883f
00000190: 9f57 823f 0aae 813f 75c1 873f d227 8c3f
000001a0: e5a9 8d3f ccb6 913f 7bec 863f 7968 8a3f
000001b0: a39a 783f cfc7 8e3f 2b98 8a3f 1b0f 783f
000001c0: 0378 833f c636 863f 790f 863f 816b 843f
000001d0: def7 703f a4eb 8c3f 566f 853f 3bd1 823f
000001e0: a215 b43c 51ea 0bbd ac51 bd3b 9a97 7abb
000001f0: 20f8 233c 59a7 453b f579 e4b9 20e8 8e3c
00000200: 447c 00bd 145c 653b 4e95 9cb8 8998 683c
00000210: ccc1 a83b a844 8dbc ad25 953c 42b4 76bc
00000220: eb8d e939 9266 c9bc 58f0 a43c f400 fcbb
00000230: 6545 7438 60fd 05bd a81a 18bb 7113 963c
00000240: 883b 893c d989 39bb 8725 3dbc 18ca 11bd
00000250: 4beb 863b 0bd8 7b3d 4732 843c e81d 7b3c
00000260: 66b8 6a3d c997 32bc f97d 9cbb 7c91 5fbc
00000270: 45d8 413c 7bb6 ff3b f21f 07bd ad5e d13c
00000280: 8880 d5bc 9114 28bc b855 fe3c e80e fdbc
00000290: 1702 a7bc eb16 803d 0be4 cbbc 89a0 ad3c
000002a0: 0186 003c 76be 8dbc bf84 bc3c e12c aebc
000002b0: 12c5 f23c c0bf 9bbc ccc3 133d 4050 603c
000002c0: a0d8 d0bb dbbf 003c f0c9 d5bb 9b08 0cbd
000002d0: 8554 dd3d 8240 883d bd11 cb3d d743 923d
000002e0: 2ca0 db3d cd43 f8bb f204 a23c 2eb1 ec3c
000002f0: 95e2 a43d 9b90 203e 8345 b23d 23a9 233e
00000300: be7c d03b 6c7a 003e 72d0 c63d a3bf e73c
00000310: 4f0f 273e 8655 813d ea16 d63d 78bd fe3d
00000320: 98a9 c33c 0fe6 743d 1299 da3d 9efb 993d
00000330: cf58 b53d 1bd9 e03d 0fe9 6f3d a228 e53d
00000340: b4c8 893d 06c9 c33d 1400 d03d 910f 753d
00000350: 6288 723d 7410 f83d 1c40 a23d 1996 963d
00000360: 498f bb3d 29a7 cf3c f952 f93d 487c c73d
00000370: 75d5 a23d 44bb a53c 87cf c03d d49b fb3d
00000380: e333 7b3d 165e 3e3e 4699 e93d 2c5f e43d
00000390: f9eb 313d d0a1 c13d 9fdd e73d 6302 583d
000003a0: c2c5 633d e806 703d 1d8e f13d c863 383d
000003b0: d377 ddbc 3532 be3d a51e 773c f09e cc3b

lstm_7/lstm_cell_7/bias f4 [240]
0.037321005 0.026890608 -0.008436396 -0.05699095 -0.050555244 -0.0048960466 0.015688496 -0.010545602
-0.08402827 -0.015888654 -0.0007946867 -0.0029620617 -0.07227441 0.019382847 -0.03753305 0.018342473
0.009285439 0.0072885756 0.02137942 -0.018557806 -0.0036529491 0.015979845 -0.036254715 0.015742982
0.07159889 -0.022258984 0.026429135 -0.063759044 -0.010494345 -0.0006200671 -0.007607244 -0.028905023
0.024137868 -0.019691102 -0.017616434 0.031706583 0.054755934 -0.03375805 -0.054774716 0.049398705
-0.016818836 -0.029605808 -0.06268806 0.029423028 -0.055830523 0.024204805 0.0399555 -0.03637917
-0.0059419805 0.08737875 -0.013066115 0.0010023301 -0.00793191 0.00097490085 0.028929396 0.015478882
0.018567307 -0.007257353 0.0209879 -0.04010805 1.0435076 1.094663 0.99609196 0.98384774
0.95751005 1.0036157 1.0259309 0.98610705 0.92491406 0.99971783 0.99965227 1.0060433
0.9242531 1.0391722 0.9765701 1.1065764 1.021105 1.0202851 1.022878 0.98555326
1.002481 1.0112507 1.0549126 1.0267254 1.0552955 0.9808299 1.0641799 1.0054712
0.9984103 1.0035872 1.005045 1.0148722 1.0336368 0.98952025 0.98898286 1.0468355
1.0693295 0.9811416 0.9810699 1.0716332 1.023946 0.9744078 0.9172367 1.0486155
0.9932122 1.0564018 1.057019 0.99427354 0.99313676 1.0970833 1.0044343 0.9878565
1.0012602 1.0185696 1.0248245 1.0332206 1.0268271 1.0045787 1.0270474 0.9914246
0.010472139 0.003624287 -0.025055723 0.00014790602 -0.047713302 0.020784738 -0.013095811 -0.029245656
0.044527594 0.0038387894 0.03798901 0.016919121 -0.009799608 -0.008128658 0.017254852 -0.023100313
0.006091083 -0.0078308545 -0.0041602147 -0.037722576 -2.8037197e-05 -0.016945802 -0.031116216 -0.00608963
-0.016614696 0.034556106 0.047561686 0.0187919 0.01657244 -0.030230394 -0.009310841 -0.012109401
0.01539139 0.023247857 -0.02178769 -0.028698634 0.0023320096 0.014631455 0.02533752 -0.006010779
-0.0017303793 -0.007241005 -0.012651831 0.031082345 0.008838787 -0.0073679877 -0.017001022 0.0049113096
-0.010331332 0.03331995 -0.0055037476 0.014438928 -0.018781653 0.0077031977 0.0075502996 -0.0135911675
0.02775986 0.022781376 -0.007679395 -0.0108538475 0.021824827 0.08226141 -0.014669521 -0.028288426
-0.04483397 0.00017016307 0.006358371 0.0029872165 -0.085897855 -0.008367462 -0.0060647433 0.006986542
-0.07876229 0.008157098 -0.048973996 0.04403405 -0.019795518 -0.0030917462 -0.00037427063 -0.023104481
-0.0060844123 0.012400751 -0.013983252 0.01874652 0.057726268 -0.004394989 0.030471394 -0.03758002
-0.0058858963 -0.0054634623 -0.011555877 -0.026254475 0.031985793 -0.0045060553 -0.03181467 0.0386019
0.059221473 -0.037451647 -0.052691005 0.050715018 -0.021746503 -0.029304093 -0.061667144 0.024450036
0.014690799 0.01822898 0.03193411 -0.020876098 -0.013182305 0.06782748 -0.023380272 0.025556616
0.007281351 -0.00078230223 -0.012601574 0.01249368 0.010612325 0.00015946088 0.0027226382 -0.02525253
00000000: e9dd 183d b149 dc3c cf38 0abc 586f 69bd
00000010: 0413 4fbd 046f a0bb 2985 803c 76c7 2cbc
00000020: 0317 acbd ec28 82bc 8652 50ba 261f 42bb
00000030: 9b04 94bd c7c8 9e3c 41bc 19bd f442 963c
00000040: f421 183c 01d5 ee3b e523 af3c 8a06 98bc
00000050: 5166 6fbb 2ae8 823c d37f 14bd 6df7 803c
00000060: 70a2 923d 7958 b6bc ea81 d83c 1a94 82bd
00000070: 79f0 2bbc 008c 22ba 3046 f9bb 3aca ecbc
00000080: c7bc c53c 3c4f a1bc 5750 90bc c3de 013d
00000090: c247 603d e245 0abd 745b 60bd 4c56 4a3d
000000a0: a8c7 89bc e187 f2bc 9962 80bd 9008 f13c
000000b0: 8cae 64bd 2849 c63c 61a8 233d 5302 15bd
000000c0: f2b4 c2bb a1f3 b23d 4213 56bc 9e60 833a
000000d0: d8f4 01bc 7d90 7f3a 57fd ec3c 239b 7d3c
000000e0: 771a 983c 17cf edbb d1ee ab3c 5748 24bd
000000f0: a891 853f eb1d 8c3f e2ff 7e3f 72dd 7b3f
00000100: 611f 753f 7b76 803f b451 833f 8371 7c3f
00000110: 2bc7 6c3f 82ed 7f3f 36e9 7f3f 07c6 803f
00000120: da9b 6c3f 9803 853f 8000 7a3f 4ca4 8d3f
00000130: 92b3 823f b498 823f abed 823f 384d 7c3f
00000140: 4c51 803f aa70 813f 6007 873f bd6b 833f
00000150: ec13 873f ab17 7b3f 0c37 883f 48b3 803f
00000160: d197 7f3f 8c75 803f 51a5 803f 55e7 813f
00000170: 364e 843f 3351 7d3f fb2d 7d3f b5fe 853f
00000180: cadf 883f 192c 7b3f 6627 7b3f 472b 893f
00000190: aa10 833f ca72 793f 06d0 6a3f 0839 863f
000001a0: 2843 7e3f 2d38 873f 664c 873f b688 7e3f
000001b0: 363e 7e3f 3a6d 8c3f 4e91 803f 2ae4 7c3f
000001c0: 4b29 803f 7d60 823f 732d 833f 9340 843f
000001d0: 126f 833f 0996 803f 4a76 833f 01ce 7d3f
000001e0: 5693 2b3c 7285 6d3b a941 cdbc 3817 1b39
000001f0: 066f 43bd c144 aa3c d08f 56bc 9694 efbc
00000200: 9162 363d 3394 7b3b 5d9a 1b3d f899 8a3c
00000210: 898e 20bc 102e 05bc 0c5a 8d3c de3c bdbc
00000220: b597 c73b fc4c 00bc 6952 88bb fd82 1abd
00000230: 6c31 ebb7 ecd1 8abc 6fe7 febc 858b c7bb
00000240: 8b1b 88bc b48a 0d3d 0bd0 423d 78f1 993c
00000250: edc2 873c bba5 f7bc 7f8c 18bc 8266 46bc
00000260: 2b2c 7c3c 4a72 be3c 197c b2bc 6619 ebbc
00000270: a1d4 183b c5b8 6f3c a190 cf3c 12f6 c4bb
00000280: e5cd e2ba f445 edbb a049 4fbc 67a0 fe3c
00000290: 8fd0 103c 296f f1bb ba45 8bbc 0def a03b
000002a0: bf44 29bc 807a 083d c858 b4bb 4191 6c3c
000002b0: fbdb 99bc 1b6b fc3b 8168 f73b 7dad 5ebc
000002c0: a568 e33c 02a0 ba3c 6fa3 fbbb 56d4 31bc
000002d0: fbc9 b23c ac78 a83d 6e58 70bc 21bd e7bc
000002e0: d3a3 37bd cd6d 3239 e259 d03b 2dc5 433b
000002f0: 37eb afbd ae17 09bc c1ba c6bb 5def e43b
00000300: 204e a1bd 59a5 053c f598 48bd 0c5d 343d
00000310: 362a a2bc e59e 4abb c139 c4b9 9c45 bdbc
00000320: c05f c7bb 852c 4b3c 031a 65bc 4d92 993c
00000330: 6172 6c3d d703 90bb 259f f93c 82ed 19bd
00000340: 7ade c0bb d806 b3bb dc54 3dbc a013 d7bc
00000350: 8903 033d 88a7 93bb 1950 02bd 071d 1e3d
00000360: 3792 723d e666 19bd 86d2 57bd 8dba 4f3d
00000370: b925 b2bc 230f f0bc b096 7cbd 714b c83c
00000380: adb1 703c f154 953c 57cd 023d 5a04 abbc
00000390: 98fa 57bc 22e9 8a3d fc87 bfbc 1c5c d13c
000003a0: 6698 ee3b 6a13 4dba d576 4ebc 4bb2 4c3c
000003b0: 51df 2d3c f434 2739 4a6e 323b 65de cebc

lstm_6/lstm_cell_6/bias f4 [240]
0.033839554 0.05993037 -0.004034152 0.00834864 -0.037649482 0.022968665 0.005776055 0.062043462
-0.012955048 0.03145988 -0.007171297 0.030037597 0.011238294 0.012844259 0.0011197975 0.028312003
-0.0007989287 -0.020300899 0.02496207 -0.0012635922 0.011969696 0.007767012 0.023402112 -0.0061946562
0.023641722 -0.027142819 -0.0005669332 0.0111190155 0.038837615 -0.0022559636 0.032620672 -0.02798437
-0.012407774 0.004389479 -0.011298672 0.0036323718 0.0024971168 -0.004570175 -0.021131678 -0.019649776
-0.008022995 0.028407985 -0.0064145434 0.049174175 0.040120684 -0.035070214 0.0357121 -0.004306059
-0.0048012054 -0.0046526 0.0029134832 0.041164435 0.010152932 0.018707562 0.02046461 0.04286359
0.005400412 0.10165881 0.010766258 0.015159305 1.0621686 1.0474962 0.9955761 1.0133506
0.96321493 1.0682722 1.0177455 1.0803068 0.9880578 1.0384663 0.9558835 1.0022492
1.0090525 1.0272896 0.9991172 1.0352986 1.003966 1.0103085 1.0511975 1.0026907
1.0064621 1.0247902 1.0123407 0.9829296 1.0460651 0.97446716 1.0138482 1.0295334
1.0360518 0.99185354 1.0493051 1.0094904 0.98727834 1.0119565 1.0024234 1.0193793
1.0102775 0.9835006 0.9741381 0.9852591 1.0000203 1.0352788 0.9916807 1.074055
1.0448587 0.97794664 1.0024494 0.99464333 0.9919968 1.0191066 0.98405737 1.0584483
1.030745 1.0138239 1.0446235 0.9996224 0.9827803 1.104599 1.0148972 1.0221664
0.033978555 0.037063073 0.016891534 0.034531426 0.024745248 0.019523071 0.033746082 0.028501812
0.03929858 0.05521023 -0.051125553 0.08115935 -0.02162677 0.030787984 0.037741788 0.0027382842
0.028563954 -0.0002830119 0.0044089993 0.03142168 -0.030573195 -0.025883129 0.031740043 -0.002035105
-0.029460639 0.02089238 -0.00057452504 -0.0414928 0.010790733 0.034926243 0.0033977707 -0.009889659
-0.028974915 0.038077325 -0.011030596 0.04562969 0.03229242 0.034484744 -0.017252866 0.009147246
-0.0019154736 -0.0022549198 0.03881228 -0.051003184 0.012205675 -0.053259324 -0.03032133 0.023525648
-0.026117433 0.014531541 -0.05158318 0.019573906 0.02246287 0.031826053 0.054537307 -0.049779914
0.045323484 -0.037201647 0.06316624 -0.012428239 0.04507398 0.068767086 0.006393521 0.013768093
-0.02967822 0.0719142 0.004100833 0.050719343 -0.0122133745 0.020006437 -0.0102205435 0.04355127
0.010320821 0.027051967 0.0028912034 0.02389199 0.0028926637 0.0012873758 0.021966876 -0.0033965155
0.014170775 0.03382639 0.028700186 -0.0045608273 0.028162837 -0.024428569 0.002048597 0.006949764
0.031122211 0.0038495525 0.030614179 -0.00013614996 -0.008662127 0.017472142 -0.016499951 0.013313305
-0.0007227434 0.0074635902 -0.015876966 -0.01499233 -0.016128454 0.015476331 -0.015008995 0.061990242
0.024562947 -0.00227058 0.040730514 0.015726453 3.352369e-05 0.008642654 0.013233986 0.022261627
0.049246486 0.016308242 0.070595674 0.055675466 0.010814722 0.08539688 0.023523923 0.0025563138
00000000: 589b 0a3d 8c79 753d eb30 84bb bcc8 083c
00000010: 5836 1abd c828 bc3c 1045 bd3b 4921 7e3d
00000020: 6941 54bc 13dc 003d 33fd eabb 6811 f63c
00000030: d220 383c ba70 523c 2bc6 923a 93ee e73c
00000040: 336f 51ba 124e a6bc 417d cc3c 1e9f a5ba
00000050: 8b1c 443c 6b82 fe3b c9b5 bf3c 8bfc cabb
00000060: 49ac c13c 9e5a debc 3e9e 14ba 882c 363c
00000070: 3114 1f3d cad8 13bb 419d 053d 7a3f e5bc
00000080: fa49 4bbc 9ed5 8f3b 111e 39bc 160d 6e3b
00000090: aba6 233b 68c1 95bb 571c adbc 91f8 a0bc
000000a0: e172 03bc ddb7 e83c 1731 d2bb dc6a 493d
000000b0: 9655 243d c9a5 0fbd da46 123d d719 8dbb
000000c0: 6e53 9dbb d674 98bb 23f0 3e3b 0a9c 283d
000000d0: 7c58 263c 9a40 993c 66a5 a73c bb91 2f3d
000000e0: f0f5 b03b 7f32 d03d f664 303c bc5e 783c
000000f0: 24f5 873f 5b14 863f 13de 7e3f 79b5 813f
00000100: 4195 763f 25bd 883f 7c45 823f 7e47 8a3f
00000110: 5bf1 7c3f 77ec 843f c8b4 743f b449 803f
00000120: a228 813f 3a7e 833f 25c6 7f3f aa84 843f
00000130: f581 803f ca51 813f a48d 863f 2b58 803f
00000140: c0d3 803f 532c 833f 6194 813f 46a1 7b3f
00000150: 76e5 853f ae76 793f c7c5 813f c0c7 833f
00000160: 589d 843f 1dea 7d3f a14f 863f fb36 813f
00000170: 46be 7c3f ca87 813f 694f 803f 057b 823f
00000180: c650 813f b2c6 7b3f 1d61 793f f139 7c3f
00000190: aa00 803f 0484 843f c9de 7d3f a27a 893f
000001a0: eebd 853f b65a 7a3f 4350 803f f2a0 7e3f
000001b0: 81f3 7d3f 1672 823f 2feb 7b3f 3c7b 873f
000001c0: 74ef 833f fbc4 813f 39b6 853f 41e7 7f3f
000001d0: 7d97 7b3f 8063 8d3f 27e8 813f 59d6 823f
000001e0: 192d 0b3d 73cf 173d 1d60 8a3c d370 0d3d
000001f0: 8cb6 ca3c d9ee 9f3c 5539 0a3d a27c e93c
00000200: 8cf7 203d 1f24 623d 0769 51bd e036 a63d
00000210: a02a b1bc 1537 fc3c 2297 1a3d c974 333b
00000220: f4fe e93c 3761 94b9 5e79 903b 05b4 003d
00000230: a374 fabc db08 d4bc d901 023d 655f 05bb
00000240: 7057 f1bc 7f26 ab3c b99b 16ba 5bf4 29bd
00000250: 9dcb 303c d20e 0f3d 22ad 5e3b 3c08 22bc
00000260: cd5c edbc f8f6 1b3d acb9 34bc 33e6 3a3d
00000270: 0e45 043d e03f 0d3d e255 8dbc 55de 153c
00000280: a110 fbba 47c7 13bb a0f9 1e3d b7e8 50bd
00000290: 50fa 473c 7326 5abd 7064 f8bc dcb8 c03c
000002a0: 3af4 d5bc b315 6e3c e248 53bd 7559 a03c
000002b0: 0e04 b83c 095c 023d 8362 5f3d 06e6 4bbd
000002c0: 1ea5 393d c160 18bd 4d5d 813d d09f 4bbc
000002d0: 7e9f 383d c2d5 8c3d be80 d13b 9193 613c
000002e0: bd1f f3bc c147 933d 4860 863b 16bf 4f3d
000002f0: 9b1a 48bc 8ae4 a33c 1174 27bc d162 323d
00000300: a918 293c 169c dd3c 587a 3d3b 22b9 c33c
00000310: d892 3d3b 2abd a83a e1f3 b33c 1398 5ebb
00000320: 8a2c 683c 8a8d 0a3d a71c eb3c fe72 95bb
00000330: c0b5 e63c 6c1e c8bc c141 063b d9ba e33b
00000340: 02f4 fe3c c648 7c3b 96ca fa3c 7ac3 0eb9
00000350: 98eb 0dbc bd21 8f3c e82a 87bc 0c20 5a3c
00000360: 7d76 3dba 2291 f43b 6910 82bc 64a2 75bc
00000370: d21f 84bc 7090 7d3c 4ae8 75bc 7be9 7d3d
00000380: 3c38 c93c 03ce 14bb 0ad5 263d c3d4 803c
00000390: ca9b 0c38 eb99 0d3c 5cd3 583c 045e b63c
000003a0: afb6 493d dd98 853c 7794 903d f50b 643d
000003b0: 3b30 313c 8fe4 ae3d 3eb5 c03c d487 273b

dense_10/bias f4 [6]
-0.018201731 0.027755335 -0.026434522 0.035928532 0.00507296 -0.16760993
00000000: cc1b 95bc 285f e33c 368d d8bc cc29 133d
00000010: 133b a63b f0a1 2bbe

TensorArrayV2_11 f4 [128, 1, 60]
0.0 0.0 0.0 0.0 0.0 0.0 0.0 0.0
0.0 0.0 0.0 0.0 0.0 0.0 0.0 0.0
0.0 0.0 0.0 0.0 0.0 0.0 0.0 0.0
0.0 0.0 0.0 0.0 0.0 0.0 0.0 0.0
0.0 0.0 0.0 0.0 0.0 0.0 0.0 0.0
0.0 0.0 0.0 0.0 0.0 0.0 0.0 0.0
0.0 0.0 0.0 0.0 0.0 0.0 0.0 0.0
0.0 0.0 0.0 0.0 0.0 0.0 0.0 0.0
0.0 0.0 0.0 0.0 0.0 0.0 0.0 0.0
0.0 0.0 0.0 0.0 0.0 0.0 0.0 0.0
0.0 0.0 0.0 0.0 0.0 0.0 0.0 0.0
0.0 0.0 0.0 0.0 0.0 0.0 0.0 0.0
0.0 0.0 0.0 0.0 0.0 0.0 0.0 0.0
0.0 0.0 0.0 0.0 0.0 0.0 0.0 0.0
0.0 0.0 0.0 0.0 0.0 0.0 0.0 0.0
0.0 0.0 0.0 0.0 0.0 0.0 0.0 0.0
0.0 0.0 0.0 0.0 0.0 0.0 0.0 0.0
0.0 0.0 0.0 0.0 0.0 0.0 0.0 0.0
0.0 0.0 0.0 0.0 0.0 0.0 0.0 0.0
0.0 0.0 0.0 0.0 0.0 0.0 0.0 0.0
0.0 0.0 0.0 0.0 0.0 0.0 0.0 0.0
0.0 0.0 0.0 0.0 0.0 0.0 0.0 0.0
0.0 0.0 0.0 0.0 0.0 0.0 0.0 0.0
0.0 0.0 0.0 0.0 0.0 0.0 0.0 0.0
0.0 0.0 0.0 0.0 0.0 0.0 0.0 0.0
0.0 0.0 0.0 0.0 0.0 0.0 0.0 0.0
0.0 0.0 0.0 0.0 0.0 0.0 0.0 0.0
0.0 0.0 0.0 0.0 0.0 0.0 0.0 0.0
0.0 0.0 0.0 0.0 0.0 0.0 0.0 0.0
0.0 0.0 0.0 0.0 0.0 0.0 0.0 0.0
0.0 0.0 0.0 0.0 0.0 0.0 0.0 0.0
0.0 0.0 0.0 0.0 0.0 0.0 0.0 0.0
00000000: 0000 0000 0000 0000 0000 0000 0000 0000
00000010: 0000 0000 0000 0000 0000 0000 0000 0000
00000020: 0000 0000 0000 0000 0000 0000 0000 0000
00000030: 0000 0000 0000 0000 0000 0000 0000 0000
00000040: 0000 0000 0000 0000 0000 0000 0000 0000
00000050: 0000 0000 0000 0000 0000 0000 0000 0000
00000060: 0000 0000 0000 0000 0000 0000 0000 0000
00000070: 0000 0000 0000 0000 0000 0000 0000 0000
00000080: 0000 0000 0000 0000 0000 0000 0000 0000
00000090: 0000 0000 0000 0000 0000 0000 0000 0000
000000a0: 0000 0000 0000 0000 0000 0000 0000 0000
000000b0: 0000 0000 0000 0000 0000 0000 0000 0000
000000c0: 0000 0000 0000 0000 0000 0000 0000 0000
000000d0: 0000 0000 0000 0000 0000 0000 0000 0000
000000e0: 0000 0000 0000 0000 0000 0000 0000 0000
000000f0: 0000 0000 0000 0000 0000 0000 0000 0000
00000100: 0000 0000 0000 0000 0000 0000 0000 0000
00000110: 0000 0000 0000 0000 0000 0000 0000 0000
00000120: 0000 0000 0000 0000 0000 0000 0000 0000
00000130: 0000 0000 0000 0000 0000 0000 0000 0000
00000140: 0000 0000 0000 0000 0000 0000 0000 0000
00000150: 0000 0000 0000 0000 0000 0000 0000 0000
00000160: 0000 0000 0000 0000 0000 0000 0000 0000
00000170: 0000 0000 0000 0000 0000 0000 0000 0000
00000180: 0000 0000 0000 0000 0000 0000 0000 0000
00000190: 0000 0000 0000 0000 0000 0000 0000 0000
000001a0: 0000 0000 0000 0000 0000 0000 0000 0000
000001b0: 0000 0000 0000 0000 0000 0000 0000 0000
000001c0: 0000 0000 0000 0000 0000 0000 0000 0000
000001d0: 0000 0000 0000 0000 0000 0000 0000 0000
000001e0: 0000 0000 0000 0000 0000 0000 0000 0000
000001f0: 0000 0000 0000 0000 0000 0000 0000 0000
00000200: 0000 0000 0000 0000 0000 0000 0000 0000
00000210: 0000 0000 0000 0000 0000 0000 0000 0000
00000220: 0000 0000 0000 0000 0000 0000 0000 0000
00000230: 0000 0000 0000 0000 0000 0000 0000 0000
00000240: 0000 0000 0000 0000 0000 0000 0000 0000
00000250: 0000 0000 0000 0000 0000 0000 0000 0000
00000260: 0000 0000 0000 0000 0000 0000 0000 0000
00000270: 0000 0000 0000 0000 0000 0000 0000 0000
00000280: 0000 0000 0000 0000 0000 0000 0000 0000
00000290: 0000 0000 0000 0000 0000 0000 0000 0000
000002a0: 0000 0000 0000 0000 0000 0000 0000 0000
000002b0: 0000 0000 0000 0000 0000 0000 0000 0000
000002c0: 0000 0000 0000 0000 0000 0000 0000 0000
000002d0: 0000 0000 0000 0000 0000 0000 0000 0000
000002e0: 0000 0000 0000 0000 0000 0000 0000 0000
000002f0: 0000 0000 0000 0000 0000 0000 0000 0000
00000300: 0000 0000 0000 0000 0000 0000 0000 0000
00000310: 0000 0000 0000 0000 0000 0000 0000 0000
00000320: 0000 0000 0000 0000 0000 0000 0000 0000
00000330: 0000 0000 0000 0000 0000 0000 0000 0000
00000340: 0000 0000 0000 0000 0000 0000 0000 0000
00000350: 0000 0000 0000 0000 0000 0000 0000 0000
00000360: 0000 0000 0000 0000 0000 0000 0000 0000
00000370: 0000 0000 0000 0000 0000 0000 0000 0000
00000380: 0000 0000 0000 0000 0000 0000 0000 0000
00000390: 0000 0000 0000 0000 0000 0000 0000 0000
000003a0: 0000 0000 0000 0000 0000 0000 0000 0000
000003b0: 0000 0000 0000 0000 0000 0000 0000 0000
000003c0: 0000 0000 0000 0000 0000 0000 0000 0000
000003d0: 0000 0000 0000 0000 0000 0000 0000 0000
000003e0: 0000 0000 0000 0000 0000 0000 0000 0000
000003f0: 0000 0000 0000 0000 0000 0000 0000 0000

sequential_6/dense_10/MatMul f4 [6, 60]
0.17528363 -0.2090702 -0.20094602 0.22965743 -0.31321338 -0.27965212 0.08521795 0.20343159
0.12470532 -0.3983667 -0.35255086 0.33377406 -0.036337614 -0.27998164 -0.43628603 0.06183388
-0.28374448 -0.23417212 -0.4211263 -0.28801644 0.08850414 -0.14877345 0.17745487 0.35977468
-0.35608113 -0.08249892 0.3424385 -0.30011857 0.36535043 0.17776754 0.2094987 0.10564901
0.18544409 -0.26850513 0.37387002 -0.24756686 -0.2891597 0.028780848 0.26369995 -0.3897411
0.05952611 -0.23368627 0.28002265 0.054714937 -0.06875586 -0.16094953 -0.27669466 0.10022381
0.24186994 0.2533374 0.33871883 0.047423895 0.082909085 0.35549426 -0.05713395 -0.3099561
-0.12630732 0.18269171 -0.11491316 -0.33252743 -0.27237478 -0.352107 0.3178489 0.07710687
-0.2844746 0.18324444 -0.4171989 -0.35681635 0.25903976 -0.103651665 -0.31791487 0.30645597
-0.045524526 0.29937148 0.08106947 -0.28375402 -0.37022913 0.21428515 0.12915778 -0.27066937
0.039881732 -0.3960519 0.1585612 0.24390438 0.020947518 -0.4489852 -0.32920262 -0.37810767
0.21745807 0.27585262 -0.35915425 -0.40759957 0.1867463 0.14758055 -0.27584043 0.250745
-0.15571262 -0.20572694 -0.10135765 -0.11514392 0.4057412 -0.09040661 0.16291295 0.35582003
-0.2867757 -0.18642612 0.32017973 -0.26321527 -0.27328506 -0.12593116 0.06369753 0.46027163
-0.03736883 -0.21944194 0.14639951 0.2670869 0.019394843 -0.11135818 0.27459008 0.051658835
-0.3514738 0.33436534 0.17774086 0.36010364 0.034001853 -0.2703944 0.13936736 -0.36092743
0.16522942 -0.39451584 -0.16263665 0.032309584 0.033431083 0.37247938 -0.32487768 -0.3070226
-0.26969522 0.22492854 -0.23611791 0.10464794 -0.39172715 0.33681095 0.14905478 -0.2770794
-0.0037748977 -0.19765493 -0.09032519 0.38362896 -0.18243599 -0.21347287 0.20055793 0.043005396
0.10203582 -0.18742813 -0.048638444 0.17897005 -0.4286956 0.20506449 0.28607792 -0.19175552
-0.4068264 0.23044015 0.26925755 0.27283642 -0.2420264 -0.13664597 0.4373783 -0.30117258
0.119213924 -0.33937025 -0.3059998 -0.26363245 -0.09157426 0.27152717 -0.48635134 -0.16727231
-0.15074065 -0.38103682 0.2843653 0.019496273 -0.098373435 -0.21937902 -0.1717602 -0.2802446
0.30585256 0.13746063 0.09656345 0.31004223 -0.08973326 0.23931196 0.21441357 -0.26263013
-0.047273863 -0.16516192 0.30774724 0.15748638 0.24399821 -0.14378528 0.27957433 0.34814098
-0.30160126 0.07660428 -0.2681341 -0.22347517 0.18416676 0.06479734 0.059379164 -0.23397644
-0.25345892 0.19735485 -0.19323395 0.28196913 -0.2031144 -0.33157048 0.038042765 -0.024478838
0.146919 0.34389046 0.21944076 0.17528798 0.33174735 -0.05173929 -0.39015985 -0.19059579
0.24491356 0.066201314 -0.062434956 0.17615363 0.3606062 0.24723358 0.26989952 -0.14677557
-0.2885384 -0.2851495 0.26731765 0.33399618 0.28053743 0.27847618 0.22003035 0.14722185
-0.3244795 0.2449302 -0.15679799 0.21107003 0.28480497 0.28480712 -0.2918447 -0.033191282
-0.302291 0.20374407 0.20784828 -0.23812786 0.2085757 -0.14408123 0.324131 0.067218125
00000000: 8d7d 333e 8016 56be cbc4 4dbe 512b 6b3e
00000010: 815d a0be 902e 8fbe c086 ae3d 5f50 503e
00000020: 8165 ff3d b8f6 cbbe 8c81 b4be 6fe4 aa3e
00000030: c0d6 14bd c159 8fbe e260 dfbe 8645 7d3d
00000040: f546 91be d1ca 6fbe de9d d7be e476 93be
00000050: a941 b53d 1158 18be bbb6 353e 6334 b83e
00000060: 4450 b6be 32f5 a8bd 1954 af3e 24a9 99be
00000070: 360f bb3e b208 363e d486 563e 825e d83d
00000080: 0ee5 3d3e 8179 89be e46b bf3e 2b82 7dbe
00000090: bd0c 94be d0c5 eb3c ae03 873e 258c c7be
000000a0: a6d1 733d 744b 6fbe 215f 8f3e c51c 603d
000000b0: dfcf 8cbd f4cf 24be ecaa 8dbe 2442 cd3d
000000c0: c1ac 773e 71b5 813e 8e6c ad3e 8f3f 423d
000000d0: 3dcc a93d 5803 b63e 4a05 6abd 91b2 9ebe
000000e0: b556 01be 8913 3b3e 9757 ebbd 0941 aabe
000000f0: b574 8bbe 5e47 b4be 17bd a23e 35ea 9d3d
00000100: a8a6 91be 6ea4 3b3e 189b d5be a2b0 b6be
00000110: dca0 843e 5347 d4bd bdc5 a2be cce7 9c3e
00000120: ed77 3abd 3847 993e c007 a63d 3548 91be
00000130: ac8e bdbe 916d 5b3e f041 043e 2d95 8abe
00000140: 075b 233d 51c7 cabe de5d 223e 12c2 793e
00000150: 219a ab3c 63e1 e5be 3f8d a8be 5497 c1be
00000160: 54ad 5e3e 8e3c 8d3e 11e3 b7be e4b0 d0be
00000170: 6c3a 3f3e 5b1f 173e f53a 8dbe a661 803e
00000180: 2173 1fbe 15aa 52be 9994 cfbd 93d0 ebbd
00000190: 50bd cf3e 1a27 b9bd a7d2 263e 0b2e b63e
000001a0: 44d4 92be 7de6 3ebe 99ee a33e 27c4 86be
000001b0: 05ec 8bbe 19f4 00be da73 823d b9a8 eb3e
000001c0: 0f10 19bd 63b5 60be c1e9 153e 9dbf 883e
000001d0: efe1 9e3c c20f e4bd 1297 8c3e 3798 533d
000001e0: 60f4 b3be ef31 ab3e b301 363e 815f b83e
000001f0: 8745 0b3d 2371 8abe 51b6 0e3e 7bcb b8be
00000200: e731 293e fbfd c9be 398a 26be 0e57 043d
00000210: 08ef 083d 9eb5 be3e 5e56 a6be 1132 9dbe
00000220: 7e15 8abe ab53 663e e5c8 71be a951 d63d
00000230: 7690 c8be 7c72 ac3e d1a1 183e 5add 8dbe
00000240: 4664 77bb 0e66 4abe 6afc b8bd 046b c43e
00000250: 80d0 3abe a298 5abe 0f5f 4d3e 6d26 303d
00000260: 28f8 d03d 29ed 3fbe 1b39 47bd ed43 373e
00000270: fd7d dbbe 6dfc 513e ce78 923e 8f5b 44be
00000280: 8d4b d0be 81f8 6b3e 20dc 893e 37b1 8b3e
00000290: c5d5 77be ecec 0bbe 0cf0 df3e 4b33 9abe
000002a0: 6e26 f43d f0c1 adbe 01ac 9cbe d5fa 86be
000002b0: 498b bbbd 9c05 8b3e 0b03 f9be 6f49 2bbe
000002c0: c25b 1abe 4217 c3be 5498 913e a6b6 9f3c
000002d0: 0378 c9bd e5a4 60be e8e1 2fbe 387c 8fbe
000002e0: b598 9c3e 7bc2 0c3e 0fc3 c53d dbbd 9e3e
000002f0: 12c6 b7bd 320e 753e 3b8f 5b3e 7577 86be
00000300: 3da2 41bd 3520 29be 0c91 9d3e 1c44 213e
00000310: abda 793e 733c 13be 5e24 8f3e 893f b23e
00000320: 7b6b 9abe b4e2 9c3d df48 89be add6 64be
00000330: 3696 3c3e 78b4 843d 9137 733d 8597 6fbe
00000340: 5ec5 81be 6417 4a3e 1fdf 45be 425e 903e
00000350: 39fd 4fbe 9bc3 a9be bbd2 1b3d d887 c8bc
00000360: ef71 163e 6912 b03e 14b5 603e b17e 333e
00000370: cada a93e 94ec 53bd 08c3 c7be 8b2b 43be
00000380: 9fca 7a3e 8e94 873d ccbb 7fbd 9e61 343e
00000390: 60a1 b83e cd2a 7d3e 4530 8a3e 564c 16be
000003a0: 4ebb 93be 1eff 91be dcdd 883e 8c01 ab3e
000003b0: 9aa2 8f3e 6e94 8e3e a34f 613e 53c1 163e
000003c0: 2d22 a6be fbce 7a3e a78f 20be be22 583e
000003d0: f5d1 913e 3dd2 913e ab6c 95be 95f3 07bd
000003e0: e3c5 9abe 49a2 503e 2ed6 543e cad7 73be
000003f0: de94 553e 088a 13be 80f4 a53e a8a9 893d

lstm_6/lstm_cell_6/bias1 f4 [240]
0.033839554 0.05993037 -0.004034152 0.00834864 -0.037649482 0.022968665 0.005776055 0.062043462
-0.012955048 0.03145988 -0.007171297 0.030037597 0.011238294 0.012844259 0.0011197975 0.028312003
-0.0007989287 -0.020300899 0.02496207 -0.0012635922 0.011969696 0.007767012 0.023402112 -0.0061946562
0.023641722 -0.027142819 -0.0005669332 0.0111190155 0.038837615 -0.0022559636 0.032620672 -0.02798437
-0.012407774 0.004389479 -0.011298672 0.0036323718 0.0024971168 -0.004570175 -0.021131678 -0.019649776
-0.008022995 0.028407985 -0.0064145434 0.049174175 0.040120684 -0.035070214 0.0357121 -0.004306059
-0.0048012054 -0.0046526 0.0029134832 0.041164435 0.010152932 0.018707562 0.02046461 0.04286359
0.005400412 0.10165881 0.010766258 0.015159305 1.0621686 1.0474962 0.9955761 1.0133506
0.96321493 1.0682722 1.0177455 1.0803068 0.9880578 1.0384663 0.9558835 1.0022492
1.0090525 1.0272896 0.9991172 1.0352986 1.003966 1.0103085 1.0511975 1.0026907
1.0064621 1.0247902 1.0123407 0.9829296 1.0460651 0.97446716 1.0138482 1.0295334
1.0360518 0.99185354 1.0493051 1.0094904 0.98727834 1.0119565 1.0024234 1.0193793
1.0102775 0.9835006 0.9741381 0.9852591 1.0000203 1.0352788 0.9916807 1.074055
1.0448587 0.97794664 1.0024494 0.99464333 0.9919968 1.0191066 0.98405737 1.0584483
1.030745 1.0138239 1.0446235 0.9996224 0.9827803 1.104599 1.0148972 1.0221664
0.033978555 0.037063073 0.016891534 0.034531426 0.024745248 0.019523071 0.033746082 0.028501812
0.03929858 0.05521023 -0.051125553 0.08115935 -0.02162677 0.030787984 0.037741788 0.0027382842
0.028563954 -0.0002830119 0.0044089993 0.03142168 -0.030573195 -0.025883129 0.031740043 -0.002035105
-0.029460639 0.02089238 -0.00057452504 -0.0414928 0.010790733 0.034926243 0.0033977707 -0.009889659
-0.028974915 0.038077325 -0.011030596 0.04562969 0.03229242 0.034484744 -0.017252866 0.009147246
-0.0019154736 -0.0022549198 0.03881228 -0.051003184 0.012205675 -0.053259324 -0.03032133 0.023525648
-0.026117433 0.014531541 -0.05158318 0.019573906 0.02246287 0.031826053 0.054537307 -0.049779914
0.045323484 -0.037201647 0.06316624 -0.012428239 0.04507398 0.068767086 0.006393521 0.013768093
-0.02967822 0.0719142 0.004100833 0.050719343 -0.0122133745 0.020006437 -0.0102205435 0.04355127
0.010320821 0.027051967 0.0028912034 0.02389199 0.0028926637 0.0012873758 0.021966876 -0.0033965155
0.014170775 0.03382639 0.028700186 -0.0045608273 0.028162837 -0.024428569 0.002048597 0.006949764
0.031122211 0.0038495525 0.030614179 -0.00013614996 -0.008662127 0.017472142 -0.016499951 0.013313305
-0.0007227434 0.0074635902 -0.015876966 -0.01499233 -0.016128454 0.015476331 -0.015008995 0.061990242
0.024562947 -0.00227058 0.040730514 0.015726453 3.352369e-05 0.008642654 0.013233986 0.022261627
0.049246486 0.016308242 0.070595674 0.055675466 0.010814722 0.08539688 0.023523923 0.0025563138
00000000: 589b 0a3d 8c79 753d eb30 84bb bcc8 083c
00000010: 5836 1abd c828 bc3c 1045 bd3b 4921 7e3d
00000020: 6941 54bc 13dc 003d 33fd eabb 6811 f63c
00000030: d220 383c ba70 523c 2bc6 923a 93ee e73c
00000040: 336f 51ba 124e a6bc 417d cc3c 1e9f a5ba
00000050: 8b1c 443c 6b82 fe3b c9b5 bf3c 8bfc cabb
00000060: 49ac c13c 9e5a debc 3e9e 14ba 882c 363c
00000070: 3114 1f3d cad8 13bb 419d 053d 7a3f e5bc
00000080: fa49 4bbc 9ed5 8f3b 111e 39bc 160d 6e3b
00000090: aba6 233b 68c1 95bb 571c adbc 91f8 a0bc
000000a0: e172 03bc ddb7 e83c 1731 d2bb dc6a 493d
000000b0: 9655 243d c9a5 0fbd da46 123d d719 8dbb
000000c0: 6e53 9dbb d674 98bb 23f0 3e3b 0a9c 283d
000000d0: 7c58 263c 9a40 993c 66a5 a73c bb91 2f3d
000000e0: f0f5 b03b 7f32 d03d f664 303c bc5e 783c
000000f0: 24f5 873f 5b14 863f 13de 7e3f 79b5 813f
00000100: 4195 763f 25bd 883f 7c45 823f 7e47 8a3f
00000110: 5bf1 7c3f 77ec 843f c8b4 743f b449 803f
00000120: a228 813f 3a7e 833f 25c6 7f3f aa84 843f
00000130: f581 803f ca51 813f a48d 863f 2b58 803f
00000140: c0d3 803f 532c 833f 6194 813f 46a1 7b3f
00000150: 76e5 853f ae76 793f c7c5 813f c0c7 833f
00000160: 589d 843f 1dea 7d3f a14f 863f fb36 813f
00000170: 46be 7c3f ca87 813f 694f 803f 057b 823f
00000180: c650 813f b2c6 7b3f 1d61 793f f139 7c3f
00000190: aa00 803f 0484 843f c9de 7d3f a27a 893f
000001a0: eebd 853f b65a 7a3f 4350 803f f2a0 7e3f
000001b0: 81f3 7d3f 1672 823f 2feb 7b3f 3c7b 873f
000001c0: 74ef 833f fbc4 813f 39b6 853f 41e7 7f3f
000001d0: 7d97 7b3f 8063 8d3f 27e8 813f 59d6 823f
000001e0: 192d 0b3d 73cf 173d 1d60 8a3c d370 0d3d
000001f0: 8cb6 ca3c d9ee 9f3c 5539 0a3d a27c e93c
00000200: 8cf7 203d 1f24 623d 0769 51bd e036 a63d
00000210: a02a b1bc 1537 fc3c 2297 1a3d c974 333b
00000220: f4fe e93c 3761 94b9 5e79 903b 05b4 003d
00000230: a374 fabc db08 d4bc d901 023d 655f 05bb
00000240: 7057 f1bc 7f26 ab3c b99b 16ba 5bf4 29bd
00000250: 9dcb 303c d20e 0f3d 22ad 5e3b 3c08 22bc
00000260: cd5c edbc f8f6 1b3d acb9 34bc 33e6 3a3d
00000270: 0e45 043d e03f 0d3d e255 8dbc 55de 153c
00000280: a110 fbba 47c7 13bb a0f9 1e3d b7e8 50bd
00000290: 50fa 473c 7326 5abd 7064 f8bc dcb8 c03c
000002a0: 3af4 d5bc b315 6e3c e248 53bd 7559 a03c
000002b0: 0e04 b83c 095c 023d 8362 5f3d 06e6 4bbd
000002c0: 1ea5 393d c160 18bd 4d5d 813d d09f 4bbc
000002d0: 7e9f 383d c2d5 8c3d be80 d13b 9193 613c
000002e0: bd1f f3bc c147 933d 4860 863b 16bf 4f3d
000002f0: 9b1a 48bc 8ae4 a33c 1174 27bc d162 323d
00000300: a918 293c 169c dd3c 587a 3d3b 22b9 c33c
00000310: d892 3d3b 2abd a83a e1f3 b33c 1398 5ebb
00000320: 8a2c 683c 8a8d 0a3d a71c eb3c fe72 95bb
00000330: c0b5 e63c 6c1e c8bc c141 063b d9ba e33b
00000340: 02f4 fe3c c648 7c3b 96ca fa3c 7ac3 0eb9
00000350: 98eb 0dbc bd21 8f3c e82a 87bc 0c20 5a3c
00000360: 7d76 3dba 2291 f43b 6910 82bc 64a2 75bc
00000370: d21f 84bc 7090 7d3c 4ae8 75bc 7be9 7d3d
00000380: 3c38 c93c 03ce 14bb 0ad5 263d c3d4 803c
00000390: ca9b 0c38 eb99 0d3c 5cd3 583c 045e b63c
000003a0: afb6 493d dd98 853c 7794 903d f50b 643d
000003b0: 3b30 313c 8fe4 ae3d 3eb5 c03c d487 273b

while/MatMul_1 f4 [240, 60]
0.011718177 -0.096525185 0.09513342 0.07965864 -0.009121255 0.19791001 -0.010473566 0.0039681494
0.16908027 0.06130433 -0.096197866 0.13671295 -0.062552094 0.06970698 -0.004461697 -0.14450538
0.06044852 0.11076954 -0.18199876 -0.037270207 -0.10547191 0.06494356 -0.081069134 -0.06260413
0.0047937967 -0.17771603 -0.07469886 -0.09939688 0.026114294 0.078197934 0.16226956 0.046533693
0.05052127 0.08449496 0.09524102 0.03150888 -0.036229063 0.09248397 0.0975865 -0.012652158
0.032028172 -0.06259049 -0.02109564 0.011702019 -0.0036508027 -0.056113508 0.076517165 0.06204203
0.04637661 0.07554032 -0.034192555 0.019561345 -0.066299565 0.09567946 0.13754055 0.06460708
0.060458392 -0.0038421892 0.13036783 -0.0028900804 -0.083607845 -0.067741506 -0.07070005 0.12525652
0.07445382 0.073905796 0.018069545 0.08643614 0.031257246 -0.19118632 -0.0072504776 0.059554722
0.09588385 0.11554675 0.017807554 -0.21185978 0.09708973 0.011994526 -0.0739471 0.05000044
-0.0711115 -0.0064793318 -0.10208277 0.06094584 -0.01774746 0.04450645 0.12674572 0.13326511
-0.15319212 0.041968588 -0.15230094 0.11125221 -0.0467141 0.016057506 -0.06590546 0.024106452
0.12906714 0.147304 0.0150748445 -0.030445447 0.0047359536 -0.034128986 0.05774296 -0.03986372
0.18700361 -0.017015418 -0.0914846 0.031158071 -0.12808837 0.12837148 -0.10356579 -0.1761735
-0.053510554 -0.033633396 -0.031216409 0.022245113 -0.04455425 0.26435557 0.02869694 -0.078260444
-0.073841244 0.121049166 0.014913966 -0.084857225 -0.042475924 -0.02672857 0.0049834894 -0.046640202
0.05599759 -0.04589827 -0.025111152 0.061396003 -0.09888914 -0.0062682517 -0.041815147 -0.0152118355
0.046438854 0.09608453 0.11499735 0.009595246 -0.2068684 -0.02982104 -0.016576627 0.0076223863
0.029728482 0.01773712 0.010905989 0.08020748 0.11330897 0.07178543 -0.23238751 0.110422775
-0.010326165 0.07262844 0.058369398 0.075892426 -0.06436023 0.038902644 -0.1337303 0.019116385
0.042099137 0.050233833 -0.024424165 -0.013976711 -0.11136765 -0.11919124 0.1265832 0.026279444
-0.10462265 -0.096441776 -0.16862872 0.033241265 -0.06870951 0.061721805 0.24489929 -0.15192707
0.14244027 -0.023300875 0.0031951794 0.0073444378 0.017498348 0.23011808 0.077559635 0.15931265
-0.05780199 -0.033760235 -0.028195573 0.11773728 -0.08131896 0.009727116 -0.09037862 0.08821743
-0.0574477 0.12610549 0.15998363 -0.17727901 0.114367254 -0.07245931 0.0377069 0.08397548
-0.014850316 -0.22517507 0.07837902 0.08374078 0.060628828 0.09088249 0.012846608 0.015087649
-0.09548445 0.1690345 -0.08245214 -0.009500816 -0.06214884 -0.024521764 0.043106243 0.0012346292
0.06214351 0.10840503 -0.03192375 -0.020851998 -0.03772435 0.13287462 -0.062204216 0.014916546
-0.05942565 0.056945927 -0.10628992 -0.05163628 -0.1408911 0.028786143 0.066401936 0.13913034
-0.07666778 0.1187596 0.14615335 -0.19778807 0.25334492 0.1993976 0.22235046 0.006613222
0.016465545 0.065359 0.032483704 0.02697024 0.048111424 -0.022288732 0.0039739977 0.057068124
0.009670624 0.05180675 -0.03574354 -0.045764215 -0.030984024 0.051169787 -0.19312787 0.11273633
00000000: 99fd 3f3c ffae c5bd 4fd5 c23d 1224 a33d
00000010: 5171 15bc eca8 4a3e 5299 2bbc 4007 823b
00000020: 6123 2d3e 401a 7b3d 6303 c5bd 7bfe 0b3e
00000030: 501b 80bd 88c2 8e3d 6d33 92bb 38f9 13be
00000040: de98 773d 24db e23d e25d 3abe a5a8 18bd
00000050: a801 d8bd 2101 853d 9307 a6bd 9836 80bd
00000060: 4815 9d3b 31fb 35be b7fb 98bd 9790 cbbd
00000070: a5ed d53c 3d26 a03d fe29 263e 1d9a 3e3d
00000080: 64ef 4e3d b20b ad3d b90d c33d 750f 013d
00000090: ed64 14bd 3c68 bd3d 6edb c73d ff4a 4fbc
000000a0: f92f 033d 712f 80bd c3d0 acbc d3b9 3f3c
000000b0: 4e42 6fbb 47d7 65bd 08b5 9c3d c91f 7e3d
000000c0: 66f5 3d3d e2b4 9a3d 7e0d 0cbd 1d3f a03c
000000d0: 11c8 87bd 98f3 c33d 6ed7 0c3e b750 843d
000000e0: 38a3 773d 3dcd 7bbb 257f 053e 8167 3dbb
000000f0: 973a abbd 0fbc 8abd 30cb 90bd 3f43 003e
00000100: 3f7b 983d ec5b 973d 9506 943c 6e05 b13d
00000110: 9907 003d 59c6 43be 6a95 edbb a7ef 733d
00000120: c05e c43d c6a3 ec3d 26e1 913c c5f1 58be
00000130: fbd6 c63d b084 443c 9471 97bd 43cd 4c3d
00000140: e8a2 91bd 9350 d4bb c510 d1bd 58a2 793d
00000150: 1f63 91bc 654c 363d a1c9 013e a676 083e
00000160: 65de 1cbe 41e7 2b3d c7f4 1bbe 33d8 e33d
00000170: 4957 3fbd 088b 833c 71f9 86bd e57a c53c
00000180: 2d2a 043e dcd6 163e 7bfc 763c bb68 f9bc
00000190: 0f30 9b3b d6ca 0bbd e283 6c3d 2448 23bd
000001a0: e07d 3f3e eb63 8bbc 475c bbbd 363f ff3c
000001b0: 9929 03be d073 033e 4d1a d4bd d366 34be
000001c0: e22d 5bbd 2cc3 09bd 8eb9 ffbc 623b b63c
000001d0: 847e 36bd 9d59 873e d815 eb3c 0347 a0bd
000001e0: 143a 97bd a0e8 f73d b559 743c a0c9 adbd
000001f0: 3cfb 2dbd e0f5 dabc 8a4c a33b cc09 3fbd
00000200: bb5d 653d d3ff 3bbd e7b5 cdbc 607a 7b3d
00000210: 6486 cabd e865 cdbb 5c46 2bbd 103b 79bc
00000220: ab36 3e3d f7c7 c43d bb83 eb3d 6135 1d3c
00000230: 4fd5 53be 414b f4bc b5cb 87bc 36c5 f93b
00000240: 2589 f33c 704d 913c 09af 323c d243 a43d
00000250: 890e e83d 3d04 933d fef6 6dbe 5625 e23d
00000260: 132f 29bc 38be 943d c014 6f3d 7d6d 9b3d
00000270: 4ccf 83bd 6158 1f3d 99f0 08be f799 9c3c
00000280: 2570 2c3d fec1 4d3d 3015 c8bc 93fe 64bc
00000290: b914 e4bd 891a f4bd 079f 013e fd47 d73c
000002a0: 6644 d6bd 4483 c5bd 02ad 2cbe fe27 083d
000002b0: 92b7 8cbd 01d0 7c3d e1c6 7a3e c592 1bbe
000002c0: dddb 113e 7ae1 bebc 3766 513b 9ca9 f03b
000002d0: b258 8f3c 13a4 6b3e 96d7 9e3d db22 233e
000002e0: c8c1 6cbd 2c48 0abd 67fa e6bc 3e20 f13d
000002f0: 8e8a a6bd 7b5e 1f3c 6d18 b9bd 57ab b43d
00000300: 484e 6bbd cc21 013e c0d2 233e a188 35be
00000310: 6139 ea3d 8c65 94bd 8d72 1a3d 56fb ab3d
00000320: bd4e 73bc 4b94 66be 2e85 a03d 4980 ab3d
00000330: ef55 783d 9920 ba3d 947a 523c 3032 773c
00000340: 5a8d c3bd 6117 2d3e abdc a8bd 50a9 1bbc
00000350: c88f 7ebd dee1 c8bc 2c90 303d 48d3 a13a
00000360: 318a 7e3d 7503 de3d 7ac2 02bd cfd1 aabc
00000370: d984 1abd 4910 083e d9c9 7ebd 8764 743c
00000380: 4f68 73bd 2240 693d 88ae d9bd 9080 53bd
00000390: c245 10be ebd0 eb3c bdfd 873d 2f78 0e3e
000003a0: ff03 9dbd 3c38 f33d 39a9 153e f588 4abe
000003b0: 6db6 813e e22e 4c3e d7af 633e bab3 d83b
000003c0: c0e2 863c f0da 853d a20d 053d b1f0 dc3c
000003d0: 7c10 453d dc96 b6bc 4f38 823b 44c0 693d
000003e0: 8971 1e3c 5133 543d d167 12bd 4273 3bbd
000003f0: 35d2 fdbc 6997 513d 50c3 45be 4ee2 e63d

while/MatMul f4 [240, 9]
-0.09451987 -0.012334939 -0.0017473762 -0.06560236 -0.34800592 -0.31552914 -0.109852865 0.105055
0.23000503 -0.010247422 -0.014808349 -0.24802426 -0.08295947 -0.098681614 -0.32516286 0.045869738
0.20230515 0.2548812 -0.08036973 -0.026759516 -0.04879021 -0.14201126 0.18269485 -0.17676309
-0.018005528 -0.12065642 0.088939644 -0.11001821 0.039613582 -0.09147452 -0.32266182 0.052035723
0.0055592423 -0.07118592 -0.15097968 -0.016793037 -0.038510513 0.0919011 -0.11450591 0.13826226
-0.057787005 -0.031097647 -0.015030158 -0.11066605 0.0025695884 0.09275546 -0.10901927 -0.10315177
0.09279954 -0.50991315 -0.03555435 0.1636984 0.16247253 -0.32484972 -0.018279038 -0.034860726
0.1489901 -0.08259765 -0.11422344 0.051466353 -0.036539424 -0.029084578 0.13304198 0.07363699
-0.058485612 -0.30210418 -0.27052358 0.09069873 -0.074213006 -0.08332311 -0.035048157 0.35202655
-0.067815006 0.04984546 -0.022253128 -0.06599497 0.19422829 -0.0038035254 0.24983446 0.17804398
0.06321291 -0.10491305 -0.08137142 0.06750699 -0.22495964 -0.14423005 -0.06889104 0.08551629
0.16982238 0.11763686 0.0090878615 0.043663006 -0.04727672 0.012578504 0.31362653 -0.13222358
0.16428807 -0.03632217 -0.15986578 0.056345392 0.04842951 -0.017899483 0.34790164 -0.11059137
-0.05838743 0.16039766 0.021871531 -0.018249642 0.06955877 0.05579472 -0.021307139 -0.14510664
0.27182937 0.1071922 0.10913875 0.03063651 -0.070614085 -0.1091603 0.11459716 0.0055050184
-0.38952562 0.17726949 0.0119267525 0.19072251 0.052187495 0.02488109 0.031446382 -0.06410216
-0.058190063 -0.18011132 0.05167173 -0.3132557 -0.022572791 -0.057274893 0.06894341 0.07206701
-0.005183921 0.13400182 0.13569352 -0.16924742 0.29583874 -0.11651497 -0.064904116 0.013337958
-0.008956274 0.013526544 0.080357574 0.27065623 -0.2616904 -0.054353435 0.07526606 -0.114353426
-0.032306798 -0.031782422 0.12873587 -0.07335199 -0.24887009 0.24831994 0.15020797 0.14819966
0.057364713 -0.16847596 -0.037667435 -0.04958159 -0.20381874 -0.13368401 -0.021620454 -0.10316877
0.21768717 0.09521473 0.004425534 0.005136851 -0.0319936 -0.051512547 -0.1301635 -0.1851014
-0.16224502 0.06111497 0.06335506 0.057604577 -0.006585152 -0.045813017 0.035606727 -0.27949813
0.16183116 -0.08975793 -0.069507696 -0.08169963 -0.21367875 0.08966557 0.12476143 -0.06212287
0.32302248 -0.09560243 -0.08891283 0.04446611 0.24781057 -0.1455493 0.072303265 0.00217524
-0.03514868 0.27389073 -0.050309297 -0.040445283 0.044500753 0.089144446 -0.17038678 -0.05076468
0.017366441 -0.028541835 0.109570555 -0.10001242 -0.19899912 -0.08786563 -0.26219633 -0.30548945
-0.0676962 0.16781741 0.20529939 -0.25705737 0.14039531 0.13346669 -0.096025676 -0.030034382
0.07669328 -0.0892665 0.003898929 -0.09177219 -0.08856938 0.041851632 -0.05856227 -0.009053642
0.12251467 -0.008563045 0.07118026 0.0037451035 0.027598327 -0.18594125 -0.13151817 0.2513513
0.006682467 0.023466984 -0.01584116 -0.047277514 -0.02711777 0.012068525 0.12526889 -0.11708656
-0.079554975 -0.016313309 0.080395885 -0.25900474 0.16185704 -0.03750943 -0.057374116 0.24771626
00000000: a293 c1bd 7c18 4abc 3708 e5ba 885a 86bd
00000010: d52d b2be 098d a1be 8afa e0bd 1327 d73d
00000020: 7086 6b3e cee4 27bc b89e 72bc 12fa 7dbe
00000030: a8e6 a9bd 9619 cabd bf7b a6be e8e1 3b3d
00000040: 1529 4f3e ca7f 823e e398 a4bd c636 dbbc
00000050: 3ed8 47bd 666b 11be 5c14 3b3e 6201 35be
00000060: 5480 93bc b71a f7bd fd25 b63d 3a51 e1bd
00000070: da41 223d fe56 bbbd ee33 a5be 6923 553d
00000080: 4e2a b63b ecc9 91bd 6b9a 1abe 8d91 89bc
00000090: 33bd 1dbd a536 bc3d 1382 eabd 9f94 0d3e
000000a0: 11b2 6cbd 7ec0 febc 0d41 76bc e2a4 e2bd
000000b0: 8a66 283b 93f6 bd3d 7f45 dfbd 3c41 d3bd
000000c0: af0d be3d ab89 02bf 70a1 11bd 8ea0 273e
000000d0: 335f 263e b452 a6be ecbd 95bc 1fca 0ebd
000000e0: dc90 183e f528 a9bd fbed e9bd 62ce 523d
000000f0: 5daa 15bd c842 eebc 283c 083e fdce 963d
00000100: 9c8e 6fbd 66ad 9abe 1182 8abe 41c0 b93d
00000110: fdfc 97bd 4fa5 aabd a88e 0fbd d33c b43e
00000120: 98e2 8abd c12a 4c3d 314c b6bc 5f28 87bd
00000130: c8e3 463e 9144 79bb 9bd4 7f3e 2951 363e
00000140: c575 813d a7dc d6bd 0fa6 a6bd 1b41 8a3d
00000150: d25b 66be 0bb1 13be bf16 8dbd 2a23 af3d
00000160: ebe5 2d3e 98eb f03d 41e5 143c fbd7 323d
00000170: 3ca5 41bd 1216 4e3c a893 a03e 9e65 07be
00000180: 223b 283e 8ec6 14bd dbb3 23be 6dca 663d
00000190: 065e 463d f0a1 92bc 2a20 b23e ba7d e2bd
000001a0: a827 6fbd 493f 243e ed2b b33c 4680 95bc
000001b0: d474 8e3d 0189 643d 4f8c aebc d696 14be
000001c0: 382d 8b3e 9687 db3d 2384 df3d 6bf9 fa3c
000001d0: 1e9e 90bd 6f8f dfbd eab1 ea3d 7163 b43b
000001e0: e76f c7be 2286 353e 6d68 433c c34c 433e
000001f0: 8ec2 553d 6dd3 cb3c eccd 003d fe47 83bd
00000200: b458 6ebd 1a6f 38be bca5 533d 0d63 a0be
00000210: 93ea b8bc 1499 6abd 3432 8d3d de97 933d
00000220: e2dd a9bb c637 093e 3ef3 0a3e 324f 2dbe
00000230: 2d78 973e 679f eebd 73ec 84bd 7387 5a3c
00000240: 56bd 12bc 709e 5d3c 8392 a43d 7493 8a3e
00000250: 49fc 85be b5a1 5ebd 1825 9a3d 2132 eabd
00000260: 2254 04bd 492e 02bd 56d3 033e 9139 96bd
00000270: cdd7 7ebe 9547 7e3e 1ed0 193e a7c1 173e
00000280: 43f7 6a3d f684 2cbe 2b49 1abd 1116 4bbd
00000290: dcb5 50be 76e4 08be 611d b1bc 264a d3bd
000002a0: 63e9 5e3e f1ff c23d 1204 913b 0853 a83b
000002b0: b90b 03bd d2fe 52bd 9549 05be 398b 3dbe
000002c0: 8f23 26be b153 7a3d 4cc0 813d c7f2 6b3d
000002d0: 42c8 d7bb 6ea6 3bbd 5cd8 113d 611a 8fbe
000002e0: 11b7 253e 01d3 b7bd 0d5a 8ebd 2352 a7bd
000002f0: 9ace 5abe 95a2 b73d ec82 ff3d 8d74 7ebd
00000300: 3463 a53e 35cb c3bd ee17 b6bd 1922 363d
00000310: 0ec2 7d3e e00a 15be bc13 943d 798e 0e3b
00000320: 10f8 0fbd 683b 8c3e 1f11 4ebd f4a9 25bd
00000330: 6c46 363d 5d91 b63d df79 2ebe a0ee 4fbd
00000340: 1144 8e3c 91d0 e9bc 8766 e03d 50d3 ccbd
00000350: 6dc6 4bbe e5f2 b3bd 993e 86be 1d69 9cbe
00000360: 4ea4 8abd 54d8 2b3e 013a 523e 069d 83be
00000370: cac3 0f3e 7eab 083e 1ca9 c4bd aa0a f6bc
00000380: 5e11 9d3d 5bd1 b6bd 2d85 7f3b 0ff3 bbbd
00000390: dd63 b5bd 9e6c 2b3d fede 6fbd ba55 14bc
000003a0: f9e8 fa3d 044c 0cbc f5c6 913d 6970 753b
000003b0: e315 e23c 6267 3ebe b3ac 06be 1eb1 803e
000003c0: 99f8 da3b d53d c03c 52c5 81bc 11a6 41bd
000003d0: 1626 debc 10bb 453c 7d46 003e 14cb efbd
000003e0: b8ed a2bd 7da3 85bc 99a6 a43d 459c 84be
000003f0: dabd 253e 7da3 19bd 1f01 6bbd 55a9 7d3e
