app/src/main/ml/RNN - WISDM_at.tflite (tflite, 371544 bytes, 15 tensors)

lstm_5/lstm_cell_5/bias f4 [240]
000000 04 89 99 be 16 b3 4d 3e dc ad 9e be dc ed 2d 3e
       -0.29987347 0.20087847 -0.3099202 0.16985267
000010 39 e9 99 be db ba be be 37 da 79 be 44 08 58 be
       -0.30060747 -0.37251934 -0.24399649 -0.21096903
000020 c3 d2 af be 04 15 8f b9 c1 50 d4 be 68 f3 79 be
       -0.34340486 -0.00027290743 -0.4146786 -0.24409258
000030 5d 06 06 be 2a 7a 89 bc 22 54 cb 3c 95 ac ff bc
       -0.13088365 -0.016781885 0.024820391 -0.031210223
000040 2c 88 88 3d dd e0 ba bd 3e 63 d7 3c 3a 8d 51 be
       0.06666598 -0.091249205 0.02629244 -0.2046403
000050 9e d4 25 3c 8f f7 cb be 36 af f0 be 7f 42 93 bc
       0.010121493 -0.3983731 -0.47008675 -0.017976044
000060 dc a1 2d be 2d be 77 3e a7 9f 52 3d 21 c3 40 be
       -0.16956276 0.2419364 0.051421788 -0.18824436
000070 43 ec 1f bd d4 0a fd bd 53 b6 c7 be 00 2a 38 bc
       -0.039043676 -0.12355581 -0.3900629 -0.011240482
000080 73 85 90 be fd 14 6a be 94 43 bc be af a9 11 3d
       -0.28226814 -0.22859569 -0.36770308 0.035562214
000090 0e 71 38 be b8 00 a7 3e b6 13 aa be 1d 14 bb be
       -0.18011877 0.32617736 -0.33218163 -0.36538783
0000a0 04 00 a0 be 51 16 97 be 58 4a b4 bd 6d 29 9c bc
       -0.31250012 -0.29509214 -0.088032424 -0.019062722
0000b0 f1 ce 80 be ce 11 52 3e 8b c8 46 be 58 ed 4d bd
       -0.25157884 0.20514604 -0.19412439 -0.050275177
0000c0 fe 44 01 bf aa 56 6b 3e 1f a1 9c be ac 6e eb be
       -0.504959 0.22982278 -0.30591676 -0.45982873
0000d0 18 83 af be 40 06 fb 3d 43 2f 07 3e 41 cc 5e be
       -0.34279704 0.122570515 0.13201623 -0.21757604
0000e0 86 49 f5 bd dd 0b d3 3d 30 6f 26 be 1b 1f ea be
       -0.11976914 0.10304997 -0.16253352 -0.45726857
0000f0 13 5b 7e 3f 0d f4 9a 3f 9a b0 85 3f 76 ec af 3f
       0.9935772 1.2105728 1.044452 1.3744037
000100 3e 5c 56 3f ad 3e 90 3f 15 26 89 3f de 76 38 3f
       0.837345 1.1269127 1.0714747 0.72056377
000110 69 b8 91 3f 5e 66 b7 3f 0f b9 4b 3f 37 e7 6f 3f
       1.1384403 1.4328115 0.7957925 0.9371218
000120 61 34 93 3f 3a eb 8f 3f f1 94 8a 3f e2 cd 85 3f
       1.150036 1.124366 1.0826703 1.0453455
000130 bc b2 d5 3f 25 1d 94 3f d1 e9 a1 3f f4 80 8d 3f
       1.669517 1.1571394 1.264948 1.1054978
000140 8a 4d 75 3f 00 aa 97 3f 39 f1 a7 3f d8 ba 92 3f
       0.9582144 1.1848755 1.312049 1.146327
000150 19 6e 75 3f d3 83 b1 3f 6e 80 93 3f 84 18 7a 3f
       0.9587112 1.3868355 1.1523569 0.9769366
000160 26 a4 b8 3f 8d 4b 51 3f 18 34 92 3f 13 e3 88 3f
       1.4425094 0.81755906 1.1422148 1.0694298
000170 a5 6c 90 3f f7 4a 7b 3f e5 3c 92 3f ed 9e 9f 3f
       1.1283156 0.9816126 1.1424834 1.2470375
000180 d3 b4 84 3f 64 25 a7 3f 3e c6 5c 3f cf f3 90 3f
       1.0367683 1.3058286 0.86239994 1.1324404
000190 b8 73 5a 3f b2 c0 99 3f e9 a1 a1 3f 5c ad a0 3f
       0.8533282 1.2011931 1.2627536 1.2552905
0001a0 70 22 8c 3f de 7e 9f 3f 58 4f 8b 3f 49 da 9e 3f
       1.094801 1.2460592 1.0883589 1.2410365
0001b0 4f dd 8f 3f 63 59 95 3f 00 ff 86 3f 0c 14 58 3f
       1.1239413 1.1667904 1.054657 0.8440559
0001c0 55 ef 74 3f 4b 67 aa 3f 36 56 8c 3f b6 35 60 3f
       0.9567769 1.3312773 1.096381 0.87581956
0001d0 9a c2 8a 3f 23 fd 98 3f 88 46 c5 3f 03 e1 89 3f
       1.0840638 1.1952251 1.541215 1.0771793
0001e0 9a a1 23 bd 81 54 bd 3b 04 83 08 3e 15 26 ff bd
       -0.039949037 0.005777896 0.13331228 -0.124584354
0001f0 ff 3b a8 3d 6a 91 5c be 69 43 a9 bd 70 10 2c bd
       0.08214568 -0.21539846 -0.082648106 -0.042007864
000200 9d 85 db 3c 1c c5 34 3d aa 8c bb bd b1 15 a7 3d
       0.02679711 0.04413329 -0.09157689 0.08158434
000210 84 26 dd 3c 81 af 38 3e a3 61 d3 bd 1d 15 03 3c
       0.026995905 0.180357 -0.10321357 0.008000639
000220 62 e4 98 3b 6d 23 be bd d9 ae 61 3d 30 f7 f2 bd
       0.004665897 -0.09284101 0.05509839 -0.118635535
000230 e3 c2 00 bd e4 f9 d3 bd 80 e5 0f bd b6 8d 3b 3e
       -0.03143586 -0.10350397 -0.035130978 0.18315777
000240 24 94 a7 bd 53 64 16 3e 49 a2 df 3c 69 3b 04 bd
       -0.081825525 0.14686708 0.027299063 -0.03228322
000250 31 e9 31 3e ca 63 df bd e0 d7 54 bd 6f df 58 be
       0.17374112 -0.10907705 -0.051963687 -0.21178983
000260 c2 c1 15 3e a1 45 28 3e 1d bb 6e bd 18 a6 dc 3b
       0.14624694 0.16432811 -0.058283914 0.006733667
000270 cb d0 87 bd 37 41 c6 bd 20 ba 34 bd b2 e2 eb 3c
       -0.06631621 -0.096804075 -0.044122815 0.02879462
000280 3e c0 57 3e 45 c3 f6 3c 62 17 67 be dc db 55 3d
       0.21069428 0.030122409 -0.22567514 0.052211627
000290 f4 23 dd bd 44 f6 18 3e 7e 38 cf bd 9f ae 45 3e
       -0.10797873 0.14937693 -0.10118197 0.19304894
0002a0 42 20 21 be 9a 74 df 3c ff 78 54 3c 86 4d 40 3e
       -0.15734962 0.02727728 0.012968301 0.18779573
0002b0 33 66 67 be 00 49 31 be 0a e5 84 bd 00 a4 58 3c
       -0.2259758 -0.17313004 -0.06488998 0.013222694
0002c0 43 25 41 3e 9f 28 e3 bd b1 0b ab 3d 67 f2 80 3d
       0.1886187 -0.11091732 0.08351839 0.062962346
0002d0 43 1f 90 bc f0 27 52 be 5c f8 61 bd be d0 ca 3c
       -0.017593032 -0.20523047 -0.055168495 0.02475774
0002e0 5a f9 85 bd fd 68 01 be 05 c1 e2 bd 3c 7d 59 be
       -0.06541701 -0.12637706 -0.11071972 -0.2123918
0002f0 0b af c7 bd f2 16 17 bd 6a 94 d6 3c aa 16 5f bd
       -0.09750184 -0.036887117 0.026193816 -0.054464974
000300 85 8f 03 3e b6 e0 a1 3c bd 38 be bd bc 43 64 be
       0.12847717 0.01976047 -0.09288166 -0.22291464
000310 96 a0 d3 3d 18 58 ec bd c9 cc 0d be 8b 8f 70 be
       0.10333364 -0.1154024 -0.1384765 -0.23492257
000320 95 93 93 3d 4d 0b 1d be 62 de d7 be e5 f0 73 be
       0.072058834 -0.15336342 -0.42161852 -0.23822363
000330 c5 d5 52 bd ca ff 32 be 07 b1 73 be be d8 f2 bd
       -0.051473398 -0.17480388 -0.23798 -0.118577465
000340 f9 6f 1a be bc 1f cb bd 48 44 39 be fe 96 85 be
       -0.15081777 -0.09918162 -0.18092453 -0.2609176
000350 f0 ae 18 3d d0 9a ce bd 88 8c 10 bc 24 f6 04 bd
       0.03727621 -0.10088122 -0.008822568 -0.0324613
000360 04 f7 08 be 3e ea ec ba 38 2a 00 be 77 43 13 3b
       -0.13375479 -0.0018075181 -0.12516105 0.0022470632
000370 2c bd 15 bc 64 72 96 3e 2c 44 30 3e 77 92 16 3e
       -0.00913934 0.29384148 0.17213506 0.1470431
000380 8f 11 d8 bc 23 10 86 3d d4 ce 70 be 62 a1 a2 3d
       -0.02637556 0.065460466 -0.23516399 0.079409376
000390 a5 9b 87 be 28 16 a2 be 24 db 9a be c2 2f c6 be
       -0.26485935 -0.3165753 -0.30245316 -0.3870831
0003a0 b0 7e 07 be d4 98 cd 3c 03 28 1c be 3b 72 e3 bd
       -0.13231921 0.025097288 -0.15249638 -0.11105772
0003b0 fa 7e a8 be 48 dc 7a be 00 d1 75 be 97 64 b5 be
       -0.32909375 -0.24498093 -0.24005508 -0.35428306

lstm_4/lstm_cell_4/bias f4 [240]
000000 81 65 e7 bd 59 fc 2c bd 20 41 82 3d 00 c4 3b 3e
       -0.11298657 -0.042232845 0.06360078 0.18336487
000010 92 08 6a bb e0 4a 81 be 28 45 ec 3e e0 b5 44 3e
       -0.0035710675 -0.25252438 0.46146512 0.19210005
000020 55 cc a4 3e 03 ab b2 3e b2 84 7f 3e 3c 4f b6 bd
       0.32187143 0.34896097 0.24952963 -0.089018315
000030 e9 a4 b0 bc 9f 8e 0e 3e c1 95 43 3e 0e 26 8d 3e
       -0.02156301 0.13921593 0.19100095 0.27568096
000040 00 e0 0e be ef 08 dc bb 7d 73 c2 bb a5 59 2f 3e
       -0.13952637 -0.006714932 -0.0059341774 0.1712404
000050 b4 1c 0f 3e c1 06 c2 bc a8 64 b2 3e 20 83 c8 bc
       0.13975793 -0.023684861 0.3484242 -0.024476588
000060 9a 07 44 be 54 41 88 3e 3f ed 8f bd 91 13 a9 3e
       -0.19143525 0.2661234 -0.07027673 0.3302274
000070 48 9c bb 3e d2 ff 19 bd cd 76 63 3d cf b2 ed bd
       0.3664267 -0.037597485 0.05553322 -0.11606371
000080 cf 4a b6 bd 40 71 12 3e b2 a7 75 3d 06 91 ad 3d
       -0.08900987 0.14301014 0.05997438 0.08474927
000090 7a a8 9d 3d 82 7e 96 3d 6f 4f 17 be a7 20 84 3e
       0.0769815 0.07348348 -0.14776395 0.25806162
0000a0 2a ad 33 3e 10 84 b7 3d 9d 94 90 3d e3 31 24 bd
       0.17546526 0.08960736 0.07059596 -0.04008664
0000b0 71 64 b7 bc 8a 72 32 bd c9 77 e0 3d 51 d9 2a 3e
       -0.022386761 -0.043566264 0.10960347 0.16684462
0000c0 3a 82 87 3e 92 a9 cd 3d 27 eb 21 3e 44 39 da 3d
       0.26466542 0.100421086 0.1581236 0.10655454
0000d0 9d 91 98 be 08 3d 37 3d 45 f6 39 be 98 7a 7e 3d
       -0.29798594 0.04473594 -0.1816035 0.062128633
0000e0 d3 68 8a bc 8b fa 5b 3e 6b de 35 be 09 f3 83 be
       -0.016895687 0.21482293 -0.17760627 -0.2577136
0000f0 93 b6 3f 3f ee bb 50 3f c5 22 83 3f 7c ad 99 3f
       0.7488796 0.8153676 1.0244986 1.2006068
000100 1c 47 67 3f e6 08 71 3f b7 ad 85 3f d6 13 84 3f
       0.9034288 0.941542 1.0443639 1.0318553
000110 2e 09 98 3f d8 5b a0 3f 53 27 89 3f fe f4 74 3f
       1.1877801 1.2528028 1.0715126 0.9568633
000120 93 2f 8f 3f d4 3a 96 3f 1c 19 94 3f d8 c6 76 3f
       1.1186393 1.1736703 1.1570163 0.9639716
000130 30 cb 81 3f 72 41 8e 3f 11 68 63 3f 92 e0 8a 3f
       1.0140133 1.1113722 0.8883067 1.0849783
000140 c3 2a 72 3f d6 b3 88 3f 6a a1 8d 3f 12 20 58 3f
       0.945965 1.0679882 1.1064885 0.84423935
000150 5f f2 87 3f 89 7b 5b 3f c8 c6 89 3f 0e 56 96 3f
       1.0620841 0.85735375 1.0763788 1.1745012
000160 8b a0 97 3f b3 84 52 3f 20 f6 70 3f 29 14 a2 3f
       1.1845869 0.8223373 0.94125557 1.2662402
000170 96 52 71 3f a7 27 8b 3f 8d bb 59 3f 1c c6 80 3f
       0.9426664 1.0871476 0.85051805 1.0060458
000180 5e de 61 3f 0b 9a 7a 3f 87 46 3c 3f ca d9 62 3f
       0.8822993 0.978913 0.73545116 0.8861357
000190 f2 a6 7f 3f 83 84 76 3f 41 ee 58 3f 59 84 51 3f
       0.99864113 0.96295947 0.84738547 0.8184257
0001a0 a2 84 90 3f ab 4c 91 3f c1 d7 8b 3f d3 71 9c 3f
       1.1290476 1.1351522 1.0925218 1.2222236
0001b0 a6 f6 8a 3f 59 52 77 3f 6a 15 83 3f b5 a7 74 3f
       1.0856521 0.9661003 1.024091 0.955684
0001c0 ea 1c 37 3f 1b 30 9b 3f ae ac 5a 3f 79 0f 8c 3f
       0.71528494 1.2124056 0.8541974 1.0942222
0001d0 74 0a 8c 3f 81 e1 85 3f d1 a9 87 3f 77 54 69 3f
       1.094069 1.0459443 1.0598699 0.9114451
0001e0 7d 03 62 3d 96 ac 9b 3d c4 cf 7f bc 66 a0 e1 3d
       0.055179108 0.076012775 -0.0156135 0.11016922
0001f0 0b e1 18 3d 2d 79 c2 bd 35 fc 12 be 93 52 9c bd
       0.037323993 -0.09495769 -0.14354022 -0.07632937
000200 39 63 b7 3d dd 55 1e bd 37 9d c8 3d f6 32 25 bd
       0.08954472 -0.038656104 0.09795611 -0.040331803
000210 26 eb 05 3e d3 86 a9 3b 10 17 41 bd 7c f9 31 3e
       0.13077983 0.005173543 -0.047141135 0.17380327
000220 2f bc f4 3d d9 c1 39 bc c1 61 9e 3d 4b 7f 12 bd
       0.11949956 -0.011337721 0.07733489 -0.035765927
000230 ea 4e 55 3d 42 79 9c 3c 96 45 57 bd fa 3c 7d 3d
       0.05207721 0.019100789 -0.052556597 0.06182573
000240 96 f2 83 3d 5d ac 46 be 64 68 7e 3d f7 3e e1 bc
       0.06442754 -0.19401689 0.062111273 -0.027495844
000250 5e ce f5 bd 32 63 66 bd 97 85 00 3d 4f 94 81 bd
       -0.12002252 -0.056246944 0.0313774 -0.06327116
000260 c3 92 24 bc 20 ea ce bd 14 6c 10 3d 20 f2 e7 3d
       -0.010044756 -0.101032495 0.03525932 0.113254786
000270 94 9e 2a bd 8a e1 3a bd 80 c2 0f 3e 15 77 a4 3d
       -0.041655138 -0.045625247 0.1403904 0.080305256
000280 2d 6b ee 3d 2a a2 a2 3d 72 5b d8 bd d8 2f e0 bc
       0.11641536 0.079410866 -0.10564317 -0.027366564
000290 aa 34 c5 3c 63 dd a6 3d 98 b7 35 bd 81 d3 87 3d
       0.024072964 0.08147695 -0.04436454 0.06632138
0002a0 ba 36 8a bd 87 88 74 bd b4 ea c7 3d 7c 42 7a bb
       -0.067487195 -0.059700515 0.09761563 -0.00381866
0002b0 5c 46 7c 3d a0 c4 61 3d 57 7f 69 bd 0e 32 63 bd
       0.061590537 0.055119157 -0.057006206 -0.055467658
0002c0 74 14 b7 3d 3d 10 4e bd af d2 85 3c 4d 9b 72 bd
       0.08939448 -0.050308455 0.016335813 -0.059230138
0002d0 0c 5c bb bd 99 40 a9 3d 2f aa 71 bd c7 a0 14 bd
       -0.09148416 0.08264274 -0.05900019 -0.03628614
0002e0 19 4e c2 3c b2 5f 74 bd d9 5f 0a 3f a8 e6 d2 39
       0.02371888 -0.059661575 0.540525 0.00040226174
0002f0 ad f1 25 3e 86 08 6e 3e fe 06 08 3f 96 96 71 bd
       0.16205473 0.23245439 0.5313567 -0.0589815
000300 c8 af 3f 3e b6 ea 2b 3e d1 ef 1d bc ba 53 0c 3f
       0.18719399 0.16788754 -0.009639696 0.54815257
000310 d2 cf f9 3c d9 8a a1 3c 4d 27 5c bd df e5 aa 3e
       0.030494604 0.019719528 -0.053748418 0.33378503
000320 3f 2b 30 3e 6d cb ba 3e 6d c4 b0 3e c7 a9 a1 3d
       0.17203997 0.36483327 0.3452486 0.078937106
000330 69 2e 22 be b4 4f a8 3d bd e5 34 3d b6 9f ae 3e
       -0.15838017 0.08218327 0.044164408 0.34106225
000340 e2 7e 9a 3e 2f 63 99 bd ba 35 0c 3e 35 59 f1 3e
       0.3017493 -0.07489621 0.1369237 0.47138372
000350 f0 4e 83 3e 0c ed 64 bd 5b fd a0 3c 35 d9 80 3e
       0.25646162 -0.055890128 0.01965206 0.25165716
000360 78 f6 6b bd 51 6c 99 bc 86 a7 c5 bc a1 f4 53 3e
       -0.057608098 -0.018728407 -0.024127733 0.20698787
000370 22 81 1b 3d 13 24 f8 bb bb ff 3d 3c 43 53 69 3e
       0.037964948 -0.0075726598 0.011596615 0.22785668
000380 5e 7f f2 3c e6 5e 13 be 6d 09 6e 3c 86 56 9d 3e
       0.029601749 -0.1439167 0.0145286145 0.30730075
000390 81 db 95 3e 08 23 ef 3d 49 c4 64 3c d9 16 2e 3e
       0.2926903 0.116766036 0.013962814 0.17000903
0003a0 fd 7d 02 be a8 46 cf 3e 0e c7 81 3c 93 46 c5 3d
       -0.12743373 0.40483594 0.015841987 0.096326016
0003b0 fb 31 0b bc dc ad 33 3d 03 63 88 3e 33 d9 60 bd
       -0.008495803 0.043866977 0.2663804 -0.054894637

lstm_3/lstm_cell_3/bias f4 [240]
000000 82 17 97 be 55 aa d9 3c 46 83 42 be d2 7a 9d 3e
       -0.29510123 0.026570478 -0.1899539 0.30757767
000010 a4 4d b3 bd ec 01 13 bc bd 50 33 3d 50 a3 4d bc
       -0.08755043 -0.008972626 0.04377817 -0.012551144
000020 8d da 6a 3d fe 19 fa bd 73 30 29 3d 98 28 2d 3d
       0.057337333 -0.12211989 0.04130597 0.04227504
000030 3f 88 87 bd 58 a8 68 3e 00 ea ac be d7 3f d5 be
       -0.06617784 0.22720468 -0.33772278 -0.41650268
000040 ef f8 df bc 48 11 ef bc 8d 6d f9 bd b5 66 a8 3c
       -0.02734038 -0.029183045 -0.12179098 0.020556787
000050 24 0e 96 bd dd ef 9c bd 1c 2e 2a bd ef a5 ad bc
       -0.07326916 -0.07662938 -0.04154788 -0.021197287
000060 50 67 50 be 38 da 9a bd 6f 8e 35 be f5 95 3c bc
       -0.2035191 -0.07561153 -0.17730115 -0.011510362
000070 89 ac 4a 3c e6 39 d9 bd ec 71 94 bd 64 fb bc 3d
       0.012370237 -0.106067464 -0.072482914 0.092276365
000080 20 56 a2 bd dc 35 24 bd a9 62 17 3d 45 ed c3 bd
       -0.07926583 -0.040090427 0.036959324 -0.0956674
000090 9d a3 7f bd cb 1b 94 3d 49 8d 03 3d f4 71 86 be
       -0.062411893 0.072318636 0.032117162 -0.26258814
0000a0 77 28 bc 3d 0e ff 6d 3e 85 db 01 be 2e 5c b5 3d
       0.091874056 0.23241827 -0.12681396 0.088554725
0000b0 1c eb 4f 3e 8c 66 08 be 1f f4 2c 3c c6 d3 d5 bc
       0.20304531 -0.13320369 0.01055625 -0.026101958
0000c0 3f f9 b5 3c 7d 9c 1e be 97 7d f7 bd 79 f2 b7 3d
       0.022213576 -0.15489383 -0.12084501 0.08981795
0000d0 89 45 6c bd 0f 37 2f 3d 36 b8 dc bd 49 9a a8 3c
       -0.0576835 0.042777117 -0.10777323 0.020581381
0000e0 fd 37 9f bd b0 0e ea bb 84 8b 05 3e d1 e5 cc bc
       -0.07774351 -0.007142864 0.13041502 -0.025011929
0000f0 b3 63 45 3f 94 94 7f 3f e2 33 4e 3f a5 32 7b 3f
       0.77105254 0.9983609 0.80547917 0.9812415
000100 44 42 57 3f 35 68 75 3f be 96 98 3f 7d 47 81 3f
       0.8408549 0.9586213 1.1921003 1.0099941
000110 55 81 8e 3f 5b 28 6c 3f 0b 65 94 3f 03 d9 78 3f
       1.1133219 0.9224908 1.1593336 0.97206134
000120 50 ce 5e 3f ea 65 73 3f 41 2d 2c 3f f1 f8 46 3f
       0.8703356 0.95077384 0.6725655 0.77723604
000130 2c 02 8b 3f 22 95 6e 3f 36 70 6d 3f 31 d9 7f 3f
       1.0860038 0.9319631 0.92749345 0.9994078
000140 a0 23 49 3f ed 6c 6e 3f 2f 47 58 3f 76 38 59 3f
       0.78569984 0.9313496 0.8448362 0.8485178
000150 01 d2 30 3f d5 79 41 3f 98 88 67 3f 5a 6b 71 3f
       0.6907044 0.75576526 0.904428 0.9430443
000160 8b 6c 6b 3f a6 83 91 3f 01 70 52 3f 23 88 66 3f
       0.919625 1.1368301 0.82202154 0.9005148
000170 8f 7c 90 3f c5 7a 81 3f 81 fb 6b 3f 44 a7 48 3f
       1.1288012 1.0115591 0.9218064 0.7838023
000180 7e b1 63 3f 47 73 75 3f c6 94 a3 3f 02 21 58 3f
       0.88942707 0.95879024 1.2779777 0.84425366
000190 e9 d4 8b 3f 4f ec 91 3f af 43 4b 3f c9 fb 5b 3f
       1.092435 1.1400241 0.7940015 0.8593107
0001a0 4a 17 6e 3f 67 1f 80 3f f4 b3 8f 3f ec e0 91 3f
       0.93004286 1.0009583 1.1226792 1.1396766
0001b0 a0 41 60 3f bc f4 54 3f ef 7f 83 3f e9 c3 6c 3f
       0.87600136 0.83185935 1.0273417 0.92486435
0001c0 e0 ac 88 3f 03 ea 68 3f 66 25 81 3f 18 a5 62 3f
       1.0677757 0.90982074 1.0089538 0.88533163
0001d0 01 e3 8d 3f fe 62 5c 3f 3d 91 70 3f 8f ef 71 3f
       1.1084901 0.8608855 0.93971616 0.9450616
0001e0 5b 3f 66 bb 23 71 4c be 25 f3 ef bc e5 6b 20 bc
       -0.0035132978 -0.19965033 -0.029290745 -0.009791349
0001f0 89 6b bc bc 21 ea 3c 3c 16 b7 17 3e 59 1c 6d 3c
       -0.023000496 0.01153043 0.14815935 0.014472091
000200 4b 8c a1 bd eb 0a d4 3d b5 a5 1b bd be b5 b2 3d
       -0.07888087 0.10353645 -0.037999827 0.08726071
000210 88 53 59 3d 77 a1 ba 3a 9e 6b f6 bc 93 bf dd bc
       0.053058177 0.0014238794 -0.030080613 -0.027068889
000220 53 ea 27 3e f1 30 a8 3d b1 37 41 3d 71 4c 08 be
       0.16397981 0.0821246 0.047172252 -0.1331041
000230 3b 38 28 3d cd 77 7c bc 3d 5c af bd 02 2b 29 3d
       0.04106925 -0.015409422 -0.08562515 0.04130078
000240 b9 59 e1 3b fa c2 01 3d d9 98 21 3d 45 17 7c 3d
       0.006877151 0.031680085 0.039452408 0.06154563
000250 84 78 04 3d 20 63 72 bd 74 de a7 bc 14 35 74 bd
       0.032341495 -0.059176564 -0.020491816 -0.05962093
000260 5d 66 91 3d 50 5a e5 3d d9 c4 07 be 02 da 16 3d
       0.07099602 0.11198866 -0.13258685 0.036829002
000270 e8 45 14 bd ba a2 89 bb 34 62 6e bd 53 26 13 3d
       -0.03619948 -0.0042003067 -0.058199123 0.03592522
000280 08 07 ef bd 80 e5 dc 3d 4a 4c 7c bd 44 70 08 bb
       -0.11671263 0.10785961 -0.061596192 -0.0020818869
000290 fe 58 ec bd 1d b3 89 bd 5c fa d2 bd ed 24 8a 3b
       -0.115404114 -0.06723616 -0.103016585 0.0042158277
0002a0 d6 22 2a bd c6 b7 65 3d f9 6c 27 3c 9d 57 0c bd
       -0.04153713 0.056083463 0.010218852 -0.034263242
0002b0 3d 6f b9 3d fe 4e d0 bc 03 ac f5 bd ce ab 79 3b
       0.0905442 -0.025428291 -0.11995699 0.0038096788
0002c0 68 30 8b 3d b6 23 16 be 8b 0e ba bc 3e ba f6 39
       0.06796342 -0.1466206 -0.022712013 0.00047059538
0002d0 21 e9 8f be 56 1b 18 3d 73 90 37 be 4b 56 c3 3e
       -0.2810755 0.037135445 -0.17926197 0.38151774
0002e0 aa 00 df bd b4 35 fa 3c 9f 59 2b 3d 41 58 ce 3d
       -0.108887985 0.030543186 0.041833516 0.10075427
0002f0 13 2d 4b 3e f3 d1 e8 3a b5 e0 b4 3d 51 43 18 3d
       0.19841413 0.0017762765 0.08831922 0.037173573
000300 7d aa 08 be c3 9b 7c 3e 9c 82 a7 be 6d 56 b6 be
       -0.13346286 0.24668793 -0.32716835 -0.35612813
000310 a8 9b 8a bc 4d 86 16 bd c5 98 42 be b7 2c 58 3c
       -0.016919926 -0.036749173 -0.1900359 0.013194255
000320 e2 d6 4d 3d ac 95 a0 3b 2f cb 33 bd 1b 56 17 3c
       0.050253756 0.004900655 -0.043894943 0.009236838
000330 97 cd 3c be d7 e3 a2 bd 27 fa 06 be f3 b6 12 3e
       -0.18437801 -0.07953613 -0.13181363 0.14327602
000340 6a 8b 86 3d 47 e8 e4 3c d0 09 3f be 80 cf 26 3e
       0.0656956 0.02794279 -0.18656087 0.16290092
000350 47 f5 5a 3e 95 bb 66 bd 3e 29 eb 3c 71 86 d4 bd
       0.21382628 -0.056331236 0.02870619 -0.10377205
000360 7e b5 7c 3d ce ac 02 3e b0 ca 9f 3c 50 e7 8c be
       0.061696522 0.12761232 0.019505829 -0.27520227
000370 82 a5 af 3d 8b 6a 83 3e 11 b6 cf bd 91 6f 39 3e
       0.0857649 0.25667223 -0.10142148 0.18108965
000380 17 d2 59 3e 72 9c c2 bd eb e2 8a 3d fc 3f b5 3d
       0.21271549 -0.09502496 0.067815624 0.08850095
000390 7d 46 12 3c 52 0c 0f be 3c 9d 9c 3e 79 21 04 3e
       0.0089279385 -0.13969544 0.3058871 0.12903394
0003a0 55 e6 06 bd 93 97 b0 3d fa 5e d9 bd bd c0 31 3c
       -0.032934505 0.086226605 -0.106138185 0.010849175
0003b0 79 8e 2e 3c ce df 2e 3d 85 ef f0 3d 60 2a 22 3c
       0.010654085 0.042693906 0.11764435 0.009897798

dense_1/bias f4 [6]
000000 79 3c cc be bb ce 3f be b2 9d 63 3f 0a e4 e9 bf
       -0.39889887 -0.18731205 0.889125 -1.8272717
000010 f5 9f b6 be da 95 ed 3e
       -0.35668913 0.4640339

TensorArrayV2_11 f4 [200, 1, 60]
000000 00 00 00 00 00 00 00 00 00 00 00 00 00 00 00 00
       0.0 0.0 0.0 0.0
000010 00 00 00 00 00 00 00 00 00 00 00 00 00 00 00 00
       0.0 0.0 0.0 0.0
000020 00 00 00 00 00 00 00 00 00 00 00 00 00 00 00 00
       0.0 0.0 0.0 0.0
000030 00 00 00 00 00 00 00 00 00 00 00 00 00 00 00 00
       0.0 0.0 0.0 0.0
000040 00 00 00 00 00 00 00 00 00 00 00 00 00 00 00 00
       0.0 0.0 0.0 0.0
000050 00 00 00 00 00 00 00 00 00 00 00 00 00 00 00 00
       0.0 0.0 0.0 0.0
000060 00 00 00 00 00 00 00 00 00 00 00 00 00 00 00 00
       0.0 0.0 0.0 0.0
000070 00 00 00 00 00 00 00 00 00 00 00 00 00 00 00 00
       0.0 0.0 0.0 0.0
000080 00 00 00 00 00 00 00 00 00 00 00 00 00 00 00 00
       0.0 0.0 0.0 0.0
000090 00 00 00 00 00 00 00 00 00 00 00 00 00 00 00 00
       0.0 0.0 0.0 0.0
0000a0 00 00 00 00 00 00 00 00 00 00 00 00 00 00 00 00
       0.0 0.0 0.0 0.0
0000b0 00 00 00 00 00 00 00 00 00 00 00 00 00 00 00 00
       0.0 0.0 0.0 0.0
0000c0 00 00 00 00 00 00 00 00 00 00 00 00 00 00 00 00
       0.0 0.0 0.0 0.0
0000d0 00 00 00 00 00 00 00 00 00 00 00 00 00 00 00 00
       0.0 0.0 0.0 0.0
0000e0 00 00 00 00 00 00 00 00 00 00 00 00 00 00 00 00
       0.0 0.0 0.0 0.0
0000f0 00 00 00 00 00 00 00 00 00 00 00 00 00 00 00 00
       0.0 0.0 0.0 0.0
000100 00 00 00 00 00 00 00 00 00 00 00 00 00 00 00 00
       0.0 0.0 0.0 0.0
000110 00 00 00 00 00 00 00 00 00 00 00 00 00 00 00 00
       0.0 0.0 0.0 0.0
000120 00 00 00 00 00 00 00 00 00 00 00 00 00 00 00 00
       0.0 0.0 0.0 0.0
000130 00 00 00 00 00 00 00 00 00 00 00 00 00 00 00 00
       0.0 0.0 0.0 0.0
000140 00 00 00 00 00 00 00 00 00 00 00 00 00 00 00 00
       0.0 0.0 0.0 0.0
000150 00 00 00 00 00 00 00 00 00 00 00 00 00 00 00 00
       0.0 0.0 0.0 0.0
000160 00 00 00 00 00 00 00 00 00 00 00 00 00 00 00 00
       0.0 0.0 0.0 0.0
000170 00 00 00 00 00 00 00 00 00 00 00 00 00 00 00 00
       0.0 0.0 0.0 0.0
000180 00 00 00 00 00 00 00 00 00 00 00 00 00 00 00 00
       0.0 0.0 0.0 0.0
000190 00 00 00 00 00 00 00 00 00 00 00 00 00 00 00 00
       0.0 0.0 0.0 0.0
0001a0 00 00 00 00 00 00 00 00 00 00 00 00 00 00 00 00
       0.0 0.0 0.0 0.0
0001b0 00 00 00 00 00 00 00 00 00 00 00 00 00 00 00 00
       0.0 0.0 0.0 0.0
0001c0 00 00 00 00 00 00 00 00 00 00 00 00 00 00 00 00
       0.0 0.0 0.0 0.0
0001d0 00 00 00 00 00 00 00 00 00 00 00 00 00 00 00 00
       0.0 0.0 0.0 0.0
0001e0 00 00 00 00 00 00 00 00 00 00 00 00 00 00 00 00
       0.0 0.0 0.0 0.0
0001f0 00 00 00 00 00 00 00 00 00 00 00 00 00 00 00 00
       0.0 0.0 0.0 0.0
000200 00 00 00 00 00 00 00 00 00 00 00 00 00 00 00 00
       0.0 0.0 0.0 0.0
000210 00 00 00 00 00 00 00 00 00 00 00 00 00 00 00 00
       0.0 0.0 0.0 0.0
000220 00 00 00 00 00 00 00 00 00 00 00 00 00 00 00 00
       0.0 0.0 0.0 0.0
000230 00 00 00 00 00 00 00 00 00 00 00 00 00 00 00 00
       0.0 0.0 0.0 0.0
000240 00 00 00 00 00 00 00 00 00 00 00 00 00 00 00 00
       0.0 0.0 0.0 0.0
000250 00 00 00 00 00 00 00 00 00 00 00 00 00 00 00 00
       0.0 0.0 0.0 0.0
000260 00 00 00 00 00 00 00 00 00 00 00 00 00 00 00 00
       0.0 0.0 0.0 0.0
000270 00 00 00 00 00 00 00 00 00 00 00 00 00 00 00 00
       0.0 0.0 0.0 0.0
000280 00 00 00 00 00 00 00 00 00 00 00 00 00 00 00 00
       0.0 0.0 0.0 0.0
000290 00 00 00 00 00 00 00 00 00 00 00 00 00 00 00 00
       0.0 0.0 0.0 0.0
0002a0 00 00 00 00 00 00 00 00 00 00 00 00 00 00 00 00
       0.0 0.0 0.0 0.0
0002b0 00 00 00 00 00 00 00 00 00 00 00 00 00 00 00 00
       0.0 0.0 0.0 0.0
0002c0 00 00 00 00 00 00 00 00 00 00 00 00 00 00 00 00
       0.0 0.0 0.0 0.0
0002d0 00 00 00 00 00 00 00 00 00 00 00 00 00 00 00 00
       0.0 0.0 0.0 0.0
0002e0 00 00 00 00 00 00 00 00 00 00 00 00 00 00 00 00
       0.0 0.0 0.0 0.0
0002f0 00 00 00 00 00 00 00 00 00 00 00 00 00 00 00 00
       0.0 0.0 0.0 0.0
000300 00 00 00 00 00 00 00 00 00 00 00 00 00 00 00 00
       0.0 0.0 0.0 0.0
000310 00 00 00 00 00 00 00 00 00 00 00 00 00 00 00 00
       0.0 0.0 0.0 0.0
000320 00 00 00 00 00 00 00 00 00 00 00 00 00 00 00 00
       0.0 0.0 0.0 0.0
000330 00 00 00 00 00 00 00 00 00 00 00 00 00 00 00 00
       0.0 0.0 0.0 0.0
000340 00 00 00 00 00 00 00 00 00 00 00 00 00 00 00 00
       0.0 0.0 0.0 0.0
000350 00 00 00 00 00 00 00 00 00 00 00 00 00 00 00 00
       0.0 0.0 0.0 0.0
000360 00 00 00 00 00 00 00 00 00 00 00 00 00 00 00 00
       0.0 0.0 0.0 0.0
000370 00 00 00 00 00 00 00 00 00 00 00 00 00 00 00 00
       0.0 0.0 0.0 0.0
000380 00 00 00 00 00 00 00 00 00 00 00 00 00 00 00 00
       0.0 0.0 0.0 0.0
000390 00 00 00 00 00 00 00 00 00 00 00 00 00 00 00 00
       0.0 0.0 0.0 0.0
0003a0 00 00 00 00 00 00 00 00 00 00 00 00 00 00 00 00
       0.0 0.0 0.0 0.0
0003b0 00 00 00 00 00 00 00 00 00 00 00 00 00 00 00 00
       0.0 0.0 0.0 0.0
0003c0 00 00 00 00 00 00 00 00 00 00 00 00 00 00 00 00
       0.0 0.0 0.0 0.0
0003d0 00 00 00 00 00 00 00 00 00 00 00 00 00 00 00 00
       0.0 0.0 0.0 0.0
0003e0 00 00 00 00 00 00 00 00 00 00 00 00 00 00 00 00
       0.0 0.0 0.0 0.0
0003f0 00 00 00 00 00 00 00 00 00 00 00 00 00 00 00 00
       0.0 0.0 0.0 0.0

sequential_1/dense_1/MatMul f4 [6, 60]
000000 a7 54 8a be ed 67 a8 be f6 a2 bb be 37 ea 1f 3d
       -0.2701771 -0.3289179 -0.36647767 0.039041724
000010 2c e2 ae bd a3 0d d1 bd 26 d0 59 be 2b 33 38 3e
       -0.085392326 -0.10207679 -0.21270809 0.17988269
000020 39 74 83 3e e9 1e 56 3e 0c 1a 99 be 37 c2 18 3f
       0.25674608 0.20910229 -0.29902685 0.5967135
000030 c5 c8 c1 3e f1 9b 0d 3f 3d cc 1e bf d7 d6 09 bf
       0.37848487 0.5531607 -0.6203039 -0.53843445
000040 5e 0c 38 3e ce f5 2c be 19 0c af be 31 a5 ff bd
       0.17973468 -0.16890642 -0.34188917 -0.1248268
000050 cc 13 ec 3e aa 16 e5 bd 7b 80 36 3e 37 22 88 3e
       0.46108854 -0.111859635 0.17822449 0.26588604
000060 69 b0 fb 3e aa 0a 03 be 10 c8 88 3e 1c 02 97 be
       0.49158028 -0.12797037 0.26715136 -0.29493797
000070 68 01 96 3e 3e d7 cd be fd 1c 66 be df 0e 0b 3f
       0.29297948 -0.4020328 -0.22471996 0.54319566
000080 28 c3 b0 3a 42 b1 2a 3f 7a 02 e6 3d 80 b3 49 3e
       0.0013485895 0.66676724 0.11230941 0.1969738
000090 1f 81 a2 be 10 b6 4d be c8 75 4c 3c b3 f7 2c be
       -0.31739137 -0.20088983 0.012479253 -0.16891365
0000a0 f6 47 8c 3e eb fa 85 3d 2d 4d a0 bd 30 0c 3b 3e
       0.27398652 0.065419994 -0.0782722 0.18266368
0000b0 15 fa 04 bc 9a 48 9e 3d 8d a6 33 3e 3e c9 ad 3a
       -0.008116265 0.077286914 0.17544003 0.0013258827
0000c0 bb 02 d0 bd 8b 4b d9 3e 00 93 6c 3d 29 4b d0 3e
       -0.10156771 0.42440447 0.057757378 0.40682343
0000d0 8e 17 54 be 06 cc 9f bd e8 91 2a 3e 95 ae 8c 3e
       -0.2071211 -0.07802586 0.16657221 0.27476946
0000e0 44 3d ea 3e 26 d6 b0 be 3a 06 e3 bd 32 3b 93 3d
       0.45749867 -0.34538382 -0.11085172 0.07189025
0000f0 1a f3 8f 3d 47 3e ae 3e de 27 0a bf 1e bb a5 3e
       0.0702879 0.3403189 -0.5396708 0.32369322
000100 35 e8 64 be 2a 95 11 bc 24 c0 6e be 01 48 f6 be
       -0.22354205 -0.008885661 -0.23315483 -0.4810181
000110 1b 42 0c be 0d 69 07 bd f5 7f 8a be 9f 87 f0 bd
       -0.13697092 -0.03305917 -0.27050748 -0.11744618
000120 ec a2 13 bf 82 60 4c be 5c a5 70 3e 62 45 57 3e
       -0.57670474 -0.1995869 0.2350058 0.21022561
000130 ee 9c 14 3e d5 66 9b 3f 64 16 7e be b0 ba fd be
       0.14512989 1.2140757 -0.24813229 -0.49556494
000140 72 06 a3 be dc 5a b8 3d dc 3d ea be aa 70 02 bf
       -0.31840855 0.09001705 -0.4575032 -0.5095316
000150 2e db a5 be b1 68 cb 3e 34 0e 05 bf 25 a1 56 bb
       -0.32393783 0.3972831 -0.519748 -0.0032749858
000160 73 1b ff be 6d ea 83 3e 9d 54 87 3e b6 8f 36 be
       -0.4982563 0.2576479 0.26431742 -0.17828259
000170 4e 1c e7 be 6c 9a 57 be 84 92 c4 be f5 a3 c6 3e
       -0.45138782 -0.21055001 -0.38393033 0.38796964
000180 25 6e 11 bb 09 20 20 be de 83 c0 be 42 c5 63 3e
       -0.0022190895 -0.1563722 -0.37600607 0.22243217
000190 cc 05 19 3d 45 21 d3 bd 96 42 31 be 36 97 14 3e
       0.037359044 -0.1030908 -0.17310557 0.14510807
0001a0 46 85 ab be 7b 7d 27 3e f5 52 ac bf 2d ae e9 bd
       -0.33500117 0.16356461 -1.3462816 -0.114101745
0001b0 5c 69 19 3d 67 e2 7f be 38 f0 2e 3f 62 ab b5 3e
       0.037453994 -0.2498871 0.68335295 0.35482317
0001c0 9e cd c9 3e 2a c8 27 bc 53 9d 7d 3e 8d 50 09 3e
       0.39414686 -0.010240594 0.24767046 0.13409634
0001d0 6f d0 6e bf a4 d3 8a be 73 4e e3 3e 92 8a 1a 3f
       -0.93286794 -0.27114594 0.4439579 0.6036769
0001e0 52 35 0f 3e 04 10 13 3d 95 dd 7a 3e 48 b4 2c 3e
       0.13985184 0.035903946 0.2449859 0.16865647
0001f0 35 b2 75 be e6 70 9d bc e2 a2 cf be 1c 0b a5 be
       -0.23993762 -0.019218873 -0.40553957 -0.32235038
000200 e3 0d fe bd 93 a7 9d bd d4 d8 a0 be 72 5b 1e be
       -0.124049924 -0.07697978 -0.31415427 -0.15464571
000210 b3 1f dc bd c7 35 63 be d2 48 3a 3e 2d 34 0a 3e
       -0.10748234 -0.22188483 0.18191841 0.13496466
000220 3b 50 18 3e e8 78 eb 3b bc 31 80 be 91 e3 29 be
       0.14874355 0.007186044 -0.25037944 -0.16590716
000230 a8 97 9e bd 9a 64 26 3e 98 68 97 be 80 0d 12 be
       -0.0774377 0.16249314 -0.29571986 -0.14262962
000240 d4 f5 7d be 8c 1c ab 3e c8 60 b9 3d af 79 31 be
       -0.24800807 0.33420217 0.09051663 -0.17331575
000250 9a 4c a6 be 97 c4 7c be 23 e1 09 bd 57 95 3d be
       -0.32480317 -0.24684368 -0.033661973 -0.18514
000260 3e 6f 1e bd 4c 2b 3e be 1c d8 97 be 25 f0 4f be
       -0.038680308 -0.18571204 -0.29657066 -0.20306452
000270 9c 16 c6 be d5 74 24 bd ed 9d b9 be 08 4a da be
       -0.38689125 -0.040150482 -0.362533 -0.42634606
000280 2a fb 88 3d c7 19 dd bd 4d e0 33 be 90 aa 0e 3d
       0.06688531 -0.10795932 -0.17566033 0.03483063
000290 5f 43 35 be ac 67 13 3e 46 ad 6a be 4c 1b c9 bd
       -0.17701481 0.14395016 -0.22917661 -0.098196596
0002a0 22 f8 d9 be 52 61 15 bf 37 ea 97 3e 53 67 50 bf
       -0.42572123 -0.58351624 0.2967088 -0.8140766
0002b0 b2 3d 60 3f 39 78 74 bc 3b 36 40 3d 13 10 04 3f
       0.8759414 -0.014921241 0.04692672 0.5158703
0002c0 fd 4d 0d 3d b6 65 f6 bd 2f e7 1b 3e 7f 7b 07 3f
       0.034498204 -0.120311186 0.15224908 0.52922815
0002d0 0c c9 f8 3d 10 37 b4 3e 87 fd 95 be 66 a7 8e 3d
       0.12147722 0.3519826 -0.2929499 0.069655225
0002e0 ba 7a a8 be a3 73 84 3e a0 00 8c 3e 68 1c 59 bd
       -0.32906133 0.25869474 0.27344227 -0.053005606
0002f0 eb 29 71 be 6c 4b a2 bc c0 bb 4b 3e c0 c5 77 be
       -0.23551147 -0.019811355 0.1989584 -0.2419653
000300 f4 9d c8 be 32 7d 91 bd 0e d5 1c bf 34 5e 1a 3c
       -0.3918301 -0.07103957 -0.61262596 0.009421874
000310 bd 12 96 3c 8b 56 64 bc 51 3c 5d 3f 1d 44 91 3e
       0.018319482 -0.013936649 0.8642016 0.2837228
000320 fa 7b 25 be c7 ee c4 bb 2e 66 2f 3e fc 42 76 3e
       -0.16160575 -0.00600991 0.17128822 0.2404899
000330 0a a9 ea 3d 1f a5 a8 be 09 02 51 3d 71 c5 f3 3d
       0.11458023 -0.32938477 0.05102733 0.11902893
000340 0e 15 11 3e f2 8a a2 bd af 32 28 be 17 4b c9 3e
       0.14168188 -0.07936658 -0.16425584 0.39315102
000350 48 b0 24 3e f7 9b 41 3e 53 15 40 3e c0 ae a4 3e
       0.16082871 0.18907152 0.18758135 0.32164574
000360 c1 30 cb 3e a3 2b 3e 3f 88 84 d9 3e 74 88 03 3f
       0.39685634 0.74285334 0.42483926 0.51380086
000370 15 4a c8 3d 07 fc 3f be 96 43 24 3f a1 24 2e bf
       0.09779755 -0.18748485 0.6416563 -0.6802464
000380 fb 38 05 3e 85 54 60 bf ec b2 1b 3e b7 1f ef 3c
       0.13010018 -0.87628967 0.15204972 0.029189928
000390 b6 64 be bd e0 c9 da 3e 58 8c 24 be 98 a8 5b 3e
       -0.09296553 0.42732143 -0.16069162 0.21451032
0003a0 6c c5 a4 be 91 38 d8 bd 9d 49 e7 be 08 81 2a bf
       -0.3218187 -0.10557664 -0.4517335 -0.66603136
0003b0 78 e3 09 3a b1 75 c1 be 41 f7 3e be 5b 7d 8b be
       0.0005260031 -0.37785104 -0.18649007 -0.27244076
0003c0 b2 43 96 bf a7 59 8d be 14 79 e2 3e 32 78 76 3d
       -1.1739409 -0.27607462 0.44233 0.06017322
0003d0 22 17 42 3f 13 72 a5 be 2a 11 09 bd 49 2f 0b bf
       0.7581655 -0.32313594 -0.033463635 -0.54369026
0003e0 4d f6 5a 3e 3c 3c 9a 3d 20 be 2c 3f c2 9f 5c 3f
       0.21383019 0.0753102 0.6747761 0.8618127
0003f0 e2 40 85 3e a9 c8 48 be 08 fa 3d 3e db e6 25 3e
       0.26026064 -0.19607796 0.1855241 0.16201346

lstm_3/lstm_cell_3/bias1 f4 [240]
000000 82 17 97 be 55 aa d9 3c 46 83 42 be d2 7a 9d 3e
       -0.29510123 0.026570478 -0.1899539 0.30757767
000010 a4 4d b3 bd ec 01 13 bc bd 50 33 3d 50 a3 4d bc
       -0.08755043 -0.008972626 0.04377817 -0.012551144
000020 8d da 6a 3d fe 19 fa bd 73 30 29 3d 98 28 2d 3d
       0.057337333 -0.12211989 0.04130597 0.04227504
000030 3f 88 87 bd 58 a8 68 3e 00 ea ac be d7 3f d5 be
       -0.06617784 0.22720468 -0.33772278 -0.41650268
000040 ef f8 df bc 48 11 ef bc 8d 6d f9 bd b5 66 a8 3c
       -0.02734038 -0.029183045 -0.12179098 0.020556787
000050 24 0e 96 bd dd ef 9c bd 1c 2e 2a bd ef a5 ad bc
       -0.07326916 -0.07662938 -0.04154788 -0.021197287
000060 50 67 50 be 38 da 9a bd 6f 8e 35 be f5 95 3c bc
       -0.2035191 -0.07561153 -0.17730115 -0.011510362
000070 89 ac 4a 3c e6 39 d9 bd ec 71 94 bd 64 fb bc 3d
       0.012370237 -0.106067464 -0.072482914 0.092276365
000080 20 56 a2 bd dc 35 24 bd a9 62 17 3d 45 ed c3 bd
       -0.07926583 -0.040090427 0.036959324 -0.0956674
000090 9d a3 7f bd cb 1b 94 3d 49 8d 03 3d f4 71 86 be
       -0.062411893 0.072318636 0.032117162 -0.26258814
0000a0 77 28 bc 3d 0e ff 6d 3e 85 db 01 be 2e 5c b5 3d
       0.091874056 0.23241827 -0.12681396 0.088554725
0000b0 1c eb 4f 3e 8c 66 08 be 1f f4 2c 3c c6 d3 d5 bc
       0.20304531 -0.13320369 0.01055625 -0.026101958
0000c0 3f f9 b5 3c 7d 9c 1e be 97 7d f7 bd 79 f2 b7 3d
       0.022213576 -0.15489383 -0.12084501 0.08981795
0000d0 89 45 6c bd 0f 37 2f 3d 36 b8 dc bd 49 9a a8 3c
       -0.0576835 0.042777117 -0.10777323 0.020581381
0000e0 fd 37 9f bd b0 0e ea bb 84 8b 05 3e d1 e5 cc bc
       -0.07774351 -0.007142864 0.13041502 -0.025011929
0000f0 b3 63 45 3f 94 94 7f 3f e2 33 4e 3f a5 32 7b 3f
       0.77105254 0.9983609 0.80547917 0.9812415
000100 44 42 57 3f 35 68 75 3f be 96 98 3f 7d 47 81 3f
       0.8408549 0.9586213 1.1921003 1.0099941
000110 55 81 8e 3f 5b 28 6c 3f 0b 65 94 3f 03 d9 78 3f
       1.1133219 0.9224908 1.1593336 0.97206134
000120 50 ce 5e 3f ea 65 73 3f 41 2d 2c 3f f1 f8 46 3f
       0.8703356 0.95077384 0.6725655 0.77723604
000130 2c 02 8b 3f 22 95 6e 3f 36 70 6d 3f 31 d9 7f 3f
       1.0860038 0.9319631 0.92749345 0.9994078
000140 a0 23 49 3f ed 6c 6e 3f 2f 47 58 3f 76 38 59 3f
       0.78569984 0.9313496 0.8448362 0.8485178
000150 01 d2 30 3f d5 79 41 3f 98 88 67 3f 5a 6b 71 3f
       0.6907044 0.75576526 0.904428 0.9430443
000160 8b 6c 6b 3f a6 83 91 3f 01 70 52 3f 23 88 66 3f
       0.919625 1.1368301 0.82202154 0.9005148
000170 8f 7c 90 3f c5 7a 81 3f 81 fb 6b 3f 44 a7 48 3f
       1.1288012 1.0115591 0.9218064 0.7838023
000180 7e b1 63 3f 47 73 75 3f c6 94 a3 3f 02 21 58 3f
       0.88942707 0.95879024 1.2779777 0.84425366
000190 e9 d4 8b 3f 4f ec 91 3f af 43 4b 3f c9 fb 5b 3f
       1.092435 1.1400241 0.7940015 0.8593107
0001a0 4a 17 6e 3f 67 1f 80 3f f4 b3 8f 3f ec e0 91 3f
       0.93004286 1.0009583 1.1226792 1.1396766
0001b0 a0 41 60 3f bc f4 54 3f ef 7f 83 3f e9 c3 6c 3f
       0.87600136 0.83185935 1.0273417 0.92486435
0001c0 e0 ac 88 3f 03 ea 68 3f 66 25 81 3f 18 a5 62 3f
       1.0677757 0.90982074 1.0089538 0.88533163
0001d0 01 e3 8d 3f fe 62 5c 3f 3d 91 70 3f 8f ef 71 3f
       1.1084901 0.8608855 0.93971616 0.9450616
0001e0 5b 3f 66 bb 23 71 4c be 25 f3 ef bc e5 6b 20 bc
       -0.0035132978 -0.19965033 -0.029290745 -0.009791349
0001f0 89 6b bc bc 21 ea 3c 3c 16 b7 17 3e 59 1c 6d 3c
       -0.023000496 0.01153043 0.14815935 0.014472091
000200 4b 8c a1 bd eb 0a d4 3d b5 a5 1b bd be b5 b2 3d
       -0.07888087 0.10353645 -0.037999827 0.08726071
000210 88 53 59 3d 77 a1 ba 3a 9e 6b f6 bc 93 bf dd bc
       0.053058177 0.0014238794 -0.030080613 -0.027068889
000220 53 ea 27 3e f1 30 a8 3d b1 37 41 3d 71 4c 08 be
       0.16397981 0.0821246 0.047172252 -0.1331041
000230 3b 38 28 3d cd 77 7c bc 3d 5c af bd 02 2b 29 3d
       0.04106925 -0.015409422 -0.08562515 0.04130078
000240 b9 59 e1 3b fa c2 01 3d d9 98 21 3d 45 17 7c 3d
       0.006877151 0.031680085 0.039452408 0.06154563
000250 84 78 04 3d 20 63 72 bd 74 de a7 bc 14 35 74 bd
       0.032341495 -0.059176564 -0.020491816 -0.05962093
000260 5d 66 91 3d 50 5a e5 3d d9 c4 07 be 02 da 16 3d
       0.07099602 0.11198866 -0.13258685 0.036829002
000270 e8 45 14 bd ba a2 89 bb 34 62 6e bd 53 26 13 3d
       -0.03619948 -0.0042003067 -0.058199123 0.03592522
000280 08 07 ef bd 80 e5 dc 3d 4a 4c 7c bd 44 70 08 bb
       -0.11671263 0.10785961 -0.061596192 -0.0020818869
000290 fe 58 ec bd 1d b3 89 bd 5c fa d2 bd ed 24 8a 3b
       -0.115404114 -0.06723616 -0.103016585 0.0042158277
0002a0 d6 22 2a bd c6 b7 65 3d f9 6c 27 3c 9d 57 0c bd
       -0.04153713 0.056083463 0.010218852 -0.034263242
0002b0 3d 6f b9 3d fe 4e d0 bc 03 ac f5 bd ce ab 79 3b
       0.0905442 -0.025428291 -0.11995699 0.0038096788
0002c0 68 30 8b 3d b6 23 16 be 8b 0e ba bc 3e ba f6 39
       0.06796342 -0.1466206 -0.022712013 0.00047059538
0002d0 21 e9 8f be 56 1b 18 3d 73 90 37 be 4b 56 c3 3e
       -0.2810755 0.037135445 -0.17926197 0.38151774
0002e0 aa 00 df bd b4 35 fa 3c 9f 59 2b 3d 41 58 ce 3d
       -0.108887985 0.030543186 0.041833516 0.10075427
0002f0 13 2d 4b 3e f3 d1 e8 3a b5 e0 b4 3d 51 43 18 3d
       0.19841413 0.0017762765 0.08831922 0.037173573
000300 7d aa 08 be c3 9b 7c 3e 9c 82 a7 be 6d 56 b6 be
       -0.13346286 0.24668793 -0.32716835 -0.35612813
000310 a8 9b 8a bc 4d 86 16 bd c5 98 42 be b7 2c 58 3c
       -0.016919926 -0.036749173 -0.1900359 0.013194255
000320 e2 d6 4d 3d ac 95 a0 3b 2f cb 33 bd 1b 56 17 3c
       0.050253756 0.004900655 -0.043894943 0.009236838
000330 97 cd 3c be d7 e3 a2 bd 27 fa 06 be f3 b6 12 3e
       -0.18437801 -0.07953613 -0.13181363 0.14327602
000340 6a 8b 86 3d 47 e8 e4 3c d0 09 3f be 80 cf 26 3e
       0.0656956 0.02794279 -0.18656087 0.16290092
000350 47 f5 5a 3e 95 bb 66 bd 3e 29 eb 3c 71 86 d4 bd
       0.21382628 -0.056331236 0.02870619 -0.10377205
000360 7e b5 7c 3d ce ac 02 3e b0 ca 9f 3c 50 e7 8c be
       0.061696522 0.12761232 0.019505829 -0.27520227
000370 82 a5 af 3d 8b 6a 83 3e 11 b6 cf bd 91 6f 39 3e
       0.0857649 0.25667223 -0.10142148 0.18108965
000380 17 d2 59 3e 72 9c c2 bd eb e2 8a 3d fc 3f b5 3d
       0.21271549 -0.09502496 0.067815624 0.08850095
000390 7d 46 12 3c 52 0c 0f be 3c 9d 9c 3e 79 21 04 3e
       0.0089279385 -0.13969544 0.3058871 0.12903394
0003a0 55 e6 06 bd 93 97 b0 3d fa 5e d9 bd bd c0 31 3c
       -0.032934505 0.086226605 -0.106138185 0.010849175
0003b0 79 8e 2e 3c ce df 2e 3d 85 ef f0 3d 60 2a 22 3c
       0.010654085 0.042693906 0.11764435 0.009897798

while/MatMul_1 f4 [240, 60]
000000 25 ea 2f bd c3 f3 30 3e a2 91 b1 bd 97 f8 74 be
       -0.042947907 0.17280488 -0.086703554 -0.23922954
000010 b0 5a 15 3e 50 88 14 3d f5 aa 0a be 23 e4 1e bb
       0.14585376 0.03626281 -0.13541777 -0.0024244867
000020 c9 e3 a6 3c de 1f 1e be 26 53 89 3e 12 77 6b be
       0.020372288 -0.15441844 0.2682125 -0.2299464
000030 53 0f b0 3d f4 9b 87 bc 34 5d ee 3d 5c e7 09 3e
       0.08596673 -0.016553856 0.11638871 0.13467163
000040 c2 1e 95 bd bc aa 13 bc 7a 0c 2f 3e 07 05 dd 3d
       -0.07281257 -0.009012874 0.17094603 0.107919745
000050 72 12 0c 3e 06 20 36 bd b8 53 8e bb 04 14 57 be
       0.13678911 -0.044464134 -0.004343476 -0.21003729
000060 fc f0 28 be e5 e3 58 3e 31 bd 3e 3e b3 f9 b6 3d
       -0.16498178 0.21180685 0.18626858 0.08934345
000070 88 90 74 bd 1d e4 3a 3e 90 5a ae be bd a0 55 3e
       -0.05970815 0.18251081 -0.3405347 0.20862098
000080 85 16 3a 3c c0 d8 9a bd 0d 6d f2 bc fa b3 79 be
       0.011357908 -0.07560873 -0.029593015 -0.24385062
000090 61 a4 4e be 0b 82 22 bd 03 20 b2 3d ed 0e 65 be
       -0.20179893 -0.0396748 0.08697512 -0.22368975
0000a0 fb 7d 0a 3e a5 9c 08 be 0f 10 c3 be 82 1b 60 3d
       0.1352462 -0.13341005 -0.3809819 0.054713733
0000b0 4d 7a 24 be bc ed 81 3d 6f ac 88 3e c1 5b 29 bd
       -0.16062279 0.06344172 0.26694056 -0.04134727
0000c0 b7 02 1e 3e 60 33 c6 3e 4f 4f 77 be e9 f2 e0 bb
       0.15430723 0.3871107 -0.24151348 -0.0068648946
0000d0 ee a6 4d 3e a8 da 0e be e4 07 81 3e 76 3a 25 be
       0.2008321 -0.13950598 0.25201333 -0.16135582
0000e0 ee dd 3c bd 20 ac 25 3e 95 9c e8 bd eb c2 17 3e
       -0.046110086 0.16178942 -0.11357991 0.14820449
0000f0 d7 68 f2 bc 9c 0e 12 be 20 c7 c4 bd 86 8f 8b bd
       -0.029591007 -0.14263386 -0.096082926 -0.06814484
000100 cc 12 28 bc 3c f0 3d be 5d 49 81 3c 00 ca 9c bd
       -0.010258388 -0.18548673 0.015782053 -0.07655716
000110 88 63 72 be 6f 9e 4d 3d b2 37 48 be be af 74 bd
       -0.2367078 0.050199922 -0.19552496 -0.059737913
000120 7f 08 e5 bd d6 c0 00 3e a4 20 dd 3d 39 73 a3 bc
       -0.11183261 0.12573561 0.10797241 -0.019952403
000130 5c 24 97 bd 0f 10 ef bd fa f8 78 bd 96 80 fa bd
       -0.07379982 -0.11672985 -0.060784318 -0.12231557
000140 c4 4a ca 3d 31 2f af bd 6b 0a e6 3d 0c ff eb bd
       0.09877542 -0.08553923 0.11232456 -0.11523256
000150 e8 f8 d2 3b a0 3d 7c 3d 9a 7f 6b 3e f2 09 c1 3d
       0.0064383633 0.061582208 0.22997895 0.09425725
000160 51 5e 24 3e 3f 5e 41 be 3e a8 8c bd a5 87 1a 3e
       0.16051604 -0.18883608 -0.06868027 0.15090807
000170 0e 01 5e be 18 46 0e bc 65 11 6e 3e 61 a3 a6 bd
       -0.2168009 -0.008683704 0.23248823 -0.08136631
000180 e2 cc 32 be 25 e9 2e be 3e e8 b4 bd 55 12 39 be
       -0.17460969 -0.17081125 -0.08833359 -0.180734
000190 aa fa 01 be e9 80 35 3e 82 0b 47 be e6 7d 26 3e
       -0.12693277 0.17724957 -0.19437984 0.16258964
0001a0 a1 82 bb bd 29 79 1f bc d1 0a f9 bc d9 10 99 3e
       -0.09155775 -0.009733477 -0.030400665 0.29895666
0001b0 0a b6 de 3d 9e 8d 9c 3c 12 15 42 3e b3 15 04 3e
       0.10874565 0.019110497 0.1895335 0.12898903
0001c0 22 2a a2 3d 37 ff dc 3c e7 59 60 be 19 64 81 be
       0.079181924 0.026977165 -0.21909295 -0.2527168
0001d0 68 52 36 3c a3 a5 02 3d 90 06 96 be df 75 c1 bb
       0.011128046 0.031896245 -0.29301882 -0.005903944
0001e0 4e 10 e0 bd 92 a1 d1 bb c8 cd 12 be 28 8b 8e be
       -0.1094061 -0.0063974345 -0.14336312 -0.27840543
0001f0 b7 a7 76 3e 5e 3c 25 3e f7 aa 0a be 57 85 8a be
       0.24087416 0.1613631 -0.1354178 -0.27054855
000200 89 61 bc 3e 0c 4b 6d bd a7 1f 5d 3e 22 3b e7 3c
       0.36793163 -0.0579329 0.21594106 0.028226439
000210 d3 cc c6 3e d7 30 82 be 42 14 32 be b8 f6 59 bd
       0.38828143 -0.25427887 -0.1739054 -0.053213805
000220 9e 76 55 be 45 c5 6d 3e 0b 52 13 be b4 92 f1 3d
       -0.2084603 0.23219784 -0.14386766 0.117955595
000230 7a 50 11 3e 09 d3 8e 3e 81 b2 1b 3c 74 77 4a 3e
       0.14190856 0.27895382 0.009503008 0.1977213
000240 5d 13 40 be 1e c0 a5 3e 3a da 9a 3e 71 fa c3 bb
       -0.18757387 0.32373136 0.3024462 -0.0059807827
000250 7a 7f e1 3c 26 13 6d 3e 84 44 20 be 9a 48 0c bd
       0.027526606 0.23151836 -0.15651137 -0.034248926
000260 d2 c7 b5 3d 45 1c 13 3d 48 18 53 be 80 f4 2b be
       0.08876003 0.03591563 -0.20614731 -0.16792488
000270 8f 15 21 be 87 41 a2 3e 6a 71 82 3e 49 81 e3 be
       -0.1573088 0.31690618 0.25477153 -0.44434574
000280 1c 9c c3 3e cb 9d d7 bd 33 85 ee 3b 70 7b 37 be
       0.3820504 -0.105281435 0.007279062 -0.17918181
000290 ca c6 a8 bd db 5f 24 3d 94 b0 7c 3e 0c b1 9d bd
       -0.08241041 0.040130477 0.24676734 -0.07699785
0002a0 c4 86 90 3e ce 59 6e 3e 9b 05 ab bd a1 6a 82 be
       0.28227818 0.23276445 -0.083506785 -0.25471976
0002b0 3f e4 09 3e b7 ba 3a 3e 64 dd 67 3e da 49 44 be
       0.13465975 0.18235289 0.22643048 -0.19168797
0002c0 ea d7 42 be 8b d4 eb 3e ee ea a9 bd b7 26 88 3d
       -0.19027677 0.46060595 -0.082967624 0.06648009
0002d0 25 c8 7c bd aa a4 e7 bd 3d c4 97 3d 43 f6 1c bd
       -0.06171431 -0.11310704 0.07410476 -0.03832079
0002e0 65 e4 87 be 2d 1b 9a bd 16 f0 75 3d 5b 69 7f 3d
       -0.2654144 -0.075247146 0.060043417 0.062356334
0002f0 b2 5d 50 be 20 b3 1d 3e 32 7b 8f be 40 4f f5 3e
       -0.20348242 0.15400362 -0.28023678 0.47912025
000300 54 ca 4c bd d0 e8 d5 3b 41 a3 f3 3c 3f 0b 05 bd
       -0.049997643 0.0065279976 0.029740931 -0.03248143
000310 f1 4b 4c 3e 55 eb 44 3d 21 ec 3a 3e 72 6f dc be
       0.19950844 0.048075993 0.18254139 -0.43053776
000320 4a dc 4a 3e cf cb 92 be 26 a2 02 be 91 0d 8b be
       0.19810596 -0.2867112 -0.12757167 -0.27158788
000330 c9 6c aa 3e b9 ec 4b be 42 15 73 3e 63 d5 9a 3e
       0.3328612 -0.19914521 0.23738578 0.30240926
000340 86 2d 69 be d2 98 9c be 30 aa 40 3b 93 28 29 bf
       -0.22771272 -0.30585343 0.0029398315 -0.66077536
000350 f7 bb 4b be 5a 0f 0f bb f2 5f ec bd fd ee fa 3c
       -0.19895922 -0.0021829219 -0.115417376 0.030631537
000360 a1 5f 4f be dc d2 56 be 75 7a 53 bc f6 d8 72 bd
       -0.20251323 -0.20978874 -0.012907614 -0.05928894
000370 02 62 90 be 42 1f 8b 3e 05 d8 e7 bd 94 8f a8 3a
       -0.28199774 0.27172285 -0.11320499 0.0012860172
000380 4a b0 21 3e d9 fe 29 be 14 7c 78 be b7 5a 73 3e
       0.15789905 -0.16601123 -0.24266082 0.23765074
000390 73 02 54 3d 44 80 34 3d 5b a8 36 bd d8 1a 64 bc
       0.05176015 0.044067636 -0.04459415 -0.013922416
0003a0 23 94 19 3e c2 d2 25 3d 0c ef c0 be 9f 95 0e 3e
       0.14997916 0.040484197 -0.37682378 0.13924263
0003b0 23 6a 69 3e d6 19 b8 3b 14 4c 05 3c 5b 18 e5 3c
       0.22794394 0.0056183143 0.008135814 0.027965715
0003c0 b8 c5 16 3d ab 42 78 3e 70 cc e9 3d a9 11 47 3c
       0.036809653 0.24244182 0.114159465 0.012150207
0003d0 22 51 e8 3c 49 4d e0 bd 69 87 a0 bd df 1f 7f be
       0.028359 -0.10952241 -0.078383274 -0.24914502
0003e0 a2 d0 d6 3d 7f af 8b be 63 1f 00 bd 71 7e 2c be
       0.10489012 -0.2728233 -0.031279933 -0.16845109
0003f0 5a d5 b5 be 30 5b 87 3d 62 12 aa 3c ce f4 cc 3c
       -0.35514337 0.066091895 0.020760719 0.025019076
