app/src/main/ml/RNN-WISDM_ar_ns.tflite (tflite, 371560 bytes, 15 tensors)

lstm_9/lstm_cell_9/bias f4 [240]
-0.026264662 -0.00079636317 -0.0001811151 -0.029917547 0.009279397 -0.0030890724 -0.022891326 0.031314544
0.05019442 -0.02404738 0.01596947 -0.033019993 -0.011276828 0.031032639 -0.008578076 0.032991868
0.0006137834 -0.05331808 0.026602948 -0.064352036 0.006524704 -0.011659885 0.028157135 0.07823335
-0.06044456 -0.0131786 0.0119341705 0.20276964 0.086348236 -0.015864363 -0.008420199 0.018758181
-0.013293266 -0.0058208746 -0.019242393 -0.010561977 -0.023225745 0.008341379 0.12986635 -0.0457997
-0.017193865 -0.0018020858 0.034976456 -0.0059039397 0.0600394 -0.08703115 -0.004671103 -0.08528532
-0.032607645 0.03941788 0.14296503 0.008031568 0.028166756 0.049968757 0.04270423 0.016648076
-0.0064022574 -0.02654413 0.0120417485 0.008520892 1.0507959 1.0126107 1.0884756 0.98666084
0.97210926 1.0208333 0.964543 1.0530819 1.0204442 1.0875586 1.0957949 1.0288754
1.0148437 0.99530685 1.0112355 0.97236335 1.0349791 1.0219314 1.0155432 1.0587136
1.0069789 0.9834576 1.0602609 0.95130014 0.9745327 1.0729063 1.0551704 1.0122066
1.0289898 1.01508 1.0183654 1.0603209 1.0648799 0.9852003 1.0195237 0.9964992
1.0181745 0.9794425 1.0378721 1.0116396 1.0311824 1.0112878 1.0474604 1.0243562
1.0711302 1.0037596 0.993573 1.0544249 0.93290895 1.0097343 1.111545 0.99307907
1.019306 1.0727823 1.0430464 0.9698335 1.0147848 0.9841039 0.9680555 1.1803561
0.024687635 -0.013313864 -0.012656903 -0.0027165664 -0.041134488 -0.016865727 -0.0071414853 0.017700557
-0.007928158 -0.009160993 -0.024297427 -0.036982894 -0.045552853 -0.04577077 -0.0077388 0.06968703
0.037875235 -0.016301204 0.010323881 -0.0056191743 -0.004076915 0.04392021 -0.07017264 -0.10018535
-6.4193475e-05 0.060087647 -0.019728085 -0.036823165 -0.015994104 0.0068006343 -0.0008037989 -0.0019994183
0.003064925 -0.03023114 0.008687291 0.02920619 0.026783038 0.020147415 -0.08415641 0.0038008175
-0.022696657 0.05200916 -0.0011490058 -0.035761766 -0.0055783866 0.016276287 -0.048074666 0.00827713
-0.03091248 0.027335113 -0.027986296 0.00913547 -0.02430509 -0.056238208 -0.0025598283 -0.023859188
-0.012236365 0.028382959 0.041050553 -0.06423043 0.06493613 -0.047063705 0.043827232 0.004517367
0.019885665 0.038309347 -0.00047599082 0.04587395 0.03349611 0.007064543 -0.015908884 0.091804035
0.032609314 0.026689008 0.041930538 -0.011507109 0.0401325 0.043239694 0.045213792 0.084961034
-0.0015006659 0.011444393 0.09588698 0.14951187 0.018861381 0.0835207 0.091238014 0.20011538
0.16392112 0.043683156 0.02585387 0.041585017 0.13380632 -0.05593525 0.04994438 -0.0018431991
-0.03605517 0.062211763 0.08115201 0.01805541 0.055346828 0.053670414 0.055631652 0.04602564
0.07796767 -0.0179505 0.023628578 -0.0059120907 -0.010163708 0.039001215 -0.00043192593 -0.018463613
0.06888747 0.101245865 0.012391818 0.055183973 0.11651143 0.005995426 0.0434438 0.038451023
00000000: fd28 d7bc 07c3 50ba b7e9 3db9 a515 f5bc
00000010: 9d08 183c 0972 4abb 9786 bbbc ae43 003d
00000020: aa98 4d3d 03ff c4bc 68d2 823c f93f 07bd
00000030: 72c2 38bc 2938 fe3c 0f8b 0cbc 7b22 073d
00000040: 4fe6 203a 0f64 5abd 6dee d93c 00cb 83bd
00000050: 2fcd d53b 1a09 3fbc cba9 e63c ce38 a03d
00000060: b794 77bd 0eeb 57bc 8a87 433c d8a2 4f3e
00000070: 58d7 b03d fbf5 81bc e0f4 09bc c2aa 993c
00000080: 00cc 59bc 09bd bebb 39a2 9dbc 240c 2dbc
00000090: eb43 bebc 48aa 083c affb 043e 7798 3bbd
000000a0: 26da 8cbc f733 ecba 7943 0f3d d675 c1bb
000000b0: e0eb 753d 633d b2bd 0d10 99bb 12aa aebd
000000c0: 988f 05bd a574 213d 6d65 123e d696 033c
000000d0: f8bd e63c 0aac 4c3d a1ea 2e3d 8c61 883c
000000e0: 07ca d1bb 1373 d9bc c14a 453c 369b 0b3c
000000f0: 7b80 863f 3a9d 813f 2b53 8b3f ce95 7c3f
00000100: 27dc 783f aaaa 823f 4aec 763f 63cb 863f
00000110: ea9d 823f 1f35 8b3f 0243 8c3f 30b2 833f
00000120: 66e6 813f 6ecc 7e3f 2a70 813f ceec 783f
00000130: 327a 843f a6ce 823f 52fd 813f ed83 873f
00000140: afe4 803f e1c3 7b3f a1b6 873f 6888 733f
00000150: fa7a 793f fe54 893f d30f 873f fc8f 813f
00000160: f0b5 833f 24ee 813f cc59 823f 98b8 873f
00000170: fc4d 883f 1636 7c3f c17f 823f 921a 7f3f
00000180: 8b53 823f bebc 7a3f fed8 843f 687d 813f
00000190: c9fd 833f e171 813f 2f13 863f 1b1e 833f
000001a0: cb1a 893f 327b 803f cd5a 7e3f 65f7 863f
000001b0: 1fd3 6e3f f93e 813f 1b47 8e3f 6e3a 7e3f
000001c0: 9e78 823f ee50 893f 8b82 853f 0247 783f
000001d0: 78e4 813f 3cee 7b3f 7cd2 773f e915 973f
000001e0: b93d ca3c 6522 5abc e65e 4fbc 6c08 32bb
000001f0: a37c 28bd fe29 8abc 1f03 eabb c200 913c
00000200: 1be5 01bc fd17 16bc 660b c7bc 607b 17bd
00000210: a195 3abd 227a 3bbd c295 fdbb 13b8 8e3d
00000220: 1023 1b3d 1a8a 85bc 7f25 293c 0d21 b8bb
00000230: a497 85bb aee5 333d acb6 8fbd fa2d cdbd
00000240: 9c9f 86b8 771e 763d cb9c a1bc e3d3 16bd
00000250: 1106 83bc dbd7 de3b 08b6 52ba ac08 03bb
00000260: e9dc 483b 4ca7 f7bc 2455 0e3c d241 ef3c
00000270: 1a68 db3c 310c a53c 325a acbd 2317 793b
00000280: 57ee b9bc 8f07 553d 3d9a 96ba ee7a 12bd
00000290: e6ca b6bb d955 853c f1e9 44bd cd9c 073c
000002a0: 2b3c fdbc e3ed df3c 8443 e5bc f0ac 153c
000002b0: 781b c7bc 095a 66bd cbc2 27bb 5874 c3bc
000002c0: 097b 48bc 6183 e83c a024 283d 3e8b 83bd
000002d0: 3cfd 843d dfc5 40bd 2f84 333d 6c06 943b
000002e0: 43e7 a23c 43ea 1c3d 688e f9b9 53e6 3b3d
000002f0: 3833 093d af7d e73b 5953 82bc c103 bc3d
00000300: 5891 053d e8a2 da3c 5bbf 2b3d 5088 3cbc
00000310: fa61 243d 1b1c 313d 1932 393d 0d00 ae3d
00000320: feb1 c4ba 4381 3b3c 6560 c43d a419 193e
00000330: 2f83 9a3c e70c ab3d ffda ba3d 0ceb 4c3e
00000340: f0da 273e 1ced 323d 7fcb d33c 0d55 2a3d
00000350: 8604 093e 5c1c 65bd 7a92 4c3d 8097 f1ba
00000360: 96ae 13bd c3d1 7e3d 0633 a63d f0e8 933c
00000370: 5bb3 623d 82d5 5b3d 04de 633d 6285 3c3d
00000380: 84ad 9f3d ed0c 93bc b890 c13c 36ba c1bb
00000390: ae85 26bc bdbf 1f3d 1e74 e2b9 0141 97bc
000003a0: e014 8d3d fe59 cf3d 0d07 4b3c 9708 623d
000003b0: 8b9d ee3d 4775 c43b 20f2 313d d27e 1d3d

lstm_11/lstm_cell_11/bias f4 [240]
0.0004868649 0.012883205 -0.049426988 0.04347322 -0.062241152 -0.01661693 0.028700547 -0.05454501
-0.03576047 -0.08155569 0.09610483 -0.038206257 0.06784013 -0.03571939 -0.0021519056 -0.06560887
-0.00867814 -0.04931641 0.032924656 -0.04511793 0.01845539 0.0043225423 -0.045160696 -0.016828837
-0.009997511 -0.02561685 -0.01210111 -0.0012522847 0.009949879 -0.07336139 -0.055304147 0.014451559
-0.0052090115 0.018749988 -0.058074843 0.013401513 -0.0030491408 0.041008316 -0.031189555 -0.0847849
-0.07160678 -0.1327983 0.015418366 -0.036251433 -0.010637362 -0.044237703 -0.04949314 -0.07395598
-0.010176894 0.022702586 0.024023818 -0.042520076 0.022514286 -0.0217393 -0.08255481 0.015847806
-0.02252819 0.0020532543 -0.0006208914 -0.047975548 1.1038792 1.0099477 0.96957546 1.1422542
0.9742107 1.0871404 1.108999 0.9349157 1.0088146 1.1728013 1.2243314 1.0780197
1.1130577 1.0305374 1.2196231 1.168857 1.0130234 1.0421921 1.076697 1.0868582
1.0342239 1.1815561 1.0274385 1.0628177 1.095977 1.1170788 0.9773256 1.0332569
1.0715028 1.0111545 1.0785553 1.0079854 0.9920791 1.0757998 0.9770267 1.1498548
1.0467975 1.2483577 1.0628853 1.1030824 1.1656837 1.1190372 1.0482639 1.0400989
1.0680481 1.0959908 0.9945432 1.014735 1.1921301 1.0917165 1.059594 0.9939722
1.1371584 1.08739 1.198826 1.0311234 1.0193151 1.0659596 1.0078424 0.9751709
0.0011588777 -0.04094782 -0.024483956 -0.102817684 -0.0437216 -0.025681822 0.04985165 -0.02234557
0.0508311 0.027948199 0.06711748 0.035078175 -0.05919041 -0.034484133 0.05330346 -0.049239215
0.0066717532 -0.058787476 -0.052171838 0.0022690834 -0.029983457 0.045065314 -0.039267953 0.0027437664
0.013136004 -0.006805259 0.018096808 -0.011803924 -0.04081606 -0.024655003 0.05410025 0.06192216
0.037086904 -0.03468955 -0.0037796036 -0.024926208 0.057217434 0.059407443 -0.038071897 0.040855754
0.025362445 0.015691632 0.004603211 -0.024573574 0.039058737 -0.009572388 -0.057141766 0.01731561
0.053611655 -0.029354738 -0.04639051 -0.03166377 0.08066453 -0.0046588248 0.025553519 0.006508942
0.003951987 -0.0045709875 0.027675292 0.04884455 -0.029021826 0.0077529247 -0.04428781 0.0030094848
0.016328696 0.07778294 0.005702174 -0.041444976 -0.040147286 0.020376477 0.1455726 0.010782993
0.0022567443 0.0031330707 0.075405285 0.041923847 -0.0031644506 0.023829207 0.017697304 -0.0012971647
0.03610172 0.069969304 0.004402211 0.02904985 0.07539622 0.05318191 -0.042914756 0.05079664
0.029829655 0.031641904 0.03348725 -0.024345232 -0.0068273796 -0.016398408 -0.078593664 0.03413458
0.011459207 0.13543607 0.00060071703 -0.031842727 0.0529136 0.011578221 0.06530831 -0.002098157
0.057514694 -0.041937497 0.0014158236 -0.041274913 -0.007027948 0.1323561 0.02552454 -0.030073112
0.00080575456 0.054829046 0.12385446 0.035882212 0.06336446 0.04598704 -0.00822064 -0.0064197644
00000000: e741 ff39 1414 533c f473 4abd fa10 323d
00000010: 94f0 7ebd 3a20 88bc 691d eb3c 976a 5fbd
00000020: 9279 12bd ab06 a7bd 9cd2 c43d 2a7e 1cbd
00000030: c4ef 8a3d 7f4e 12bd fc06 0dbb f15d 86bd
00000040: c22e 0ebc 0100 4abd 01dc 063d 94cd 38bd
00000050: c22f 973c 1da4 8d3b 6cfa 38bd a1dc 89bc
00000060: 9acc 23bc 6eda d1bc bc43 46bc b423 a4ba
00000070: d104 233c 7f3e 96bd 9a86 62bd 3bc6 6c3c
00000080: 5bb0 aabb 9399 993c e3df 6dbd 0592 5b3c
00000090: 18d4 47bb 56f8 273d 3d81 ffbc b5a3 adbd
000000a0: 93a6 92bd 47fc 07be 509d 7c3c 627c 14bd
000000b0: 5448 2ebc 9832 35bd 52b9 4abd 3c76 97bd
000000c0: fdbc 26bc c6fa b93c 99cd c43c 8829 2ebd
000000d0: e16f b83c 9e16 b2bc 7f12 a9bd 42d3 813c
000000e0: 0a8d b8bc e48f 063b 51c3 22ba 0282 44bd
000000f0: ea4b 8d3f f745 813f 1936 783f 6335 923f
00000100: df65 793f 6b27 8b3f aef3 8d3f a356 6f3f
00000110: d620 813f 5a1e 963f e4b6 9c3f 8dfc 893f
00000120: ad78 8e3f a6e8 833f 9c1c 9c3f 1b9d 953f
00000130: c0aa 813f 8d66 853f 35d1 893f 2b1e 8b3f
00000140: 7361 843f 3b3d 973f 1b83 833f 690a 883f
00000150: f948 8c3f 70fc 8e3f 0332 7a3f c341 843f
00000160: 0127 893f 836d 813f 1a0e 8a3f aa05 813f
00000170: e5f8 7d3f cfb3 893f 6c1e 7a3f 712e 933f
00000180: 76fd 853f 2fca 9f3f a00c 883f ce31 8d3f
00000190: 2035 953f 9c3c 8f3f 832d 863f f621 853f
000001a0: cdb5 883f 6d49 8c3f 629a 7e3f d6e2 813f
000001b0: b897 983f 5ebd 8b3f c7a0 873f f674 7e3f
000001c0: 688e 913f 982f 8b3f 2173 993f dafb 833f
000001d0: eb78 823f 5d71 883f fb00 813f cda4 793f
000001e0: 7ce5 973a e7b8 27bd 9492 c8bc 1492 d2bd
000001f0: 6c15 33bd af62 d2bc 3e31 4c3d 0f0e b7bc
00000200: 4634 503d 9ff3 e43c e474 893d 22ae 0f3d
00000210: a571 72bd 3c3f 0dbd bb54 5a3d 0faf 49bd
00000220: b99e da3b 23cb 70bd 23b2 55bd e7b4 143b
00000230: de9f f5bc 6896 383d 6fd7 20bd c3d0 333b
00000240: 6538 573c a6fe debb c23f 943c 3f65 41bc
00000250: be2e 27bd 4af9 c9bc 3998 5d3d 17a2 7d3d
00000260: 70e8 173d a116 0ebd 3ab3 77bb 0c32 ccbc
00000270: d45c 6a3d 3855 733d 47f1 1bbd 5d58 273d
00000280: e7c4 cf3c bd8b 803c 88d6 963b 854e c9bc
00000290: 0efc 1f3d 81d5 1cbc 7c0d 6abd 77d9 8d3c
000002a0: e597 5b3d 5979 f0bc fa03 3ebd dfb1 01bd
000002b0: 7233 a53d 0ea9 98bb 9d55 d13c f748 d53b
000002c0: ab7f 813b 39c8 95bb 4bb7 e23c 3911 483d
000002d0: 2ebf edbc 3f0c fe3b 2267 35bd c73a 453b
000002e0: c2c3 853c a94c 9f3d 4dd9 ba3b 35c2 29bd
000002f0: 7b71 24bd 92ec a63c fc10 153e 27ab 303c
00000300: e3e5 133b 3454 4d3b 166e 9a3d 57b8 2b3d
00000310: ac62 4fbb 7835 c33c f0f9 903c a005 aaba
00000320: 66df 133d 114c 8f3d 6c40 903b f3f9 ed3c
00000330: 5569 9a3d 46d5 593d 62c7 2fbd 2310 503d
00000340: 525d f43c f19a 013d ed29 093d a76f c7bc
00000350: 36b8 dfbb f455 86bc b7f5 a0bd b4d0 0b3d
00000360: 66bf 3b3c c1af 0a3e 7079 1d3a 856d 02bd
00000370: eebb 583d 94b2 3d3c 5dc0 853d 3c81 09bb
00000380: 8794 6b3d a7c6 2bbd 2893 b93a e20f 29bd
00000390: b34a e6bb 5c88 073e d718 d13c e35b f6bc
000003a0: 4639 533a 6c94 603d 68a7 fd3d 3af9 123d
000003b0: 3ac5 813d e85c 3c3d ddaf 06bc e35c d2bb

lstm_10/lstm_cell_10/bias f4 [240]
-0.051978827 0.020264486 -0.016068904 0.046628807 0.034152523 0.025759725 0.05802774 0.018523047
-0.032311603 -0.07280734 -0.054969672 0.04958937 -0.028332748 -0.050048877 -0.02274929 -0.03911531
0.021432232 -0.039656773 -0.020996675 -0.023515236 -0.070261426 -0.026730996 0.013626908 0.04843735
-0.024085129 0.038961586 -0.02516996 -0.008626329 -0.011346921 -0.016709782 0.05904717 -0.030327315
0.0149494 0.002896905 0.06787742 -0.0015745824 -0.0048074014 0.038250193 -0.02538638 -0.01674571
-0.015469449 -0.059716284 -0.038420293 0.010186782 -0.039355736 -0.03649493 -0.05955826 -0.0060775992
0.06044809 -0.06455025 -0.061782543 -0.029717878 -0.011759571 0.03134863 -0.036739305 0.03902984
0.005809668 -0.0023235043 -0.026963262 -0.036240757 1.0017432 1.0209982 0.9960384 1.0797524
1.1489714 1.0374655 1.0971451 1.0206491 0.98509264 0.9721049 0.96703875 1.0887651
1.008326 0.9784665 1.0367888 0.9777204 1.0084171 0.9709419 0.98616195 1.0119463
1.1995326 0.9933114 1.0521194 1.0904274 0.9840333 1.1146379 1.0254619 1.0231657
1.0046941 0.9985349 1.0575753 1.0102717 1.1183497 1.042839 1.14055 1.051383
1.0338905 1.0557665 1.0512011 1.0049978 0.9846063 0.97479516 0.9855624 1.0013828
0.97093326 0.9765816 0.9930841 1.0627068 1.100112 1.0363883 0.968778 1.0722408
1.1208141 1.0723221 0.99640125 1.1001986 1.0459274 1.0131669 0.9887811 0.97665435
0.0034801634 -0.062066663 -0.008733257 0.048176844 0.017780002 -0.048378404 0.062093187 0.03121974
-0.0012944952 0.027425967 0.014360863 0.0102466 -0.0071312618 0.0036361637 0.0043810643 0.040385757
0.014457792 -0.034289517 -0.007527358 0.04058687 0.016931668 0.0073524443 -0.0050018127 0.031288758
0.035011422 -0.019434603 -0.07347243 -0.014890449 0.015769647 0.011262035 0.008093826 -0.018892674
-0.088941164 -0.012529586 0.0155803505 0.03351433 0.0052138544 -0.006711469 -0.057465326 0.00178018
-0.010865591 -0.005717424 0.066519685 0.042766843 -0.014053005 -0.008371505 0.036793746 -0.01389285
0.090564184 -0.046947416 0.000254596 -0.002617253 -0.012742638 -0.014384022 0.017661197 0.09817098
-0.064851455 -0.008360289 -0.018676057 -0.02749347 -0.031258076 0.0043194117 -0.0013899432 0.019820087
0.020184357 -0.02752666 0.06661235 -0.018951109 -0.018959185 0.0024595445 -0.060590446 0.031069601
0.033726335 -0.016420556 0.023470769 -0.03552465 -0.03274685 -0.053551447 -0.05699558 -0.02537188
0.022208896 -0.013216874 -0.015786072 0.025416652 -0.017111678 -0.008854006 -0.015443369 0.022126332
0.011058481 0.0115054995 0.03273668 0.00333655 0.05978341 0.100768544 0.022634936 0.009724227
-0.003145798 0.030523194 -0.025360819 -0.026215877 -0.0072478848 -0.030516446 0.00037987466 -0.0011684076
-0.012479544 -0.033376466 -0.053774547 -0.007878155 0.007989001 0.021568682 -0.049193762 0.004616202
0.024757275 0.022743713 -0.025849985 0.017390527 -0.016872106 -0.05379196 -0.007619164 -0.044084612
00000000: c0e7 54bd b501 a63c efa2 83bc d9fd 3e3d
00000010: 84e3 0b3d 0f06 d33c 7fae 6d3d a5bd 973c
00000020: 2c59 04bd 041c 95bd e127 61bd 391e 4b3d
00000030: 141a e8bc 0d00 4dbd b85c babc 6037 20bd
00000040: a692 af3c 246f 22bd 3801 acbc 06a3 c0bc
00000050: 39e5 8fbd f6fa dabc 6543 5f3c 3e66 463d
00000060: 2d4e c5bc 2f96 1f3d 3b31 cebc 7255 0dbc
00000070: 70e8 39bc f4e2 88bc 72db 713d fd70 f8bc
00000080: 54ee 743c 00da 3d3b 5103 8b3d 3862 ceba
00000090: 6887 9dbb 3cac 1c3d 19f7 cfbc 4d2e 89bc
000000a0: 9273 7dbc 1099 74bd 995e 1dbd 76e6 263c
000000b0: 7b33 21bd b57b 15bd 5df3 73bd 9926 c7bb
000000c0: 6b98 773d ec32 84bd b10f 7dbd e872 f3bc
000000d0: 37ab 40bc 6c67 003d f47b 16bd c1dd 1f3d
000000e0: 075f be3b ef45 18bb 0fe2 dcbc 3071 14bd
000000f0: 1f39 803f 12b0 823f 5ffc 7e3f 5435 8a3f
00000100: 7f11 933f abcb 843f 406f 8c3f a1a4 823f
00000110: 082f 7c3f dedb 783f da8f 773f a85c 8b3f
00000120: d410 813f c87c 7a3f 7fb5 843f e24b 7a3f
00000130: d013 813f a68f 783f 1c75 7c3f 7587 813f
00000140: 498a 993f a849 7e3f d9ab 863f 2093 8b3f
00000150: 9be9 7b3f 74ac 8e3f 5642 833f 18f7 823f
00000160: d199 803f fc9f 7f3f a15e 873f 9550 813f
00000170: 1526 8f3f c07b 853f 8bfd 913f b893 863f
00000180: 8656 843f 5b23 873f c28d 863f c5a3 803f
00000190: 290f 7c3f 2d8c 793f d14d 7c3f 502d 803f
000001a0: 158f 783f 4001 7a3f c23a 7e3f c706 883f
000001b0: 78d0 8c3f 5fa8 843f d601 783f 303f 893f
000001c0: d676 8f3f da41 893f 2714 7f3f 4fd3 8c3f
000001d0: f3e0 853f 74af 813f c220 7d3f 0506 7a3f
000001e0: 7413 643b 9d39 7ebd ef15 0fbc 1555 453d
000001f0: 5ea7 913c 6f28 46bd 6d55 7e3d 8ac0 ff3c
00000200: 0dac a9ba 6cac e03c d349 6b3c 5be1 273c
00000210: 5cad e9bb b44c 6e3b 088f 8f3b 896b 253d
00000220: 60e0 6c3c 2a73 0cbd 0ea8 f6bb 6b3e 263d
00000230: 48b4 8a3c c6ec f03b 3fe6 a3bb a428 003d
00000240: 2368 0f3d 5135 9fbc b778 96bd 12f7 73bc
00000250: 592f 813c 6684 383c f79b 043c cfc4 9abc
00000260: c926 b6bd e548 4dbc ba44 7f3c 5246 093d
00000270: fbd8 aa3b e2eb dbbb c360 6bbd ee54 e93a
00000280: 9705 32bc 3b59 bbbb 793b 883d 492c 2f3d
00000290: 933e 66bc a328 09bc 0ab5 163d d69e 63bc
000002a0: b779 b93d ef4b 40bd 4c7b 8539 3886 2bbb
000002b0: 7fc6 50bc f6aa 6bbc 37ae 903c de0d c93d
000002c0: d7d0 84bd 98f9 08bc 88fe 98bc fc39 e1bc
000002d0: 7808 00bd da89 8d3b c12e b6ba bc5d a23c
000002e0: aa59 a53c 977f e1bc 0e6c 883d 5b3f 9bbc
000002f0: 4b50 9bbc 4f30 213b b02d 78bd ad85 fe3c
00000300: a024 0a3d 6784 86bc c545 c03c 4c82 11bd
00000310: 9021 06bd c358 5bbd 3374 69bd b0d8 cfbc
00000320: 6eef b53c 968b 58bc cb51 81bc 9536 d03c
00000330: ca2d 8cbc 6510 11bc 2f06 7dbc 4842 b53c
00000340: a22e 353c 9081 3c3c e616 063d 05aa 5a3b
00000350: 73df 743d bd5f ce3d e76c b93c 5d52 1f3c
00000360: bc29 4ebb c70b fa3c 7ec1 cfbc aec2 d6bc
00000370: aa7f edbb a0fd f9bc ea29 c739 4125 99ba
00000380: 0077 4cbc c3b5 08bd b342 5cbd 6113 01bc
00000390: 4de4 023c ceb0 b03c 667f 49bd 8243 973b
000003a0: c5cf ca3c 0651 ba3c 59c3 d3bc 9476 8e3c
000003b0: 5f37 8abc f554 5cbd 2eaa f9bb 1192 34bd

dense_3/bias f4 [6]
0.023529423 -0.053138036 -0.15842359 -0.13704427 0.10036083 0.06608072
00000000: c7c0 c03c 45a7 59bd cb39 22be 5555 0cbe
00000010: fb89 cd3d 5455 873d

TensorArrayV2_11 f4 [200, 1, 60]
0.0 0.0 0.0 0.0 0.0 0.0 0.0 0.0
0.0 0.0 0.0 0.0 0.0 0.0 0.0 0.0
0.0 0.0 0.0 0.0 0.0 0.0 0.0 0.0
0.0 0.0 0.0 0.0 0.0 0.0 0.0 0.0
0.0 0.0 0.0 0.0 0.0 0.0 0.0 0.0
0.0 0.0 0.0 0.0 0.0 0.0 0.0 0.0
0.0 0.0 0.0 0.0 0.0 0.0 0.0 0.0
0.0 0.0 0.0 0.0 0.0 0.0 0.0 0.0
0.0 0.0 0.0 0.0 0.0 0.0 0.0 0.0
0.0 0.0 0.0 0.0 0.0 0.0 0.0 0.0
0.0 0.0 0.0 0.0 0.0 0.0 0.0 0.0
0.0 0.0 0.0 0.0 0.0 0.0 0.0 0.0
0.0 0.0 0.0 0.0 0.0 0.0 0.0 0.0
0.0 0.0 0.0 0.0 0.0 0.0 0.0 0.0
0.0 0.0 0.0 0.0 0.0 0.0 0.0 0.0
0.0 0.0 0.0 0.0 0.0 0.0 0.0 0.0
0.0 0.0 0.0 0.0 0.0 0.0 0.0 0.0
0.0 0.0 0.0 0.0 0.0 0.0 0.0 0.0
0.0 0.0 0.0 0.0 0.0 0.0 0.0 0.0
0.0 0.0 0.0 0.0 0.0 0.0 0.0 0.0
0.0 0.0 0.0 0.0 0.0 0.0 0.0 0.0
0.0 0.0 0.0 0.0 0.0 0.0 0.0 0.0
0.0 0.0 0.0 0.0 0.0 0.0 0.0 0.0
0.0 0.0 0.0 0.0 0.0 0.0 0.0 0.0
0.0 0.0 0.0 0.0 0.0 0.0 0.0 0.0
0.0 0.0 0.0 0.0 0.0 0.0 0.0 0.0
0.0 0.0 0.0 0.0 0.0 0.0 0.0 0.0
0.0 0.0 0.0 0.0 0.0 0.0 0.0 0.0
0.0 0.0 0.0 0.0 0.0 0.0 0.0 0.0
0.0 0.0 0.0 0.0 0.0 0.0 0.0 0.0
0.0 0.0 0.0 0.0 0.0 0.0 0.0 0.0
0.0 0.0 0.0 0.0 0.0 0.0 0.0 0.0
00000000: 0000 0000 0000 0000 0000 0000 0000 0000
00000010: 0000 0000 0000 0000 0000 0000 0000 0000
00000020: 0000 0000 0000 0000 0000 0000 0000 0000
00000030: 0000 0000 0000 0000 0000 0000 0000 0000
00000040: 0000 0000 0000 0000 0000 0000 0000 0000
00000050: 0000 0000 0000 0000 0000 0000 0000 0000
00000060: 0000 0000 0000 0000 0000 0000 0000 0000
00000070: 0000 0000 0000 0000 0000 0000 0000 0000
00000080: 0000 0000 0000 0000 0000 0000 0000 0000
00000090: 0000 0000 0000 0000 0000 0000 0000 0000
000000a0: 0000 0000 0000 0000 0000 0000 0000 0000
000000b0: 0000 0000 0000 0000 0000 0000 0000 0000
000000c0: 0000 0000 0000 0000 0000 0000 0000 0000
000000d0: 0000 0000 0000 0000 0000 0000 0000 0000
000000e0: 0000 0000 0000 0000 0000 0000 0000 0000
000000f0: 0000 0000 0000 0000 0000 0000 0000 0000
00000100: 0000 0000 0000 0000 0000 0000 0000 0000
00000110: 0000 0000 0000 0000 0000 0000 0000 0000
00000120: 0000 0000 0000 0000 0000 0000 0000 0000
00000130: 0000 0000 0000 0000 0000 0000 0000 0000
00000140: 0000 0000 0000 0000 0000 0000 0000 0000
00000150: 0000 0000 0000 0000 0000 0000 0000 0000
00000160: 0000 0000 0000 0000 0000 0000 0000 0000
00000170: 0000 0000 0000 0000 0000 0000 0000 0000
00000180: 0000 0000 0000 0000 0000 0000 0000 0000
00000190: 0000 0000 0000 0000 0000 0000 0000 0000
000001a0: 0000 0000 0000 0000 0000 0000 0000 0000
000001b0: 0000 0000 0000 0000 0000 0000 0000 0000
000001c0: 0000 0000 0000 0000 0000 0000 0000 0000
000001d0: 0000 0000 0000 0000 0000 0000 0000 0000
000001e0: 0000 0000 0000 0000 0000 0000 0000 0000
000001f0: 0000 0000 0000 0000 0000 0000 0000 0000
00000200: 0000 0000 0000 0000 0000 0000 0000 0000
00000210: 0000 0000 0000 0000 0000 0000 0000 0000
00000220: 0000 0000 0000 0000 0000 0000 0000 0000
00000230: 0000 0000 0000 0000 0000 0000 0000 0000
00000240: 0000 0000 0000 0000 0000 0000 0000 0000
00000250: 0000 0000 0000 0000 0000 0000 0000 0000
00000260: 0000 0000 0000 0000 0000 0000 0000 0000
00000270: 0000 0000 0000 0000 0000 0000 0000 0000
00000280: 0000 0000 0000 0000 0000 0000 0000 0000
00000290: 0000 0000 0000 0000 0000 0000 0000 0000
000002a0: 0000 0000 0000 0000 0000 0000 0000 0000
000002b0: 0000 0000 0000 0000 0000 0000 0000 0000
000002c0: 0000 0000 0000 0000 0000 0000 0000 0000
000002d0: 0000 0000 0000 0000 0000 0000 0000 0000
000002e0: 0000 0000 0000 0000 0000 0000 0000 0000
000002f0: 0000 0000 0000 0000 0000 0000 0000 0000
00000300: 0000 0000 0000 0000 0000 0000 0000 0000
00000310: 0000 0000 0000 0000 0000 0000 0000 0000
00000320: 0000 0000 0000 0000 0000 0000 0000 0000
00000330: 0000 0000 0000 0000 0000 0000 0000 0000
00000340: 0000 0000 0000 0000 0000 0000 0000 0000
00000350: 0000 0000 0000 0000 0000 0000 0000 0000
00000360: 0000 0000 0000 0000 0000 0000 0000 0000
00000370: 0000 0000 0000 0000 0000 0000 0000 0000
00000380: 0000 0000 0000 0000 0000 0000 0000 0000
00000390: 0000 0000 0000 0000 0000 0000 0000 0000
000003a0: 0000 0000 0000 0000 0000 0000 0000 0000
000003b0: 0000 0000 0000 0000 0000 0000 0000 0000
000003c0: 0000 0000 0000 0000 0000 0000 0000 0000
000003d0: 0000 0000 0000 0000 0000 0000 0000 0000
000003e0: 0000 0000 0000 0000 0000 0000 0000 0000
000003f0: 0000 0000 0000 0000 0000 0000 0000 0000

sequential_3/dense_3/MatMul f4 [6, 60]
0.15907043 -0.17579532 -0.06202249 -0.2055536 0.17917506 -0.10306639 0.060835585 0.32213944
-0.046322145 0.081021704 0.091917835 0.12939765 0.027191786 -0.1846664 0.113220945 -0.072328806
0.0010747488 0.07693747 -0.0999786 -0.15787128 0.15087284 0.29215926 0.23513432 0.06820896
-0.2617476 -0.28130975 -0.18244211 0.25292677 -0.0016268406 0.007005763 0.24266954 0.21791346
0.104211114 0.08972491 0.018946545 -0.21846268 -0.074546725 0.11361414 0.17156841 0.25580597
0.079066 -0.053612303 0.24483544 0.11658617 0.05934125 0.0009559249 -0.04135759 0.27550408
-0.022860985 0.25927883 -0.21685112 0.045849845 0.09295109 0.18928975 0.022184633 0.033252526
0.14554328 0.06459177 0.0030868368 -0.0015944825 -0.19001654 -0.24856248 0.28773803 -0.059334967
-0.19024199 -0.2651737 0.14168845 -0.046024498 0.37110576 -0.3348784 -0.044516604 0.06309517
0.29458502 0.10779013 -0.20049065 0.23947388 0.1543594 -0.29849416 0.1809008 -0.27204168
-0.08655418 0.014030883 -0.3736678 -0.34415442 0.4061065 -0.11946878 -0.27394998 -0.15009597
-0.27252382 0.21982549 0.18607886 -0.23140459 0.23447691 -0.22843786 0.29265994 0.24613348
0.3204896 0.114269376 -0.2064807 -0.094557896 0.24145657 -0.031996384 -0.22428484 -0.25199676
-0.35957205 -0.12263744 -0.25373572 -0.26113865 0.039732445 -0.20426269 -0.29074413 -0.12558657
-0.05241373 -0.2924329 0.12284554 0.2465609 -0.28965747 0.24458584 0.017912634 0.29896656
-0.24321546 0.27469265 0.46193823 0.22052313 0.06589008 -0.2320962 0.12664004 -0.23708524
-0.26335925 -0.24730524 -0.3347209 0.46506122 0.44821233 0.25648305 -0.0009868765 0.22811587
0.43907878 0.1716155 0.16828728 0.33374685 0.43121415 -0.2981724 0.28281978 -0.2848719
0.20506124 0.20344709 0.16542199 -0.11113854 -0.0797479 -0.4940228 -0.1863204 0.04324293
0.25010586 0.22161949 0.057697963 -0.009526164 -0.43978855 -0.4433462 0.15536653 0.11235847
-0.18104729 -0.2968473 0.43654534 -0.23189807 0.3614381 0.05491356 -0.28349772 0.04730024
-0.062470026 0.38461748 0.23731746 -0.22544739 -0.11348314 0.18199196 -0.29436874 -0.39266074
0.21412043 0.50419205 -0.38806564 -0.03675558 -0.041841686 -0.15823995 0.30869478 0.35990492
-0.2503174 0.23537758 -0.2320846 0.07060646 0.17226443 -0.15446019 -0.43504962 0.2078233
0.28653026 -0.14009185 -0.042166058 -0.081627645 0.4291912 0.39163747 0.041925192 -0.121381775
0.53561944 -0.22060852 -0.23294005 -0.0022983472 -0.22714232 0.30529928 -0.096672535 0.343897
0.38515642 -0.12849012 -0.19952887 -0.109784424 -0.23947993 -0.03057669 -0.179042 -0.012644235
-0.39758945 -0.48486403 -0.16915254 -0.227846 0.031416923 -0.21897502 0.46184024 0.104112856
-0.013621973 0.2008919 0.3040301 0.25962955 -0.17331287 -0.10279131 0.1573734 -0.27042443
-0.186562 0.38955125 -0.07137835 -0.17613412 -0.30339003 -0.0067126104 -0.35918385 -0.33860648
0.12730913 -0.09960367 -0.08407825 -0.22390589 -0.27245042 -0.18791144 -0.07903355 -0.0036898104
0.046228714 0.025038006 0.12457106 0.19369222 -0.012996027 -0.21740742 0.05045776 -0.13344218
00000000: 5ce3 223e b003 34be 4b0b 7ebd a57c 52be
00000010: ab79 373e 7914 d3bd bc2e 793d 76ef a43e
00000020: 4abc 3dbd b5ee a53d 6b3f bc3d d180 043e
00000030: 4fc1 de3c 3019 3dbe 62e0 e73d 2021 94bd
00000040: 96de 8c3a 6491 9d3d 95c1 ccbd 02a9 21be
00000050: 697e 1a3e e695 953e 0dc7 703e 24b1 8b3d
00000060: c803 86be d507 90be 1bd2 3abe 9e7f 813e
00000070: b63b d5ba 9990 e53b 5d7e 783e b524 5f3e
00000080: a36c d53d b2c1 b73d c935 9b3c aeb4 5fbe
00000090: f4ab 98bd 88ae e83d a1af 2f3e 00f9 823e
000000a0: 5bed a13d 9398 5bbd 24b6 7a3e bbc4 ee3d
000000b0: d00f 733d 0997 7a3a 9466 29bd df0e 8d3e
000000c0: f646 bbbc 32c0 843e 380e 5ebe 0ccd 3b3d
000000d0: 245d be3d 2cd5 413e 8cbc b53c cd33 083d
000000e0: 4c09 153e b148 843d 874c 4a3b f4fd d0ba
000000f0: b293 42be 2a87 7ebe 6652 933e 3909 73bd
00000100: ccce 42be d9c4 87be c716 113e 2f84 3cbd
00000110: 9301 be3e 2f75 abbe 0b57 36bd 0a38 813d
00000120: d9d3 963e 12c1 dc3d 6c4d 4dbe a438 753e
00000130: 6410 1e3e 3ad4 98be 0f3e 393e 0c49 8bbe
00000140: 5143 b1bd cae1 653c 6351 bfbe 0235 b0be
00000150: 31ed cf3e 0cac f4bd 2c43 8cbe c2b2 19be
00000160: 3e88 8bbe ef19 613e 758b 3e3e 53f5 6cbe
00000170: b71a 703e 9deb 69be 86d7 953e 6a0a 7c3e
00000180: 3617 a43e 1006 ea3d ad6f 53be 92a7 c1bd
00000190: 6440 773e a40e 03bd edaa 65be b805 81be
000001a0: d419 b8be 5729 fbbd a6e9 81be f7b3 85be
000001b0: 7dbe 223d 3d2a 51be 6adc 94be c499 00be
000001c0: c8af 56bd c4b9 95be 7196 fb3d 767a 7c3e
000001d0: fc4d 94be b674 7a3e 84bd 923c 2512 993e
000001e0: 790d 79be 84a4 8c3e 2b83 ec3e d1d0 613e
000001f0: 61f1 863d a0aa 6dbe edad 013e 79c6 72be
00000200: 06d7 86be 963d 7dbe 8a60 abbe 811c ee3e
00000210: 167c e53e bf51 833e 155a 81ba 3597 693e
00000220: efce e03e f9bb 2f3e 8053 2c3e dee0 aa3e
00000230: 1ac8 dc3e 0eaa 98be c1cd 903e bbda 91be
00000240: 93fb 513e 6f54 503e 6264 293e 9a9c e3bd
00000250: de52 a3bd 8ef0 fcbe c6ca 3ebe 801f 313d
00000260: e00d 803e 38f0 623e b354 6c3d a113 1cbc
00000270: f72b e1be 46fe e2be 6718 1f3e 331c e63d
00000280: 7664 39be 5ffc 97be df82 df3e b076 6dbe
00000290: 6a0e b93e 0bed 603d 9d26 91be e5bd 413d
000002a0: 92e0 7fbd 95ec c43e 5903 733e aedb 66be
000002b0: d969 e8bd 1a5c 3a3e 80b7 96be d40a c9be
000002c0: 6342 5b3e bb12 013f 8ab0 c6be 058d 16bd
000002d0: 3062 2bbd a709 22be 3e0d 9e3e 7545 b83e
000002e0: 9a29 80be d206 713e 96a7 6dbe 1f9a 903d
000002f0: 1666 303e d02a 1ebe d3be debe a2cf 543e
00000300: 18b4 923e 3d74 0fbe 51b6 2cbd 652c a7bd
00000310: f3be db3e b584 c83e c0b9 2b3d 0297 f8bd
00000320: 5b1e 093f 33e7 61be d687 6ebe de9f 16bb
00000330: ff97 68be 3050 9c3e 40fc c5bd 4513 b03e
00000340: 3933 c53e ea92 03be 4c51 4cbe a8d6 e0bd
00000350: 3a3a 75be f77b fabc c956 37be c429 4fbc
00000360: d890 cbbe 1940 f8be 5336 2dbe 7650 69be
00000370: 08af 003d fd3a 60be 5376 ec3e 1f39 d53d
00000380: b22e 5fbc 9bb6 4d3e d5a9 9b3e 2aee 843e
00000390: ee78 31be 4084 d2bd 7e26 213e 1275 8abe
000003a0: 1c0a 3fbe 4373 c73e d02e 92bd 815c 34be
000003b0: f055 9bbe 75f5 dbbb f2e6 b7be d45d adbe
000003c0: 535d 023e 02fd cbbd 3831 acbd 9647 65be
000003d0: 9f7e 8bbe db6b 40be 58dc a1bd bfd0 71bb
000003e0: 525a 3d3d 811c cd3c 1d1f ff3d 4157 463e
000003f0: 4aed 54bc 0da0 5ebe ccac 4e3d 11a5 08be

lstm_9/lstm_cell_9/bias1 f4 [240]
-0.026264662 -0.00079636317 -0.0001811151 -0.029917547 0.009279397 -0.0030890724 -0.022891326 0.031314544
0.05019442 -0.02404738 0.01596947 -0.033019993 -0.011276828 0.031032639 -0.008578076 0.032991868
0.0006137834 -0.05331808 0.026602948 -0.064352036 0.006524704 -0.011659885 0.028157135 0.07823335
-0.06044456 -0.0131786 0.0119341705 0.20276964 0.086348236 -0.015864363 -0.008420199 0.018758181
-0.013293266 -0.0058208746 -0.019242393 -0.010561977 -0.023225745 0.008341379 0.12986635 -0.0457997
-0.017193865 -0.0018020858 0.034976456 -0.0059039397 0.0600394 -0.08703115 -0.004671103 -0.08528532
-0.032607645 0.03941788 0.14296503 0.008031568 0.028166756 0.049968757 0.04270423 0.016648076
-0.0064022574 -0.02654413 0.0120417485 0.008520892 1.0507959 1.0126107 1.0884756 0.98666084
0.97210926 1.0208333 0.964543 1.0530819 1.0204442 1.0875586 1.0957949 1.0288754
1.0148437 0.99530685 1.0112355 0.97236335 1.0349791 1.0219314 1.0155432 1.0587136
1.0069789 0.9834576 1.0602609 0.95130014 0.9745327 1.0729063 1.0551704 1.0122066
1.0289898 1.01508 1.0183654 1.0603209 1.0648799 0.9852003 1.0195237 0.9964992
1.0181745 0.9794425 1.0378721 1.0116396 1.0311824 1.0112878 1.0474604 1.0243562
1.0711302 1.0037596 0.993573 1.0544249 0.93290895 1.0097343 1.111545 0.99307907
1.019306 1.0727823 1.0430464 0.9698335 1.0147848 0.9841039 0.9680555 1.1803561
0.024687635 -0.013313864 -0.012656903 -0.0027165664 -0.041134488 -0.016865727 -0.0071414853 0.017700557
-0.007928158 -0.009160993 -0.024297427 -0.036982894 -0.045552853 -0.04577077 -0.0077388 0.06968703
0.037875235 -0.016301204 0.010323881 -0.0056191743 -0.004076915 0.04392021 -0.07017264 -0.10018535
-6.4193475e-05 0.060087647 -0.019728085 -0.036823165 -0.015994104 0.0068006343 -0.0008037989 -0.0019994183
0.003064925 -0.03023114 0.008687291 0.02920619 0.026783038 0.020147415 -0.08415641 0.0038008175
-0.022696657 0.05200916 -0.0011490058 -0.035761766 -0.0055783866 0.016276287 -0.048074666 0.00827713
-0.03091248 0.027335113 -0.027986296 0.00913547 -0.02430509 -0.056238208 -0.0025598283 -0.023859188
-0.012236365 0.028382959 0.041050553 -0.06423043 0.06493613 -0.047063705 0.043827232 0.004517367
0.019885665 0.038309347 -0.00047599082 0.04587395 0.03349611 0.007064543 -0.015908884 0.091804035
0.032609314 0.026689008 0.041930538 -0.011507109 0.0401325 0.043239694 0.045213792 0.084961034
-0.0015006659 0.011444393 0.09588698 0.14951187 0.018861381 0.0835207 0.091238014 0.20011538
0.16392112 0.043683156 0.02585387 0.041585017 0.13380632 -0.05593525 0.04994438 -0.0018431991
-0.03605517 0.062211763 0.08115201 0.01805541 0.055346828 0.053670414 0.055631652 0.04602564
0.07796767 -0.0179505 0.023628578 -0.0059120907 -0.010163708 0.039001215 -0.00043192593 -0.018463613
0.06888747 0.101245865 0.012391818 0.055183973 0.11651143 0.005995426 0.0434438 0.038451023
00000000: fd28 d7bc 07c3 50ba b7e9 3db9 a515 f5bc
00000010: 9d08 183c 0972 4abb 9786 bbbc ae43 003d
00000020: aa98 4d3d 03ff c4bc 68d2 823c f93f 07bd
00000030: 72c2 38bc 2938 fe3c 0f8b 0cbc 7b22 073d
00000040: 4fe6 203a 0f64 5abd 6dee d93c 00cb 83bd
00000050: 2fcd d53b 1a09 3fbc cba9 e63c ce38 a03d
00000060: b794 77bd 0eeb 57bc 8a87 433c d8a2 4f3e
00000070: 58d7 b03d fbf5 81bc e0f4 09bc c2aa 993c
00000080: 00cc 59bc 09bd bebb 39a2 9dbc 240c 2dbc
00000090: eb43 bebc 48aa 083c affb 043e 7798 3bbd
000000a0: 26da 8cbc f733 ecba 7943 0f3d d675 c1bb
000000b0: e0eb 753d 633d b2bd 0d10 99bb 12aa aebd
000000c0: 988f 05bd a574 213d 6d65 123e d696 033c
000000d0: f8bd e63c 0aac 4c3d a1ea 2e3d 8c61 883c
000000e0: 07ca d1bb 1373 d9bc c14a 453c 369b 0b3c
000000f0: 7b80 863f 3a9d 813f 2b53 8b3f ce95 7c3f
00000100: 27dc 783f aaaa 823f 4aec 763f 63cb 863f
00000110: ea9d 823f 1f35 8b3f 0243 8c3f 30b2 833f
00000120: 66e6 813f 6ecc 7e3f 2a70 813f ceec 783f
00000130: 327a 843f a6ce 823f 52fd 813f ed83 873f
00000140: afe4 803f e1c3 7b3f a1b6 873f 6888 733f
00000150: fa7a 793f fe54 893f d30f 873f fc8f 813f
00000160: f0b5 833f 24ee 813f cc59 823f 98b8 873f
00000170: fc4d 883f 1636 7c3f c17f 823f 921a 7f3f
00000180: 8b53 823f bebc 7a3f fed8 843f 687d 813f
00000190: c9fd 833f e171 813f 2f13 863f 1b1e 833f
000001a0: cb1a 893f 327b 803f cd5a 7e3f 65f7 863f
000001b0: 1fd3 6e3f f93e 813f 1b47 8e3f 6e3a 7e3f
000001c0: 9e78 823f ee50 893f 8b82 853f 0247 783f
000001d0: 78e4 813f 3cee 7b3f 7cd2 773f e915 973f
000001e0: b93d ca3c 6522 5abc e65e 4fbc 6c08 32bb
000001f0: a37c 28bd fe29 8abc 1f03 eabb c200 913c
00000200: 1be5 01bc fd17 16bc 660b c7bc 607b 17bd
00000210: a195 3abd 227a 3bbd c295 fdbb 13b8 8e3d
00000220: 1023 1b3d 1a8a 85bc 7f25 293c 0d21 b8bb
00000230: a497 85bb aee5 333d acb6 8fbd fa2d cdbd
00000240: 9c9f 86b8 771e 763d cb9c a1bc e3d3 16bd
00000250: 1106 83bc dbd7 de3b 08b6 52ba ac08 03bb
00000260: e9dc 483b 4ca7 f7bc 2455 0e3c d241 ef3c
00000270: 1a68 db3c 310c a53c 325a acbd 2317 793b
00000280: 57ee b9bc 8f07 553d 3d9a 96ba ee7a 12bd
00000290: e6ca b6bb d955 853c f1e9 44bd cd9c 073c
000002a0: 2b3c fdbc e3ed df3c 8443 e5bc f0ac 153c
000002b0: 781b c7bc 095a 66bd cbc2 27bb 5874 c3bc
000002c0: 097b 48bc 6183 e83c a024 283d 3e8b 83bd
000002d0: 3cfd 843d dfc5 40bd 2f84 333d 6c06 943b
000002e0: 43e7 a23c 43ea 1c3d 688e f9b9 53e6 3b3d
000002f0: 3833 093d af7d e73b 5953 82bc c103 bc3d
00000300: 5891 053d e8a2 da3c 5bbf 2b3d 5088 3cbc
00000310: fa61 243d 1b1c 313d 1932 393d 0d00 ae3d
00000320: feb1 c4ba 4381 3b3c 6560 c43d a419 193e
00000330: 2f83 9a3c e70c ab3d ffda ba3d 0ceb 4c3e
00000340: f0da 273e 1ced 323d 7fcb d33c 0d55 2a3d
00000350: 8604 093e 5c1c 65bd 7a92 4c3d 8097 f1ba
00000360: 96ae 13bd c3d1 7e3d 0633 a63d f0e8 933c
00000370: 5bb3 623d 82d5 5b3d 04de 633d 6285 3c3d
00000380: 84ad 9f3d ed0c 93bc b890 c13c 36ba c1bb
00000390: ae85 26bc bdbf 1f3d 1e74 e2b9 0141 97bc
000003a0: e014 8d3d fe59 cf3d 0d07 4b3c 9708 623d
000003b0: 8b9d ee3d 4775 c43b 20f2 313d d27e 1d3d

while/MatMul_1 f4 [240, 60]
0.1032381 0.2048769 -0.070966944 0.04971177 -0.05666597 0.08174036 -0.14266197 0.123158775
0.10072067 -0.07602267 0.02229948 -0.085477404 -0.06468194 -0.018531041 -0.031007806 -0.18523489
-0.017923294 -0.08385318 0.040911745 0.19979689 0.0897657 0.13679653 0.014993355 -0.12030931
-0.06574432 0.22319415 0.19758049 -0.18348217 -0.11878774 0.07307008 -0.105862305 0.0046655755
0.14936827 0.07375808 -0.24951208 -0.11158998 -0.051996183 0.01929451 -0.07824734 0.035562154
-0.053494893 0.1234233 -0.1075284 -0.042927247 -0.18288802 -0.0113839535 -0.080397844 -0.018267235
-0.21414046 0.058875576 0.02511176 -0.09092741 0.111732125 -0.15603663 0.09483269 -0.045111705
0.091209985 0.029718243 -0.0731402 0.1139366 -0.12858735 0.09082503 0.063313544 -0.14633931
-0.003922129 -0.05527112 -0.12361005 0.042741254 0.1645233 -0.09826152 0.0141356625 -0.07661916
0.05682836 0.048512414 -0.07164223 -0.026613368 0.033502936 -0.10229374 0.18649577 -0.02506875
-0.09478412 0.1405645 -0.060392737 0.06493262 -0.0374672 0.012573549 0.14173667 0.110543795
0.03133778 0.0955712 -0.08129236 -0.00021948051 -0.014559343 -0.086173326 -0.18649358 0.12306153
-0.012723501 0.09113935 -0.058653608 -0.046910785 -0.024688538 0.06645034 0.042196825 0.027363706
0.105484255 0.07746341 0.07708387 0.03748147 -0.019881094 -0.07680117 0.21838845 0.09607895
0.06409982 0.0032885794 0.065204754 0.08799925 0.01800919 0.089320354 -0.17887445 0.008049182
0.280785 0.1537924 0.03218198 0.0065825335 -0.053324036 -0.0796572 -0.035655953 0.0641334
-0.13059476 -0.06295237 0.2525093 -0.072151706 -0.07533302 0.18126687 0.1723356 -0.05252043
-0.02295825 -0.19282222 0.08528602 0.13973401 0.04367633 0.016379476 0.096620716 -0.1379646
-0.0056358897 -0.044029925 0.1261447 -0.19152239 -0.05492753 0.055561844 -0.044228327 -0.07569933
-0.10185528 -0.05507687 -0.092152454 -0.031154828 -0.11472852 0.13845816 0.08987928 0.21878937
0.06214879 -0.14743528 0.024127757 -0.24629484 -0.17014529 0.2976591 -0.052508537 0.09279051
-0.022965193 -0.114504814 0.025349494 0.0046259854 0.18266767 0.020794071 0.1343469 0.011730522
0.13859673 0.101551555 0.07949984 0.1974022 -0.0191955 0.099531814 -0.11434581 -0.07152583
0.06253597 0.043761194 -0.0006140087 0.033900075 0.16069405 -0.092803895 0.10302716 -0.07970118
-0.032562904 -0.0014975641 0.06891294 -0.029771507 0.21719396 -0.045453336 0.055523664 0.1366148
0.14170302 0.012060508 -0.10768007 0.016390665 -0.1066647 0.1411848 0.049299154 -0.131456
-0.059626237 0.029247189 -0.1129808 -0.003713037 0.04128999 0.014346597 -0.15752737 -0.05593724
-0.094672784 0.12746224 0.07021609 -0.017537406 -0.08079654 -0.03269393 -0.08923328 -0.03245018
-0.1262248 -0.046669096 -0.08751204 0.03705623 -0.102857284 0.025123278 0.052657805 -0.10723919
-0.088552155 -0.070940204 0.086426705 -0.13056864 0.07896286 -0.050786246 -0.104779996 0.10314113
-0.067619495 -0.02211495 -0.092472136 0.1278371 0.039910965 -0.07150798 -0.021053288 0.041607797
-0.12994917 -0.094679676 0.024540434 0.08906472 -0.02876003 -0.061150484 0.03611719 0.007573616
00000000: 7f6e d33d 40cb 513e 1e57 91bd 929e 4b3d
00000010: 931a 68bd 7d67 a73d fb15 12be ab3a fc3d
00000020: a346 ce3d c6b1 9bbd 66ad b63c c70e afbd
00000030: f777 84bd 69ce 97bc 1504 febc 37ae 3dbe
00000040: dfd3 92bc 37bb abbd 1393 273d 8e97 4c3e
00000050: 14d7 b73d 6414 0c3e b0a6 753c ba64 f6bd
00000060: f5a4 86bd 028d 643e 8a52 4a3e c0e2 3bbe
00000070: fd46 f3bd c4a5 953d 56ce d8bd afe1 983b
00000080: fff3 183e 7a0e 973d 1880 7fbe 4a89 e4bd
00000090: f3f9 54bd 850f 9e3c 2440 a0bd 9fa9 113d
000000a0: 761d 5bbd 5bc5 fc3d da37 dcbd 7bd4 2fbd
000000b0: ff46 3bbe c383 3abc a0a7 a4bd 2ba5 95bc
000000c0: a347 5bbe 8427 713d 2db7 cd3c 2638 babd
000000d0: d0d3 e43d 11c8 1fbe a437 c23d 0dc7 38bd
000000e0: 4dcc ba3d ac73 f33c 87ca 95bd 9857 e93d
000000f0: 67ac 03be 7902 ba3d 88aa 813d f9d9 15be
00000100: 3485 80bb f863 62bd 4427 fdbd 7411 2f3d
00000110: cc78 283e 563d c9bd 4499 673c 82ea 9cbd
00000120: dbc4 683d f4b4 463d 29b9 92bd 4704 dabc
00000130: 603a 093d 617f d1bd bff8 3e3e fb5c cdbc
00000140: 2d1e c2bd 24f0 0f3e 605e 77bd 65fb 843d
00000150: 3577 19bd 4901 4e3c 6b23 113e c964 e23d
00000160: 0b5c 003d d5ba c33d 9c7c a6bd 5a24 66b9
00000170: 508a 6ebc a47b b0bd 2cf8 3ebe af07 fc3d
00000180: 3b76 50bc 44a7 ba3d c43e 70bd 8625 40bd
00000190: 9e3f cabc 1e17 883d 94d6 2c3d da29 e03c
000001a0: 2108 d83d 23a5 9e3d 26de 9d3d 2b86 193d
000001b0: addd a2bc ef49 9dbd 39a1 5f3e 0ac5 c43d
000001c0: c446 833d 3585 573b 128a 853d f338 b43d
000001d0: 0288 933c 97ed b63d dd2a 37be b7e0 033c
000001e0: 0dc3 8f3e c17b 1d3e 40d1 033d 4bb2 d73b
000001f0: 4e6a 5abd 5023 a3bd fa0b 12bd 5f58 833d
00000200: a2ba 05be 2ced 80bd e648 813e 46c4 93bd
00000210: 3348 9abd 069e 393e be78 303e aa1f 57bd
00000220: f112 bcbc 3073 45be 70aa ae3d 6f16 0f3e
00000230: f4e5 323d 402e 863c 15e1 c53d 9846 0dbe
00000240: 45ad b8bb b958 34bd 142c 013e 721e 44be
00000250: b1fb 60bd d194 633d c328 35bd 4008 9bbd
00000260: 8099 d0bd 4998 61bd 6dba bcbd 6938 ffbc
00000270: c9f6 eabd fac7 0d3e a112 b83d 520a 603e
00000280: bb8f 7e3d 46f9 16be 93a7 c53c b734 7cbe
00000290: 913a 2ebe c666 983e 3113 57bd f308 be3d
000002a0: 8021 bcbc 8081 eabd bea9 cf3c 9495 973b
000002b0: 3c0d 3b3e 5458 aa3c 3c92 093e 6031 403c
000002c0: 4dec 0d3e 43fa cf3d d0d0 a23d cd23 4a3e
000002d0: e23f 9dbc 56d7 cb3d 232e eabd 227c 92bd
000002e0: dc12 803d f03e 333d 6df5 20ba ceda 0a3d
000002f0: fb8c 243e f80f bebd e7ff d23d 5f3a a3bd
00000300: ae60 05bd ea49 c4ba 3a22 8d3d 60e3 f3bc
00000310: 1868 5e3e 472d 3abd c86c 633d c0e4 0b3e
00000320: 991a 113e 7099 453c 5e87 dcbd b745 863c
00000330: 0673 dabd c092 103e e9ed 493d 679c 06be
00000340: a43a 74bd cd97 ef3c 7a62 e7bd 6c56 73bb
00000350: b11f 293d fd0d 6b3c db4e 21be 731e 65bd
00000360: cee3 c1bd 7685 023e 74cd 8f3d 9baa 8fbc
00000370: a878 a5bd 12ea 05bd f0bf b6bd 7bea 04bd
00000380: 1341 01be 1828 3fbd 8339 b3bd 46c8 173d
00000390: d7a6 d2bd 55cf cd3c b6af 573d 38a0 dbbd
000003a0: d55a b5bd 1949 91bd 7c00 b13d c9b3 05be
000003b0: 48b7 a13d 3d05 50bd e596 d6bd a83b d33d
000003c0: 177c 8abd 692a b5bc 0862 bdbd bbe7 023e
000003d0: ae79 233d c772 92bd f277 acbc f06c 2a3d
000003e0: 6511 05be 6be7 c1bd 0509 c93c 9067 b63d
000003f0: 289a ebbc ee78 7abd 9eef 133d 192c f83b

while/MatMul f4 [240, 3]
0.115381315 0.05029924 0.11843605 -0.10882578 0.06719406 0.008315254 0.083552785 -0.041432012
0.1798999 0.052831016 0.035182998 0.16238683 -0.10063826 -0.04919352 0.033177204 -0.19611625
-0.04853724 -0.013784597 0.0757899 -0.07041457 0.024981009 -0.109250575 0.06827412 0.07134866
-0.09583715 0.07921681 0.0103699 -0.18498378 0.045939423 0.046298075 -0.053235393 0.13836135
-0.06988641 -0.030112496 -0.31338602 -0.1155989 -0.15003157 -0.074188344 0.068314455 0.0008469669
-0.07254735 -0.042837225 0.08003131 -0.09491938 -0.05492225 -0.0946993 0.044264562 -0.04081723
-0.099968515 -0.10443917 -0.13704495 0.12871943 0.08791825 0.16235207 -0.007968773 0.025999112
0.121320315 0.12124251 -0.0475838 0.20547633 -0.17145842 0.03968146 -0.050563976 0.03198749
-0.10790565 -0.05350207 0.04471627 -0.14168167 0.021272635 -0.14729185 0.14092453 -0.035856836
0.17703292 0.06656189 -0.05390383 -0.16816595 -0.13321736 -0.13792428 -0.10048405 -0.033460505
-0.15934594 -0.08588434 0.009777088 -0.07943849 0.08531306 0.039752323 0.032588083 0.055053182
0.13051195 0.079212785 -0.02139709 -0.00926052 -0.14361812 0.06497191 -0.081141844 0.01246858
-0.15371916 -0.0049078325 -0.23881198 0.11703141 0.039409876 -0.051753215 0.12625225 -0.106239185
-0.13235506 -0.16163337 0.014965276 -0.015508192 -0.1383529 0.072597705 -0.16156366 0.026456865
-0.070270754 0.10861528 0.062444646 0.029396215 -0.17852907 -0.018290453 0.058840014 0.15902428
-0.21526319 0.10494542 0.0035094456 -0.067841664 -0.11482485 0.054889433 0.046223115 -0.15051079
-0.012011612 -0.10278039 -0.013213581 -0.13256297 0.09623024 0.065999426 0.122492164 0.04913776
0.10877997 -0.12691683 -0.027743835 -0.12924574 0.022090208 -0.17748295 0.11760659 -0.16613345
-0.014867085 -0.03025982 0.029416937 0.15437114 -0.038191903 0.048757363 -0.008136168 0.1375949
0.04326343 -0.13814816 0.024213115 0.0059460173 0.18369739 -0.1267448 -0.09740273 -0.099979095
-0.13457516 0.076844 -0.03824243 0.080583796 -0.0073357862 0.10726359 -0.039111793 -0.048979186
0.111803 -0.07263402 0.20428754 0.09535149 -0.08990435 -0.04710551 0.0013455563 -0.078307614
-0.033787526 -0.32242453 0.0043788585 -0.06412664 -0.07825053 0.050915245 -0.23829636 0.023173055
-0.004956298 -0.09137853 -0.0009529914 0.04934812 -0.35737053 0.011108815 -0.03897463 0.07742994
0.07805795 -0.0040940307 0.071905166 0.0010539695 0.17912343 0.08919841 -0.120010845 0.0062285312
0.025802061 -0.045169383 0.040194727 -0.034506258 -0.13177462 0.047613006 0.013775099 0.060435854
0.06283157 -0.017150573 -0.054358236 0.046860404 -0.024369596 0.16462795 0.02311452 -0.009129107
0.15964761 -0.0083171 -0.033443283 0.041997988 0.056589603 0.035071272 -0.07840025 -0.07658012
-0.12954128 0.033095766 -0.09085332 -0.24909627 -0.16507554 0.039008506 -0.1315499 -0.03895133
-0.035962738 -0.0021096976 0.0470546 -0.064928785 0.011285499 0.012169318 0.11813515 -0.12815061
-0.048853733 0.085743934 0.050534997 -0.052151687 0.002217453 -0.06286009 -0.12889777 -0.003920367
-0.1807801 0.05149571 0.047846228 0.068298824 0.0018771889 0.1745771 -0.0375046 0.1407301
00000000: 0a4d ec3d 9306 4e3d 9a8e f23d 0de0 debd
00000010: 0a9d 893d b43c 083c b91d ab3d 9db4 29bd
00000020: ae37 383e 5665 583d 0c1c 103d bc48 263e
00000030: 6f1b cebd 257f 49bd d2e4 073d b3d2 48be
00000040: fcce 46bd cad8 61bc bc37 9b3d 8435 90bd
00000050: f9a4 cc3c c4be dfbd 4dd3 8b3d 3f1f 923d
00000060: 4546 c4bd 6c3c a23d 83e6 293c 636c 3dbe
00000070: fa2a 3c3d 0da3 3d3d 5b0d 5abd 99ae 0d3e
00000080: 9b20 8fbd 7bae f6bc 2274 a0be 1ebf ecbd
00000090: e0a1 19be 0ff0 97bd 73e8 8b3d fd06 5e3a
000000a0: b493 94bd 1676 2fbd 75e7 a33d 1865 c2bd
000000b0: 27f6 60bd b5f1 c1bd c24e 353d f82f 27bd
000000c0: 4bbc ccbd 34e4 d5bd 8355 0cbe 07cf 033e
000000d0: 7c0e b43d 9f3f 263e 758f 02bc 17fc d43c
000000e0: c976 f83d fe4d f83d 3be7 42bd 6368 523e
000000f0: cc92 2fbe 0789 223d 2c1c 4fbd 5005 033d
00000100: a3fd dcbd fd24 5bbd 6828 373d 0015 11be
00000110: f343 ae3c add3 16be 854e 103e 9ede 12bd
00000120: 1e48 353e 9a51 883d 43ca 5cbd b233 2cbe
00000130: 226a 08be 063c 0dbe 95ca cdbd e20d 09bd
00000140: 952b 23be 21e4 afbd 1430 203c a6b0 a2bd
00000150: 9db8 ae3d 55d3 223d 157b 053d 727f 613d
00000160: eda4 053e 503a a23d f348 afbc 70b9 17bc
00000170: a110 13be fe0f 853d b22d a6bd 0449 4c3c
00000180: 8e68 1dbe e2d1 a0bb 218b 74be 2aae ef3d
00000190: 406c 213d 2efb 53bd 4548 013e ee93 d9bd
000001a0: 1688 07be 3883 25be eb30 753c 1216 7ebc
000001b0: 62ac 0dbe 1bae 943d f270 25be 11bc d83c
000001c0: 1dea 8fbd b071 de3d f5c5 7f3d 55d0 f03c
000001d0: 53d0 36be dcd5 95bc 3a02 713d 43d7 223e
000001e0: f46d 5cbe a0ed d63d bafe 653b 92f0 8abd
000001f0: 4a29 ebbd bed3 603d 7354 3d3d 801f 1abe
00000200: 5acc 44bc 867e d2bd c77d 58bc 96be 07be
00000210: 5c14 c53d b52a 873d 2cdd fa3d ad44 493d
00000220: 08c8 de3d 7cf6 01be 0a47 e3bc ff58 04be
00000230: 86f6 b43c 17be 35be b9db f03d e31e 2abe
00000240: 1395 73bc 71e3 f7bc cafb f03c 7813 1e3e
00000250: 1d6f 1cbd cdb5 473d 904d 05bc ade5 0c3e
00000260: ff34 313d b676 0dbe 955a c63c cfd6 c23b
00000270: 2b1b 3c3e 64c9 01be 157b c7bd d7c1 ccbd
00000280: 12ce 09be 6360 9d3d 18a4 1cbd 1e09 a53d
00000290: 0961 f0bb 03ad db3d b033 20bd 669e 48bd
000002a0: f9f8 e43d 25c1 94bd c130 513e a447 c33d
000002b0: c61f b8bd b5f1 40bd 615d b03a be5f a0bd
000002c0: ca64 0abd d414 a5be 877c 8f3b d454 83bd
000002d0: d041 a0bd 818c 503d f603 74be 6bd5 bd3c
000002e0: 7168 a2bb ab24 bbbd 2cd2 79ba 4121 4a3d
000002f0: 45f9 b6be bf01 363c dda3 1fbd 9793 9e3d
00000300: d9dc 9f3d 3827 86bb 0443 933d 5925 8a3a
00000310: 226c 373e a8ad b63d 3fc8 f5bd b518 cc3b
00000320: d85e d33c 8803 39bd 3aa3 243d 6f56 0dbd
00000330: edef 06be db05 433d f4b0 613c 968b 773d
00000340: d7ad 803d 5c7f 8cbc bea6 5ebd b2f0 3f3d
00000350: bfa2 c7bc 3b94 283e a95a bd3c 4092 15bc
00000360: aa7a 233e 7244 08bc d3fb 08bd 1506 2c3d
00000370: 80ca 673d e5a6 0f3d 4f90 a0bd 0ad6 9cbd
00000380: 78a6 04be 6d8f 073d 4e11 babd 1813 7fbe
00000390: 9009 29be 62c7 1f3d 04b5 06be 6e8b 1fbd
000003a0: aa4d 13bd da42 0abb 53bc 403d 62f9 84bd
000003b0: d0e6 383c d261 473c d7f0 f13d ea39 03be
000003c0: da1a 48bd 849a af3d c9fd 4e3d 029d 55bd
000003d0: b052 113b cabc 80bd c7fd 03be 6c76 80bb
000003e0: 6b1e 39be 2aed 523d 68fa 433d 41e0 8b3d
000003f0: 020c f63a 57c4 323e 6c9e 19bd 8d1b 103e
